prediction/prediction_KeyPoint/weight_R/model_157_0.10040249.pth (torch_old, 328977 bytes, 23 tensors)

features.conv0.conv1.weight f4 [3, 1, 3, 3]
000000 2e 5d 15 3c f1 03 a4 3e 1d 87 18 be db 40 3f be
       0.009116454 0.32034257 -0.14895292 -0.18677084
000010 31 04 2c bf 5b fb 88 bd 5d af 34 bc 90 3f e4 3f
       -0.67193896 -0.06688567 -0.011028138 1.7831898
000020 7b 7c a0 3d d6 89 1c bc 04 7b cb be 1f 0d 71 bd
       0.07836243 -0.009554347 -0.3974229 -0.058850404
000030 e6 7f 54 3e 5c 73 3f 3e 6e 12 e0 3f b8 e4 ea bd
       0.20751914 0.1869635 1.7505624 -0.11469406
000040 15 c4 20 bf 5e be 20 3d 49 dc 9d bd 5e f2 05 be
       -0.627992 0.03924405 -0.07708032 -0.13080737
000050 4d 6b 0e bf 44 a7 a4 3d 36 d6 4b 3f 52 04 ca bf
       -0.5563248 0.08039716 0.79623735 -1.5782568
000060 a3 5a e8 bd ec 20 08 bf a2 cc d9 3e
       -0.113454126 -0.53175235 0.42538935

features.conv0.pointwise.weight f4 [32, 3, 1, 1]
000000 31 48 61 3e ba b0 ba be 05 b6 ba 3f 84 72 b9 3e
       0.22000195 -0.36462957 1.4586798 0.3622018
000010 05 44 54 3f 12 e7 38 3f 21 07 3b be a0 1f cc bf
       0.8291629 0.72227585 -0.18264438 -1.5947151
000020 0b 93 0c 3f 3a 32 8e 3e 56 fa 6e be 9f 16 9f 3f
       0.5491187 0.27772695 -0.23337683 1.2428778
000030 e8 cd 43 bf ad d6 4e 3f 89 c0 3e be c2 8f a6 3d
       -0.76486063 0.8079632 -0.18628134 0.081328884
000040 f8 bf fd 3e 4a 97 b4 bf 22 da 0b 3f 49 77 48 bf
       0.49560523 -1.410867 0.5462972 -0.78307015
000050 a5 2f 28 be a6 44 8d bd c8 2e 62 bf 78 21 1f bf
       -0.16424425 -0.06897859 -0.8835263 -0.62160444
000060 2c 50 3f bf 5c 54 d0 3e e2 e2 9c be 0b 7f 9e 3c
       -0.7473171 0.4068936 -0.30641848 0.019347688
000070 8b 56 6f 3f d9 a9 54 bf f9 6d eb 3d 4e b6 16 3f
       0.9349143 -0.83071667 0.11495585 0.58871925
000080 a6 5d 57 3f 52 21 6d c0 ba 96 72 3e 92 4e 02 3e
       0.8412727 -3.7051587 0.2369031 0.12725285
000090 00 6b 15 3f 00 1d b1 bc fe be 66 bf 8f 41 46 3d
       0.58366394 -0.021620274 -0.9013518 0.048402365
0000a0 76 58 f4 3e 9b c5 98 bf 25 98 83 bf f1 07 e6 be
       0.4772374 -1.1935304 -1.0280806 -0.44927934
0000b0 1b cf 51 3e 5c 17 3d 40 95 c0 31 3e 27 21 72 be
       0.2048916 2.9545507 0.1735862 -0.23645459
0000c0 3a 98 d9 bc f9 0f 01 40 93 22 cf be 73 c2 56 c0
       -0.026561845 2.0166 -0.40456066 -3.3556182
0000d0 df d6 ab 3e 68 c0 ed 3d b0 8f da be 4d d0 3f bf
       0.3356237 0.11608964 -0.4268775 -0.74927217
0000e0 61 a0 30 3f 0d 58 b7 be 95 93 4f bf ac d6 3b bf
       0.6899472 -0.35809365 -0.8108457 -0.7337444
0000f0 71 73 34 3f 49 4f c3 3e 96 7e 12 3f 29 f8 9e 3d
       0.7048865 0.38146427 0.57224405 0.077621765
000100 6d c9 a0 bf df d7 0e 3f 83 4d 04 3f dd 5f 6a bf
       -1.256147 0.55798143 0.51680773 -0.91552526
000110 32 70 6b be 91 f0 8f 3e d8 7f 55 3d f8 20 b8 bf
       -0.22992018 0.28113225 0.052123874 -1.4385061
000120 88 2d 45 bf 66 23 5d 3f e1 21 da 3d 0a 2c 89 be
       -0.770226 0.8638214 0.10650993 -0.26791412
000130 0e bf ad be 63 03 0f c0 0b 40 71 bd e9 65 d1 be
       -0.33934826 -2.2345817 -0.058898967 -0.40898064
000140 ba f1 13 40 cb b1 7b 3e 4c 2c 3c 3f 3b cc 16 3f
       2.3116288 0.24579541 0.7350509 0.5890538
000150 78 85 9c 3e f9 17 df 3d 15 00 24 c0 0a 13 99 3e
       0.3057058 0.10893244 -2.562505 0.29897338
000160 9a 0a 1b 3f 68 b5 81 3f e3 3a ad 3e fb d9 98 bf
       0.6056305 1.0133486 0.3383399 -1.1941522
000170 e9 18 d4 be 42 70 60 c0 6c 9f 2b 3e 0e 19 2e 3e
       -0.41425255 -3.5068517 0.16760033 0.17001745

features.bn0.weight f4 [32]
000000 a1 bd 01 3f 2d 25 d2 3d 25 fe 07 3f 94 0b c7 3d
       0.50679976 0.10260997 0.5312217 0.09719005
000010 c5 60 89 3d 50 5e 6b 3e 8c 3a 8f 3d af 71 ad 3d
       0.067079104 0.22985196 0.06993589 0.08468949
000020 2d f5 88 3d de ca fc 3d f8 3f 80 3e 5a b5 45 3f
       0.066873886 0.12343381 0.25048804 0.77229846
000030 f2 3a 07 3e ab 07 1d 3e 15 f7 48 3f 71 75 44 3e
       0.1320608 0.15334956 0.7850202 0.19185425
000040 e9 60 2c 3e be 8a 06 3f 9e 3b 00 3f 04 b5 31 3d
       0.16833843 0.52555454 0.5009097 0.04338552
000050 9a 60 d6 3d 19 4a 36 3f 42 38 09 3e fe 22 18 3e
       0.10467644 0.71206814 0.13400367 0.14857098
000060 f2 dc e9 3d 78 e6 70 3e 29 29 5a 3f 33 dc 6c 3d
       0.11419095 0.23525417 0.85219055 0.057827186
000070 f3 5d 22 3e 4f d8 2a 3e 25 0c 60 3d 08 ab c6 3e
       0.15856151 0.16684078 0.054699082 0.3880236

features.bn0.bias f4 [32]
000000 6b 5e 32 bf 92 1c bf 3c 76 06 38 bf ad b2 9b 3d
       -0.6967532 0.023329053 -0.7188486 0.07602439
000010 16 84 69 3c c6 48 55 3e 40 32 61 3d 69 6f b1 3d
       0.014252683 0.20828542 0.054979563 0.08663828
000020 b0 77 15 3d 55 77 41 3d 9d 7c 6b be d7 ea 6b bf
       0.036491096 0.047232945 -0.22996755 -0.9215521
000030 39 83 11 bd 06 7f d5 3d 3f 2a 7f bf 25 49 71 3e
       -0.035525534 0.104246184 -0.9967384 0.23563059
000040 29 4b 89 3e 04 35 13 bf 38 1a 1d bf 89 49 36 3d
       0.26815155 -0.5750277 -0.6136813 0.044503722
000050 f6 63 be 3c ce 79 6d bf b2 e1 c6 bd be 9b 61 3d
       0.023241024 -0.92763984 -0.09711017 0.055080168
000060 3f 30 c8 bb f8 fa 85 3d d6 a2 9b bf 88 fb 85 3c
       -0.006109267 0.06542009 -1.2159069 0.016355291
000070 90 64 ee 3d e9 24 ab bd ed e3 e0 bb 40 c9 f3 be
       0.116402745 -0.083566494 -0.0068631084 -0.4761448

features.bn0.running_mean f4 [32]
000000 4b 74 e2 3e af 3f 43 be 05 64 37 3f 0b 27 a2 3e
       0.4422935 -0.19067262 0.7163699 0.31670412
000010 d6 f0 4a 3c 16 42 17 bf ad 54 03 bd 8c 5e ef 3d
       0.012386521 -0.59085214 -0.032063175 0.11687955
000020 0c 08 bd 3d d7 09 08 bf 2d c4 95 3c 49 82 bc 3f
       0.092300504 -0.53140014 0.01828202 1.472726
000030 08 a1 fb be c6 55 02 bf 4f 21 1d 3f fc 66 a9 bf
       -0.49146295 -0.5091213 0.6137895 -1.3234553
000040 33 91 37 bf 89 28 a6 3f 0b a6 19 3f ef b8 37 3e
       -0.7170593 1.298112 0.60018986 0.1794164
000050 57 ee 72 be a7 b3 02 3f 04 4f 95 39 69 be 0b bf
       -0.23723732 0.5105538 0.00028478366 -0.5458742
000060 e9 8c a8 3d 3f db dd be e0 d4 50 3f 7b 16 1c be
       0.082300015 -0.43331334 0.8157482 -0.1524295
000070 c2 d5 65 bf 63 a1 4f bc 6f 7f d6 3d 1a 69 b6 3f
       -0.89779294 -0.012672755 0.10473525 1.4250824

features.bn0.running_var f4 [32]
000000 78 7f ec 3f 94 fa b7 3d 8f ec e4 3f e5 49 98 3f
       1.84764 0.08983341 1.7884692 1.1897551
000010 eb fe 21 3e 10 7b 0e 40 01 93 81 3d da 17 85 3d
       0.158199 2.2262611 0.06326867 0.0649869
000020 dc a2 e0 3d fd f3 b1 3f ac cb 53 3e 56 c1 7f 40
       0.10968563 1.3902584 0.20683163 3.9961753
000030 ce 99 85 3f 2c 41 d2 3f 98 08 49 3f 5a 2a 53 40
       1.0437562 1.6426139 0.7852874 3.29946
000040 8f 97 e9 3f 1d 84 48 40 18 55 a5 3f 4b 31 bd 3d
       1.8249377 3.1330636 1.2916594 0.092379175
000050 b7 35 cd 3d 40 ec 92 3f 08 ba 90 3d bc 1c f7 3f
       0.10020011 1.1478348 0.07066733 1.9305644
000060 cf 72 d7 3d c8 3d 39 40 fd a6 9e 40 de dc 6f 3d
       0.10519945 2.8943958 4.9578843 0.058560245
000070 71 ee b8 40 db 4b 95 3e 99 ee b6 3d b3 76 71 40
       5.7791066 0.29159436 0.08932228 3.7728698

features.prelu0.weight f4 [32]
000000 a6 7e e1 bb d6 3e 3f 3f 1e 8f 01 bc d8 34 d6 3e
       -0.0068815527 0.74705255 -0.007907657 0.41837192
000010 e4 a8 62 3f 46 64 0a 40 c0 44 f3 be be 3c 71 bd
       0.88538957 2.1623702 -0.4751339 -0.05889582
000020 22 be 8d be 5a 7c b9 3f 60 cf 03 3e 5e 6f 18 bd
       -0.27684122 1.4491074 0.12872076 -0.037215583
000030 f4 7b 3b 3e 25 f4 b3 3f 83 fc 88 bb db a7 cd bf
       0.18309003 1.4058882 -0.0041804924 -1.606685
000040 31 52 3d c0 62 76 23 bb fa d5 53 3c 36 d6 ff 3e
       -2.9581416 -0.0024942388 0.012929434 0.49968117
000050 0f 38 b2 bd 81 a4 37 3c 8c 84 19 3d f2 1f a1 3f
       -0.087020986 0.011208654 0.037479922 1.2587874
000060 9f 3e 0b 3f 62 5b ad 3f 62 88 05 3b 12 44 ea 3e
       0.5439243 1.3543513 0.002037548 0.4575506
000070 60 35 c4 3f 14 1e 4e 3f 62 5a 73 3f b0 ce 24 bd
       1.5328789 0.80514646 0.9505979 -0.040236175

features.conv1.conv1.weight f4 [32, 1, 3, 3]
000000 94 47 3f 3e bd 9c 28 bf df 7f 0b bf 2f 47 03 3e
       0.18679649 -0.65864164 -0.5449199 0.12820123
000010 b6 5f 7f 3f d5 9b 0c bf 5c 83 91 3e 70 95 c5 be
       0.9975542 -0.5492528 0.28420532 -0.38590574
000020 2e 6a 8b be c1 23 40 bd be 13 07 3e 81 37 04 be
       -0.27229446 -0.046909098 0.13191125 -0.12911798
000030 c2 67 63 3e 18 79 af be 9f 36 12 3e ff 7f 49 bf
       0.22207549 -0.34272075 0.14278649 -0.7871093
000040 59 56 99 3e 09 cb 3c 3e d0 c7 ca be de 04 9a 3e
       0.2994869 0.18436827 -0.3960557 0.30081838
000050 6e ad 4b 3f 56 c8 81 bd 86 7d 77 bf b1 20 04 3f
       0.7956151 -0.06337039 -0.9667591 0.51612383
000060 65 b5 d7 be 9f 02 0f 3f 69 69 34 3d 96 61 a5 3e
       -0.4213058 0.55863374 0.04404584 0.32301015
000070 98 ae f3 be 09 59 35 3d 6e 6e 21 bd 1f b9 e7 be
       -0.47594142 0.044274364 -0.039411955 -0.45258424
000080 a3 cc ea 3e 8b 10 3e 3b a4 65 e8 bd 14 cc 3f be
       0.4585925 0.002900156 -0.113475114 -0.18730193
000090 00 51 5f bf 7a 85 df 3e 08 09 1d 3e aa 19 27 bd
       -0.8723297 0.43656522 0.15335476 -0.04079596
0000a0 48 84 cc bc 34 6e 91 3e 1a 90 cb 3e 13 29 74 be
       -0.02496542 0.2840439 0.39758378 -0.23843794
0000b0 6a c8 26 be 38 00 db 3e bb 1f 41 be bc 28 5e 3e
       -0.1628739 0.42773604 -0.1885976 0.21695226
0000c0 d1 f4 c0 be 44 35 f4 3e fb 25 13 bf ec e9 b6 3e
       -0.3768678 0.47696888 -0.5747983 0.35725343
0000d0 71 0e 28 3e 22 d4 e5 be 2c 1b 15 bd 47 a3 55 3e
       0.16411759 -0.44888407 -0.036402866 0.20863067
0000e0 10 f6 eb 3e d4 48 c4 bd 34 4d d8 be 8e 3f be 3d
       0.46086168 -0.09584203 -0.422464 0.09289466
0000f0 ba 18 55 be 45 12 48 be 12 6b db 3c 19 d5 35 3d
       -0.20810214 -0.1953822 0.026784454 0.04439268
000100 12 c8 52 bd 6f cf 62 3d 58 31 20 be 68 7c 35 bd
       -0.051460333 0.055373605 -0.15643823 -0.044308096
000110 08 94 07 be 16 22 4a 3e 39 57 a9 be 76 a8 79 be
       -0.13240063 0.19739565 -0.33074358 -0.24380669
000120 f5 b5 ce 3d 39 2e f4 3e db 1f 70 3e 6f 38 14 3d
       0.10093299 0.47691515 0.23449652 0.03618663
000130 c0 ea 35 bf ba 22 d6 3d 9c 3e 1c bc c2 ce 46 bd
       -0.71061325 0.10455842 -0.009536412 -0.048537023
000140 07 76 31 be 8a 8a e9 bb 3a f5 97 3e 43 c4 6f 3e
       -0.1733018 -0.007127111 0.2967928 0.23414712
000150 ff ac 2a bf 56 12 ed be 46 e2 9d be 24 a0 81 3e
       -0.6667022 -0.46303052 -0.30836695 0.2531749
000160 d8 30 62 3f da 69 4e be f7 a6 fa 3d e3 f1 a2 3e
       0.8835578 -0.20157567 0.12238877 0.3182517
000170 a9 46 10 bf 22 de ef be be 67 91 3c ef 8b 26 3f
       -0.5635782 -0.4684916 0.017749663 0.6505727
000180 54 b0 87 3e cc c8 9c be 67 13 a5 3d a0 fc e1 3d
       0.26501715 -0.30621946 0.08060341 0.110345125
000190 8c e2 67 bd f6 52 e4 3c 0d 23 00 be ca 18 88 3e
       -0.056612536 0.02787159 -0.12513371 0.26581413
0001a0 d6 50 8f bc 2c ec de 3e 59 d7 5f be e5 54 05 bf
       -0.0174946 0.4353956 -0.21859492 -0.52082664
0001b0 59 cf 6a 3e d6 86 bc be 3d f0 3d 3e d2 b6 ca bc
       0.2293066 -0.36821622 0.18548675 -0.024745379
0001c0 9d 93 0e 3f e7 a2 37 bc fe a1 98 bd d5 59 38 3c
       0.5569399 -0.011208273 -0.074527726 0.011251886
0001d0 35 03 d9 bd ec f1 e0 3e aa 34 0b 3f 29 91 69 be
       -0.10596315 0.43934572 0.54377234 -0.2280928
0001e0 50 1c b5 3e d1 71 7b bf 9c 51 18 bf 69 73 80 3d
       0.35373163 -0.98220545 -0.59499526 0.06272013
0001f0 ae 26 d9 3d 0e fc ac 3e 8a cf 03 3e c9 6a a4 bd
       0.10603081 0.33786052 0.12872139 -0.0802818
000200 90 0b 98 bd 85 e8 c8 3d 1a de 5b 3e 81 38 11 be
       -0.0742408 0.098099746 0.21471444 -0.14181711
000210 94 18 89 3e 92 ae d6 be 48 17 4b be 87 36 4d 3e
       0.26776564 -0.41930062 -0.198331 0.20040332
000220 40 ea 2e bd af 30 07 be 22 eb f2 be 72 43 84 3e
       -0.042703867 -0.13202165 -0.47445017 0.25832707
000230 63 48 f0 3d f7 e0 a4 be 83 1e d0 3e 60 43 51 bd
       0.11732557 -0.32202885 0.4064828 -0.051089644
000240 90 04 30 3e ad ec 57 bd ef 85 2f be 30 b4 59 be
       0.1718924 -0.052715946 -0.17140935 -0.21260142
000250 4c d0 bc 3d 9c e5 8c be dc b9 94 bd 59 6e 14 be
       0.09219417 -0.27518928 -0.07262012 -0.1449522
000260 ca d7 03 be 34 57 25 bc a8 db 95 3d 98 d9 71 3e
       -0.12875286 -0.010091592 0.07317287 0.23618162
000270 c3 7e bb bd f3 d8 3f 3e 48 bc 92 bb b7 ee d9 be
       -0.09155037 0.18735103 -0.0044780113 -0.42564937
000280 0f 70 ec be ed 9d 28 bd 2e 22 d7 bd 24 98 b2 3d
       -0.46179244 -0.041166235 -0.10504566 0.08720425
000290 35 57 13 3f 34 88 2f bd d7 8a f0 3e 58 f2 47 3d
       0.5755494 -0.042854503 0.46980926 0.0488151
0002a0 b7 47 d1 be a2 5c a1 be 31 a5 9b be a3 a9 0b 3f
       -0.40875027 -0.31515986 -0.3039947 0.5455572
0002b0 87 f4 38 bf 32 da 3a be cf 0b f2 3e 34 13 84 3e
       -0.7224812 -0.18247297 0.47274634 0.257959
0002c0 8b 0f df be 04 bd db 3e c9 37 d4 bd f7 86 9c be
       -0.43566546 0.42917645 -0.10362203 -0.3057172
0002d0 1c 6b b1 bd b5 65 d7 bc 07 8a 11 bd 28 bd 4b 3a
       -0.086630076 -0.026293615 -0.035532024 0.0007772022
0002e0 73 64 e7 bc 5d d8 58 bb 77 2e e4 3c fc a7 78 be
       -0.02824614 -0.0033087947 0.027854187 -0.24282831
0002f0 74 24 15 3d 51 dc 31 be 8b 82 31 3e 00 83 a0 bd
       0.036411718 -0.173692 0.17334954 -0.07837486
000300 f6 30 80 be f1 16 32 3e 85 72 fd 3e 62 41 8b 3c
       -0.25037354 0.17391564 0.49501434 0.01699895
000310 b6 ac 88 bd 98 04 e7 3e d7 3b 62 3d 66 db 6e bb
       -0.06673567 0.45120692 0.05523285 -0.003644669
000320 a1 9c 7f 3e 50 f8 10 3d 03 6e 57 3e 43 56 b4 ba
       0.24962093 0.03539306 0.2103806 -0.0013758618
000330 78 01 b7 bb 85 57 fd 3c 19 25 03 3e 90 f0 38 3e
       -0.005584892 0.030925522 0.1280712 0.18060517
000340 f4 f5 6f be bb 23 03 bf d8 da 9c 3e cd d3 26 be
       -0.23433667 -0.51226395 0.30635715 -0.16291733
000350 d4 3b 8d 3f 80 c5 15 3e 29 7a 9f be b6 a1 00 bf
       1.1033883 0.14626122 -0.31147888 -0.5024675
000360 87 81 95 be ee e9 9f 3e dc bb 8a be 58 ab de 3d
       -0.29200384 0.31233162 -0.2709645 0.10872525
000370 da 4a 2a bd 06 42 c3 be 6a 81 33 bd 11 c4 6a 3e
       -0.04157529 -0.3813631 -0.04382459 0.22926356
000380 64 b7 5a be 81 d1 9f 3d 43 1a 39 be ea 82 4e 3e
       -0.2135902 0.078036316 -0.18076424 0.20167127
000390 c3 3d 55 3e c7 13 e1 be c3 e1 0b 3f 77 85 8e 3e
       0.20824341 -0.439604 0.5464136 0.278362
0003a0 81 c0 55 bf ce d2 ad 3e 92 2a b2 bd c6 0c 52 3f
       -0.8349686 0.33949894 -0.08699526 0.8205074
0003b0 21 d9 10 bf c9 03 a8 3e 6a 42 68 bf e7 c6 90 3e
       -0.5658131 0.32815388 -0.9072634 0.2827675
0003c0 e2 86 eb bd 61 04 96 3d a6 49 3b 3e c6 53 c8 3e
       -0.11500336 0.07325054 0.18289813 0.39126414
0003d0 37 ed 26 3f c9 9b aa be 8c ce ce bd 4d 65 11 3e
       0.6520571 -0.3332198 -0.100979894 0.141988
0003e0 84 0d 29 bf b3 4e 04 3e 01 f6 d1 be 21 40 85 3e
       -0.6603625 0.12920646 -0.41008 0.2602549
0003f0 84 3b fc be 4e e0 41 bf 0d 6d d5 be 36 aa e4 3e
       -0.49264157 -0.75732887 -0.41684762 0.4466111

features.conv1.pointwise.weight f4 [28, 32, 1, 1]
000000 25 db 44 bf 04 4f 93 be 23 8b fc 3e c3 05 f0 3e
       -0.7689689 -0.28771222 0.49324903 0.46879396
000010 ff f6 67 3c 80 df 85 3d 12 34 2f be f1 ec 49 3f
       0.01415801 0.0653677 -0.17109707 0.7887717
000020 34 25 2e be 3b 94 2f bf 27 bc 3f 3e 52 07 30 be
       -0.1700638 -0.68585557 0.18724118 -0.17190292
000030 3f 81 de be 3c ba 95 be a3 12 be be 84 31 28 be
       -0.43457982 -0.29243648 -0.37123594 -0.16425139
000040 44 3e 8d 3f 75 50 88 be 10 7f 62 bf de 8a 61 3e
       1.1034627 -0.26623884 -0.8847513 0.2202563
000050 c5 5c ef 3e 97 71 02 3f 71 45 64 bf ab 0a 04 be
       0.46750465 0.50954574 -0.8916846 -0.12894695
000060 7a e4 f5 be c4 8c c0 3d 74 b1 90 be da 95 0e be
       -0.48025876 0.09401849 -0.28260386 -0.13924351
000070 ce a8 85 be e7 3f b4 3f 8c c8 9a be ae ec 5f 3f
       -0.2610535 1.4082001 -0.3023113 0.8747052
000080 1e b6 81 3e 79 b9 dd 3d 3b bc 5e bf 02 9d 1f 3d
       0.25334257 0.10826392 -0.87005967 0.038968094
000090 40 34 11 bf 5b a9 57 bf eb af 03 bf 61 45 ff 3d
       -0.5672035 -0.8424279 -0.51440305 0.12464405
0000a0 aa ec 63 3f f8 57 fa 3e 26 51 5d 3e 80 61 fa 3e
       0.89032996 0.4889524 0.21612987 0.48902512
0000b0 98 fc 08 3f d6 64 18 3f a0 14 ca be 6d 5c 51 3e
       0.5351043 0.59528863 -0.3946886 0.20445414
0000c0 ea 83 a2 bd e0 37 d0 bd 21 45 6b 3f 50 ce 08 3f
       -0.07935317 -0.10166907 0.9190236 0.5343981
0000d0 eb 53 b9 bd fc ec 10 3e e0 4d 1b 3e eb 37 63 bd
       -0.09049209 0.14152902 0.15166426 -0.05547325
0000e0 a0 6e 1d 3f 1f 37 69 bc ae ff ae bf cb 39 0a 3e
       0.61496925 -0.014234333 -1.3671777 0.13498609
0000f0 96 c3 d1 bc 96 94 3f 3e e1 e9 3f bd 9c 92 0b 3f
       -0.025605958 0.18709025 -0.046853904 0.54520583
000100 47 c7 d5 ba 31 7b 1c 3f 07 cf 0f 3f b8 45 28 bd
       -0.001631 0.61125475 0.56175274 -0.041082114
000110 44 6d c3 3d c5 df 86 3e 9d 77 e7 3e 67 dd 9d bd
       0.09542325 0.26342598 0.45208445 -0.07708245
000120 e1 c6 c2 be 36 44 42 bd 37 09 ed be dd 1e c9 3e
       -0.38042358 -0.047428332 -0.46296093 0.3928136
000130 23 e0 79 be 33 af 0a bf 44 67 13 3e a9 f3 bf bc
       -0.24401908 -0.5417358 0.14394861 -0.023431616
000140 1f 66 3e 3d 05 9b 27 bf 50 77 14 bf 43 fa 1a be
       0.04648411 -0.65470916 -0.57994556 -0.1513453
000150 8d 19 b4 3f 68 13 1f 3e e9 65 31 bf 30 49 57 3f
       1.4070297 0.15534747 -0.6929613 0.8409605
000160 91 59 9d 3e 0b e0 28 3b 77 36 94 3f 68 37 0d 3e
       0.30732396 0.0025768306 1.1579121 0.13790667
000170 8d ee 65 be 77 ae eb 3e 69 d9 52 bf af 20 0c 3f
       -0.22454281 0.46031544 -0.8236299 0.5473737
000180 92 e7 eb 3e 8d 53 b8 bd 1b b5 d9 3d ed d7 16 3f
       0.46075112 -0.09000311 0.10630246 0.58923227
000190 17 82 6a 3d 76 7c b4 3b 34 9c 26 bf 58 ed 7b 3e
       0.05725297 0.005508001 -0.650821 0.24602258
0001a0 d8 4c 79 3d fc b5 77 3e ee 1d 89 be 91 1a c1 bd
       0.0608643 0.24190515 -0.26780647 -0.09428895
0001b0 b6 f1 5c 3e bf 24 ab 3e e1 65 d9 be e8 95 10 3d
       0.2157658 0.33426473 -0.4246054 0.03529921
0001c0 14 c7 a4 3d 37 bb 66 3d 44 9d a7 be d8 e0 ca 3e
       0.08045784 0.056330886 -0.32737172 0.39624667
0001d0 9a 0d 39 be 49 0e f6 3d 4b 8a 35 be 8f 3c 06 3f
       -0.18071595 0.120144434 -0.17728536 0.52436155
0001e0 ca 9c bd 3c 21 3c c8 3e 6e 48 92 be 0b 3f 09 3f
       0.023146052 0.39108375 -0.28570884 0.5361182
0001f0 4d ed 05 bf ed 13 29 bd 6c 7a fe 3d 51 28 e0 be
       -0.5231522 -0.04127877 0.12425694 -0.4378076
000200 5e a8 0c bf 3a 7c 0e be 5d af 5a 3e 1f eb c6 3d
       -0.5494441 -0.13914576 0.21355958 0.097128145
000210 11 cc bb 3e b8 ba a9 be 56 19 de 3d 26 b1 0e 3f
       0.36679128 -0.33150268 0.10844676 0.5573906
000220 b4 91 fc 3c 15 ad c8 be 20 ba b1 3d 67 fd ff bc
       0.030831195 -0.3919455 0.08678079 -0.031248761
000230 3c d4 88 be eb e0 0d be bd 08 43 bd 35 12 6e 3e
       -0.26724422 -0.1385533 -0.047615755 0.23249133
000240 f5 34 66 3f c6 0e 05 be 0d 1e 13 3f d8 a2 81 3e
       0.89924556 -0.12993917 0.5746773 0.25319552
000250 9e d7 36 3d a7 f1 ff be c0 e1 36 be 13 b0 57 3f
       0.044639222 -0.49989054 -0.17859554 0.8425304
000260 5b eb 40 3d e7 3a dc be 9f 7d a3 3b e6 4a b3 3e
       0.047099452 -0.4301369 0.0049893404 0.3501808
000270 d8 17 36 3f a2 0d 7e 3e b3 09 ac 3d 1a e6 b7 3c
       0.7113013 0.24809888 0.084002875 0.022448588
000280 7a e4 63 bf c9 71 91 3d 74 d4 10 be fb be 94 3d
       -0.890205 0.07101781 -0.14143544 0.07262989
000290 42 f0 b0 3e 0f c0 14 3f 66 e4 86 be 13 16 b0 3e
       0.34558302 0.5810556 -0.2634613 0.3439184
0002a0 98 8f e7 3d 61 b1 54 be e6 3e 58 3b 55 bb 49 bf
       0.11306685 -0.2077079 0.0032996475 -0.7880147
0002b0 5b d0 1d bf 54 d9 33 bf ce 91 db be 19 45 8c bc
       -0.6164605 -0.7025349 -0.42884678 -0.017122792
0002c0 e7 55 48 3f 17 dc 42 be c2 58 84 be 2e 74 4c 3e
       0.78256077 -0.1902927 -0.25848967 0.19966194
0002d0 1c b6 97 bc 99 4f 3c 3f 3d cf b5 be 50 54 44 3e
       -0.018519454 0.73558956 -0.35509673 0.19172788
0002e0 4d 71 41 bf 8a c1 a8 bd bc 50 5c 3f 31 26 c0 3e
       -0.7556351 -0.0824004 0.8606069 0.37529138
0002f0 15 3d 4e be 2d be f4 3b 49 71 06 bf 74 8a 77 be
       -0.20140488 0.00746896 -0.5251661 -0.2417391
000300 fa 56 3c 3e 03 d6 a6 3e 0d a9 02 3f 8b 0a 80 be
       0.18392554 0.32585153 0.510392 -0.25008044
000310 70 63 1b 3f b7 1c ef be 9e 28 40 bf 7e 79 04 bf
       0.60698605 -0.46701595 -0.75061977 -0.5174788
000320 01 9a 06 3b 70 2f 0d be 35 63 9b bd eb 61 38 3e
       0.002053857 -0.13787627 -0.075872816 0.18006103
000330 09 1a 35 3e 17 3c 20 bf b2 e0 6c bf 9d c4 88 be
       0.17685713 -0.6259169 -0.9253036 -0.26712504
000340 25 13 f2 3e 13 b8 55 bd bf 9c f9 3d 3b 5d d2 be
       0.4728023 -0.0521775 0.121881 -0.41086754
000350 a8 ab a1 3e 26 1b eb be 34 43 19 be 25 30 8b 3e
       0.31576276 -0.4591915 -0.14967042 0.2718517
000360 7d df 18 3f f5 70 be 3e ab 58 8b 3f af 0c ea 3e
       0.59716016 0.37195554 1.0886434 0.45712802
000370 1e f3 77 be 76 61 2f 3e f4 e7 15 bf e6 42 1c 3e
       -0.24213836 0.17127022 -0.5855706 0.15259895
000380 9a 92 f8 3d 9e f2 49 3f 65 f4 c3 bf 00 76 85 bd
       0.12137337 0.7888583 -1.5308958 -0.06516647
000390 0f 10 e7 be 98 46 94 bc c0 da b1 3e 16 02 f7 3e
       -0.4512944 -0.018100068 0.34737206 0.4824378
0003a0 ea 8b 72 3e 5a 35 07 3d e0 6b 27 be 78 b7 40 3f
       0.23686185 0.033009864 -0.16349745 0.7527995
0003b0 5b c4 2a bf 35 a6 14 bf 31 fc f4 be 0d dc 99 3e
       -0.66705865 -0.5806611 -0.47848657 0.30050698
0003c0 ff 07 09 3f b3 45 54 bf 11 9d 5f be c5 b4 f8 bd
       0.53527826 -0.8291885 -0.2183726 -0.12143854
0003d0 d9 e5 bc 3d 7b aa e5 3e e0 cf ed be 12 2c 11 3e
       0.092235275 0.4485663 -0.4644766 0.14176968
0003e0 08 77 90 be a0 6f 83 3d 5d 0e 2f bf ce 5c c3 be
       -0.28215814 0.06417775 -0.6838129 -0.38156742
0003f0 eb 90 0a be 71 d1 40 3f ec eb 26 3e 8c 12 51 3f
       -0.13531844 0.7531958 0.16300935 0.81668925

features.prelu1.weight f4 [28]
000000 d0 a1 34 3d 1f 23 0a 3f 02 0a a1 3e 52 0d a2 3f
       0.04409963 0.5395984 0.31452948 1.2660315
000010 4e 30 8b 3e c6 c9 42 3e 5b 40 52 3f 4a ab 7e 3e
       0.2718529 0.19022283 0.8212945 0.24870029
000020 6d 30 bf be d5 5e 8f 3e a3 bf 06 40 3c d2 72 3e
       -0.37341633 0.2800204 2.1054466 0.2371301
000030 e8 93 12 bf aa ba 0a 3f 85 59 4b 3f f5 a5 0d 3f
       -0.5725694 0.54191077 0.7943347 0.55331355
000040 05 e0 e8 3e 7f 88 cc 3e 0f cc 3c 3f ed 26 97 3d
       0.45483413 0.39947888 0.7374887 0.073804714
000050 74 0b d2 3e 7c f1 1d 3f c4 68 22 3f 3d a4 1a bf
       0.41024363 0.616966 0.6344111 -0.6040686
000060 ec 95 c6 3e 54 0f 02 bc c4 d5 b4 bd f0 0b 84 3e
       0.38786256 -0.007938225 -0.08829835 0.25790358

features.conv2.conv1.weight f4 [28, 1, 3, 3]
000000 8f 17 81 3d 94 d7 68 be 6d 2d 87 3d f0 d5 0b 3e
       0.063033216 -0.22738487 0.06600461 0.1365583
000010 4d 17 d9 3e e4 45 06 bf 0a 76 ab 3d d1 08 45 bf
       0.4240059 -0.52450395 0.083721235 -0.7696658
000020 28 97 38 3e 9d 67 89 bd 9c e1 5e bd ee ec 5f 3d
       0.18026412 -0.06709216 -0.054414377 0.054669313
000030 3c f7 eb bd 26 64 12 bd 47 08 fd bc 51 c7 82 bd
       -0.115217656 -0.03574004 -0.030887736 -0.06385673
000040 0a b5 a3 be d2 5c a3 bd 89 fd 49 3d e2 f0 04 be
       -0.3197406 -0.079766884 0.049314056 -0.12982515
000050 1e 04 3a bd 79 6d c3 3e 4e 74 37 be ad 88 65 3e
       -0.045414083 0.38169459 -0.1791546 0.22415419
000060 1d 20 7c 3e 98 6a 8d 3e 0d 97 cf bd fc 2e dd 3e
       0.24621625 0.27620387 -0.101362325 0.4319991
000070 15 2d 33 3e ea 59 e8 bd 4e 8b d7 3d 68 f4 af bc
       0.17497666 -0.11345275 0.10524617 -0.021478847
000080 3b 1e 4b be 1c 6b 33 bd 5c e7 71 bd 00 67 23 be
       -0.19835751 -0.04380332 -0.059058532 -0.1595726
000090 18 1a 45 3f 46 7d 60 3e 8a 47 a1 3d e9 12 46 be
       0.7699294 0.21922788 0.07874973 -0.19343151
0000a0 d9 e1 0d 3e 99 ce 13 3e fe c7 ba 3d 7c 0c 3d 3e
       0.13855685 0.1443428 0.09120177 0.18461794
0000b0 39 f4 c1 bd 8d c7 9e 3e 2f be f1 be cf 1b 0b 3f
       -0.0947041 0.3101162 -0.4721541 0.5433931
0000c0 c9 60 02 bf 84 22 3c 3f bb cc 84 be a2 04 0a 3f
       -0.5092893 0.73490167 -0.25937447 0.5391332
0000d0 b7 76 80 be 81 92 54 bd d5 fe f0 bd 55 2c a9 bd
       -0.25090572 -0.05189753 -0.11767355 -0.08260409
0000e0 92 2c 8a bd 7b 70 b2 bd b3 82 39 3d 4f 92 20 bd
       -0.06746782 -0.0871286 0.04529066 -0.03920203
0000f0 13 14 2a be 0b ca 03 be c2 89 38 bd 57 8b 2f be
       -0.1660922 -0.12870042 -0.04505325 -0.17142998
000100 b1 7f bd 3d 4c 58 3f 3b b6 e2 ae 3d f4 f5 9c be
       0.09252871 0.0029196916 0.085393354 -0.30656397
000110 0d 99 7c be 07 02 a6 be e6 8c 29 3f d3 dc 89 3e
       -0.24667759 -0.32423422 0.6623062 0.26926288
000120 85 55 1c bd fa 0c a7 3c 86 4f 5e be 6f 79 81 bd
       -0.038167495 0.02039193 -0.21710023 -0.0632199
000130 03 a8 a0 bd 71 3e e0 bd c8 28 30 be 4e 47 fc bd
       -0.07844546 -0.1094941 -0.17203057 -0.12318288
000140 da a8 c4 bd 28 39 d6 bd d8 e9 35 3c d1 00 5e be
       -0.096025184 -0.104601204 0.011103116 -0.21679999
000150 6d 7b 93 3c a7 28 81 3d 7b 26 6f be a4 dc 38 be
       0.01800319 0.06306582 -0.23354523 -0.18052918
000160 36 98 06 be fd 35 9e be c5 c9 0a 3d b5 d5 96 bd
       -0.13144001 -0.30900565 0.03388383 -0.0736498
000170 44 1f 99 be c9 52 fc bb c1 4f 5f bd 46 42 9a bd
       -0.29906666 -0.0077002984 -0.05451942 -0.07532172
000180 a5 4b d3 3d 3d a2 b7 3e ac ab a6 be 9c 82 ec bd
       0.103171624 0.35865965 -0.3255285 -0.11548349
000190 df 85 da 3d a3 ff 0a 3d 85 c6 ce 3c 33 dd 18 bb
       0.10670065 0.0339352 0.025241146 -0.0023325204
0001a0 0c 17 39 3e 2c 3a 0d bd 73 1a 65 3e 5c 8f 7c bf
       0.18075198 -0.034479305 0.22373371 -0.9865625
0001b0 21 f8 d8 bc 32 b1 13 3e ce ea f0 3d f1 32 ba 3d
       -0.026485505 0.14423063 0.117635354 0.090917476
0001c0 e9 c7 4f bc 89 78 80 3e c9 8a 26 3d bd 90 5e 3e
       -0.01268194 0.2509196 0.0406597 0.21734901
0001d0 5f 73 36 3e 4d 14 87 3d 70 1d 9b 3d 75 c2 00 3e
       0.17817448 0.06595669 0.07573974 0.1257418
0001e0 d1 12 57 3e 74 d9 0a 3e e0 b2 22 3e 55 bb f5 3d
       0.21003272 0.13559514 0.15888548 0.119986214
0001f0 a7 6e cb 3d 4f 76 4b 3d d3 1e 85 be 2b 64 86 be
       0.09933215 0.049673375 -0.2600008 -0.26248297
000200 84 6e 33 be 0f dc ac bd 54 58 3f bb 19 d0 36 bd
       -0.17522627 -0.0844041 -0.0029196935 -0.04463205
000210 2c 51 5d bd 4d 09 af 3b 77 e0 bb 3c c3 1c 1d 3c
       -0.05403249 0.005341685 0.022934182 0.009589377
000220 3e f2 2d bd 17 c5 87 bd ae b7 7b bc d7 36 dd 3d
       -0.04246735 -0.06629389 -0.015363617 0.108014755
000230 4b 1d 17 be 57 9e b2 3d 8d 6c 76 3d d2 ba 2b 3f
       -0.14757268 0.08721607 0.060162116 0.6708194
000240 a8 ae 89 be 0e 4a 8c be be 97 0f be ae 9b 25 bd
       -0.26891065 -0.2740025 -0.14022729 -0.04043167
000250 84 74 e3 3c 95 dc 5b be 30 3f 32 3d 51 54 2b bc
       0.02776552 -0.21470864 0.04351729 -0.010457114
000260 a5 e1 d4 bd 3f bd 44 3e 68 82 a1 be c9 e2 df 3d
       -0.10394601 0.19212817 -0.31544805 0.10931928
000270 19 e4 23 be 0f 2d c8 3e e1 fa de be ec cf ff 3d
       -0.16004981 0.39096877 -0.4355078 0.1249083
000280 f9 31 2e bf c9 40 9f 3e bc 35 15 be a6 f5 95 bd
       -0.68045 0.31104115 -0.1457128 -0.07322244
000290 ff 9a 0c be 9f 72 36 be 97 fb e4 3d 6e d5 b7 bd
       -0.13731001 -0.17817162 0.111807995 -0.08976255
0002a0 da 55 5e bd 98 e3 9c be e9 e3 6a 3a 8e 71 82 3c
       -0.054281093 -0.3064239 0.0008960353 0.015923288
0002b0 8b 4d 74 3e 17 c9 81 bf 35 04 88 bd ab 64 8e be
       0.23857705 -1.0139493 -0.066414274 -0.2781118
0002c0 10 5e 8a 3e f0 47 a7 3d 81 64 68 3e 35 2e 20 bd
       0.2702489 0.08168018 0.22694589 -0.039106566
0002d0 a3 66 62 bd 9f d3 5e 3e 6b f9 38 3e ef 3e da be
       -0.055273663 0.21760415 0.18063895 -0.4262614
0002e0 21 56 04 be f5 f8 75 3d 83 57 cd be b0 2d 1d bc
       -0.1292348 0.060051877 -0.4010583 -0.009593412
0002f0 95 fe 3a 3e 77 38 3f be d7 74 8d bd 75 1c da bd
       0.18261178 -0.18673883 -0.06907051 -0.10649959
000300 a0 47 98 bd 8e 4e f4 3c 11 a4 3e bc 86 b4 c0 be
       -0.074355364 0.029822614 -0.011635796 -0.37637728
000310 9e e9 ea 3b b7 95 49 bd 34 f3 93 3e 5c 91 c3 3c
       0.0071689626 -0.049215045 0.28896487 0.023873024
000320 b7 8e 9a 3e ed 2b 29 3d 1c 55 3d 3e af 94 2d bf
       0.30187008 0.041301657 0.18489498 -0.67805
000330 64 8a 2f 3e 9f aa af be 71 f4 d5 3e d1 69 14 be
       0.17142636 -0.3430986 0.41788056 -0.14493491
000340 c6 67 df bd d6 ea 39 be a9 51 4f 3d ce ba fc 3c
       -0.10908465 -0.18155989 0.050614987 0.030850794
000350 f0 85 cc 3c 48 7c 96 bd 6f 3a bd bc 2a 07 6b be
       0.02496621 -0.073479235 -0.023099152 -0.22951952
000360 85 2d 1c be 80 c9 e0 ba c0 68 ec bd ac 51 f5 bd
       -0.1525174 -0.0017149895 -0.11543417 -0.11978468
000370 a4 e0 d7 bd 22 47 0c be 55 41 07 be 9b 7f 01 be
       -0.10540894 -0.1369901 -0.13208516 -0.12646334
000380 da 86 0d be 9b 7d 0d 3d 61 da 25 3e 29 d8 36 3e
       -0.13820973 0.034543615 0.16196586 0.17855896
000390 d5 32 b8 b9 ba ba 1c be 5e e0 24 3f 9c 48 55 bd
       -0.00035133088 -0.15305606 0.6440486 -0.0520712
0003a0 66 3e a0 3d 0b 92 7e be 53 ae 09 3e 3f 6f 27 3e
       0.078244016 -0.24860398 0.13445406 0.16351031
0003b0 2d 21 ec 3d 65 ab f1 3c 5a 91 ae 3d 76 80 02 3e
       0.11529765 0.029500673 0.08523817 0.12744316
0003c0 bc 7b c9 bb d1 df b8 3c 33 0b 00 3e bf 9c 09 3f
       -0.0061487835 0.022567661 0.12504272 0.537548
0003d0 58 ba ca be 13 5a 77 3e 8d 7a b4 be 79 6f a1 3e
       -0.39595294 0.24155454 -0.3524975 0.3153036
0003e0 0a 76 1d bf 03 34 d1 3d 47 cc 1e 3c 80 23 45 3e
       -0.6150824 0.102149986 0.009692258 0.19251823

features.conv2.pointwise.weight f4 [48, 28, 1, 1]
000000 ae fd 30 bf ab 18 8d 3e 0c 5d b7 be e2 e5 ea 3d
       -0.69137084 0.27557883 -0.35813177 0.11469628
000010 eb a1 a3 3e d1 6d a4 3d 5f 51 d4 3e e9 ca 07 3f
       0.3195947 0.08028758 0.4146833 0.5304399
000020 79 7f 71 bc 4c 1a 79 3e c3 93 0f 3f 1b 60 00 3e
       -0.0147398645 0.24326438 0.5608484 0.12536661
000030 2c 55 fd be 52 25 8d 3c 2f 5f 7b 3d 58 22 5e 3e
       -0.49479043 0.01722971 0.06137007 0.21692789
000040 d1 ba b6 3e 8d 1f da be 1a 6a 68 3e e9 be d4 3f
       0.35689405 -0.42602196 0.22696725 1.6620761
000050 80 78 dd bd 5f dd d3 3e 1d 7a 91 bc dd 5f c9 3d
       -0.10813999 0.4137983 -0.017758423 0.098327376
000060 fe b4 59 bd 5f 6b 1e 3f a8 aa 11 bc da 35 0b bf
       -0.053151123 0.61882585 -0.008890785 -0.54379046
000070 16 ec c4 bd d0 64 39 3e f5 dd 28 3f 25 2a 25 3e
       -0.09615342 0.18104863 0.6596368 0.16129358
000080 b7 e4 65 bd 61 6a b0 3c 56 d7 45 3f 0c 30 92 3c
       -0.056126323 0.0215351 0.772817 0.017845176
000090 7e 09 b6 3f fb 33 5f 3f 41 ff 52 3f 9e fd c1 be
       1.4221647 0.8718869 0.82420737 -0.37888807
0000a0 94 e2 61 bf 13 82 44 bf 58 c3 85 3e f2 1b 4d be
       -0.88236356 -0.7676098 0.26125598 -0.20030192
0000b0 30 ce 9e bc 4b 36 60 3b 95 06 9e 3e 41 9c 70 bd
       -0.019385427 0.0034212049 0.30864397 -0.058742765
0000c0 e7 68 0f bf 24 f4 e6 3d a4 64 9b 3e 40 d4 2e be
       -0.56019443 0.11277035 0.3035022 -0.17073154
0000d0 6b 24 6e bf 1c 25 89 bc 5b 25 5a 3f 6f 62 de bd
       -0.9302432 -0.016741328 0.8521325 -0.108586185
0000e0 d0 3d 2a be 0e 3f 79 be 57 96 d9 3d 75 4f 13 3e
       -0.16625142 -0.2434046 0.10624378 0.14385779
0000f0 8a aa 89 3f 64 fd 67 bc 91 c0 8d be 43 8b 7e 3d
       1.0755169 -0.014159534 -0.2768598 0.06214453
000100 c4 23 e2 be 55 5a 1d bf 6f 9f 35 bd 7f 37 a9 3d
       -0.44167912 -0.6146596 -0.0443415 0.08262538
000110 00 08 82 3e 5f 83 8c 3d b9 96 9a be 39 99 78 3e
       0.2539673 0.068609945 -0.30193117 0.242772
000120 2f 24 0b 3e 52 49 6b bd 41 a2 ac bd 2a 9b cb 3e
       0.13588022 -0.05744297 -0.08429385 0.39766818
000130 f1 36 c2 bd 75 72 fc 3d 00 59 48 3f 91 1a 00 3e
       -0.094831355 0.123265184 0.78260803 0.12510134
000140 fd 8c c9 3d d1 0d 2a 3f 3f ac 23 3e 1d 68 0e 3f
       0.098413445 0.6642733 0.15983675 0.55627614
000150 96 6b fb bd f1 11 76 be 11 1b ee bd b2 5f ef be
       -0.1227638 -0.24030282 -0.11626256 -0.46752697
000160 fa 9b eb 3c ff f1 ba be e7 64 a0 3e 94 52 0e be
       0.028760899 -0.36512753 0.31326982 -0.13898689
000170 a9 f7 2f 3f 87 54 12 bf c9 d5 cb 3e dd fe 31 3c
       0.68737274 -0.5716023 0.39811543 0.010863987
000180 00 d6 9a be 3f c4 99 3f 90 a1 27 3b 69 eb c9 3c
       -0.30241394 1.2013015 0.0025578476 0.024648385
000190 78 ff 00 3f b7 da 20 be 19 09 9e 3e e7 14 3e bd
       0.50389814 -0.15708433 0.30866316 -0.046406653
0001a0 00 b0 a3 be 25 9e 6c be 06 76 cc bc c1 64 83 3e
       -0.31970215 -0.23107202 -0.024958622 0.25662807
0001b0 a8 b5 06 3f c4 01 57 be b4 a1 81 be 8f 27 93 be
       0.52620935 -0.20996767 -0.25318682 -0.28741118
0001c0 68 d8 5e 3f 69 ed 75 3e dc 54 53 3f 0b b7 67 3e
       0.8704896 0.24016346 0.8255136 0.22628419
0001d0 2e 40 2d 3e f0 03 0d bf c4 56 9a 3e 22 1b 8c 3f
       0.16919014 -0.55084133 0.30144322 1.094578
0001e0 68 a9 d5 be 75 06 1d 3f 8e 52 98 3d eb 4c af 3e
       -0.4173081 0.6133798 0.07437621 0.3423837
0001f0 ba 87 43 be ef d5 a8 3d c9 6e 4f 3e fb 83 38 bf
       -0.19094744 0.082439296 0.20257105 -0.72076386
000200 be a1 52 3e f3 73 0d 3e 5e c4 e2 3e ea c2 9d be
       0.20569512 0.13813762 0.4429044 -0.3081277
000210 e8 e9 98 3d cb 9e b9 3e f5 ae ef 3c 44 84 0c 3f
       0.07466489 0.36253962 0.02925823 0.5488932
000220 44 74 c1 3d 5f e7 f4 bd c0 27 0f be 9f 62 78 be
       0.09446004 -0.11958193 -0.13980007 -0.24256371
000230 ff 3f 7f 3f 04 c6 75 3e eb 3c a8 be 83 cb a6 bc
       0.99707025 0.24001318 -0.32858977 -0.020360714
000240 70 9a 9d bd 17 bf ab bd 79 aa 34 bc ce 90 12 bf
       -0.07695472 -0.08386057 -0.011026972 -0.57252204
000250 13 73 06 bf ca d4 4c 3f b2 68 6b 3e 1d a5 58 bf
       -0.5251934 0.8001219 0.22989157 -0.8462694
000260 13 97 14 be 40 4a 44 bc 75 33 9c bd be c8 00 bf
       -0.14510755 -0.011980593 -0.07627002 -0.5030631
000270 f4 3c ad 3e 8e 7e 58 bf 02 82 03 3e 6a fb 72 be
       0.33835566 -0.8456811 0.12842563 -0.2372872
000280 a6 34 27 3e 92 fc 7a 3e 15 14 95 bc ac 70 39 3f
       0.16328678 0.2451041 -0.018198052 0.7243755
000290 fb 4e 94 3d b5 46 50 be 93 28 26 be 00 9a c3 3e
       0.07241627 -0.20339473 -0.16226415 0.3820343
0002a0 92 c4 d6 3d c8 18 86 3d fb bb 3d be 56 3f 2b be
       0.104867116 0.065476954 -0.1852874 -0.1672338
0002b0 99 ac 30 3f ea 08 da 3e 8a 2f 33 bf ef 18 45 3e
       0.69013363 0.42584926 -0.69994414 0.19247793
0002c0 3c 1f b7 3e cb b6 44 3e f0 18 02 3f d5 1c 54 3e
       0.35766017 0.19210355 0.508193 0.20714124
0002d0 91 cb f1 3d 5d f5 f9 be 67 07 ce 3e 3a 1a bb bd
       0.11806405 -0.4882001 0.40240023 -0.09135862
0002e0 1b 11 0e be cf 29 54 3d 61 be 9d bd 90 a5 b1 3f
       -0.13873713 0.051797684 -0.077023275 1.3878651
0002f0 b6 bc 35 be 6c 6b c2 be 72 f1 b6 bf ec fd fa 3e
       -0.17747769 -0.3797258 -1.4292433 0.49021852
000300 d2 0d 13 3e 36 c1 08 3f b3 5d ff bd 14 eb 4c 3e
       0.14360741 0.53419816 -0.124690436 0.2001155
000310 bc 54 0a 3e 22 77 6d 3f e5 f3 c2 3e fd 55 85 bf
       0.13508886 0.9275991 0.38076702 -1.0416867
000320 f6 97 7e be 89 cc 0b be 3f ed c6 be 6f 15 60 3e
       -0.24862656 -0.13652243 -0.3885288 0.21883176
000330 10 7c f3 3e ac c0 04 3f 23 50 1d 3d db 9f a9 3e
       0.4755559 0.51856494 0.038406502 0.33129773
000340 d3 50 2c bf 65 34 27 3e 96 f5 0b be 97 3d fe be
       -0.6731083 0.1632858 -0.13667902 -0.49656364
000350 ae ac 24 3e 4d 6e ee be 50 a1 f1 be 32 69 e7 bd
       0.16081497 -0.46568528 -0.47193384 -0.11299361
000360 32 08 d9 3f 19 f1 83 3e 78 a2 1e 3f 8c 90 a9 3e
       1.6955626 0.2576988 0.6196666 0.33118093
000370 67 d7 ef 3d 8c 6a 25 3e 53 03 0e bf 14 c2 36 3e
       0.117110066 0.16153926 -0.5547382 0.17847472
000380 9a 27 0c bf 9e 03 41 3c e7 a9 b3 3e 9d e4 f6 3e
       -0.5474793 0.011780648 0.35090563 0.48221293
000390 86 da 50 3f ea 30 8a bd 16 c0 25 3f 77 6e 6e bd
       0.8158344 -0.06747611 0.64746225 -0.058210816
0003a0 3c 6d 23 be b1 56 01 bc 8f 60 c0 3e 97 86 0f be
       -0.15959638 -0.007894204 0.37573668 -0.14016186
0003b0 51 77 54 3d 73 0e 2f 3f c1 e4 22 3e ce f7 94 be
       0.0518716 0.6838142 0.15907575 -0.2909531
0003c0 82 fc 8d 3f f1 14 e5 bd bd 60 67 3f 17 ca 5d bd
       1.1092684 -0.11185635 0.90381986 -0.054147806
0003d0 b6 c1 e7 3e fa 0c 65 be 97 6f 85 bd 3c cd 60 bf
       0.45264977 -0.22368231 -0.06515425 -0.8781316
0003e0 35 d4 bf be cd 66 c9 be 73 d7 6f bf 19 d6 0e 3f
       -0.3746659 -0.39336243 -0.93688124 0.5579544
0003f0 50 1d cb bc c8 8b 62 3e f9 dc 0a 3f a3 e2 e8 be
       -0.02479425 0.22123635 0.5424343 -0.4548541

features.prelu2.weight f4 [48]
000000 45 25 36 3e 73 5e 47 3f 08 54 76 3f a6 0d 66 3e
       0.17787655 0.77878493 0.9622197 0.22466144
000010 a1 1c fe 3e bc 0a 11 3f 61 2f 8b 3e ef 3f 0d 3f
       0.49631217 0.56657004 0.27184585 0.5517568
000020 50 9e 3f 3f 17 01 1a 3f 21 5a 3d 3e 57 28 f9 3f
       0.7485094 0.6015791 0.18491413 1.9465436
000030 eb 30 22 3f 11 9b 39 3f 8a 65 31 3f ef 0b 30 3f
       0.6335589 0.7250224 0.6929556 0.6876821
000040 9d a8 83 3f a6 92 c3 3e 73 48 76 3f 1b 1b 28 3f
       1.0285832 0.3819782 0.962043 0.6566636
000050 db ec 5c 3f 5e fd 05 3f 75 54 ac 3e f6 36 03 3e
       0.8629891 0.5233973 0.33658186 0.12813935
000060 0e fc b5 3e 90 99 d0 3e ae 36 21 3f 9f eb af 3e
       0.35543865 0.4074216 0.6297406 0.34359452
000070 d4 96 43 3f 4c 28 d8 3e fa 88 51 3e aa 3d f9 3e
       0.7640202 0.42218244 0.20462409 0.48679858
000080 ba f0 2d 3f 9d 9a e0 3e b0 eb 35 3f 46 cc e8 3e
       0.67945445 0.4386796 0.71062756 0.45468348
000090 55 94 04 3f 03 7d f9 3e 4d dd 2b 3f d4 5a 1d 3f
       0.51788837 0.4872819 0.67134553 0.6146672
0000a0 1c 56 05 3f 30 60 a3 3e f4 c5 4f 3f d4 60 5e 3f
       0.5208452 0.31909323 0.8116143 0.868665
0000b0 57 f0 41 3f df 06 b3 3e 2f b0 e3 3e 66 19 34 3f
       0.75757354 0.3496618 0.44470355 0.70351255

features.conv3.conv1.weight f4 [48, 1, 2, 2]
000000 9c 26 f8 3b e7 96 86 bd ee 98 84 3e 83 50 dd be
       0.007572962 -0.06571751 0.25897926 -0.43225488
000010 2b de b3 bd b1 e5 8c 3d 93 d9 13 3e 2d a4 3b 3e
       -0.087826096 0.06879748 0.14438467 0.18324347
000020 ab 8d b0 bd 72 cc 87 be df 39 00 bc 84 0d 24 ba
       -0.08620771 -0.26523167 -0.007826298 -0.00062581175
000030 e8 01 2e be 82 39 15 be 03 a4 14 be 1e 6c f6 3c
       -0.16992915 -0.14572719 -0.1451569 0.030080851
000040 51 c8 ae bd 36 40 6f 3e fb da f5 be d0 34 26 3e
       -0.08534301 0.23364338 -0.4801863 0.16231084
000050 f6 1b 3e be d9 58 b0 bd e3 af c2 3e 0f 5c ab be
       -0.18565354 -0.08610696 0.38024816 -0.33468673
000060 70 ac 02 be 65 32 c8 3e 10 32 65 bb 3c 79 f3 bd
       -0.12761092 0.39100948 -0.0034972467 -0.11888358
000070 19 26 a0 bd 3c fc d5 3d 7e b0 a9 be 79 e0 2c bd
       -0.078197666 0.104485005 -0.33142465 -0.04220626
000080 10 93 ab be dc 1e e7 bd d9 22 09 3e 3d 48 23 3e
       -0.33510637 -0.11285183 0.133922 0.15945525
000090 6c c0 9a 3e 03 9d 30 3e 85 d6 94 bd 50 89 74 bd
       0.3022493 0.17247395 -0.07267479 -0.059701264
0000a0 ae 71 fe be 12 c6 a8 3e 84 d3 5e 3d dc 39 76 bd
       -0.49696106 0.32963616 0.054400936 -0.060113773
0000b0 fb a7 44 3e 0c cd 48 bd 86 a8 68 3c c7 ee a3 be
       0.19204704 -0.049023673 0.014200335 -0.3201811
0000c0 4a 97 e5 be 11 3a 5d 3d 7b 9a 47 bc 00 9e 81 3d
       -0.44841987 0.054010455 -0.012182827 0.06328964
0000d0 8e 4a a5 3d ce f7 2f be 09 17 d2 bd 53 ac e6 bd
       0.08070861 -0.17184374 -0.102583 -0.11263337
0000e0 67 d4 53 be 6a 67 b1 bd d2 07 98 bd c8 86 52 3d
       -0.20686494 -0.08662303 -0.074233666 0.05139807
0000f0 ca bf 1c 3e 3a 89 5e 3e 08 5f 21 3d 9c 6a 89 bd
       0.15307537 0.21732035 0.03939727 -0.06709787
000100 c9 8c 67 3e 5d ae 99 bd 0d 37 3d 3e aa 9d 2b bd
       0.22612299 -0.0750396 0.18478031 -0.041898407
000110 95 99 0d 3d 06 c4 4a 3b 97 21 4c 3e 88 56 e8 be
       0.034570295 0.0030939593 0.19934689 -0.45378518
000120 90 8f b5 3a d3 6f 95 be 7e c0 0f 3e 72 b2 2d 3d
       0.0013851989 -0.29186878 0.14038274 0.042406507
000130 44 b3 37 bd 64 ac 20 be a2 ab ec bc 5d 71 ea bd
       -0.044848695 -0.15690762 -0.028890435 -0.114474036
000140 88 79 9a be 3d 0b df bc 03 73 b4 bd e9 5e 3e 3d
       -0.30170846 -0.027227039 -0.08810999 0.046477232
000150 9a c6 1d be 59 f7 16 be 92 05 d1 bd 82 0f 15 3f
       -0.15407792 -0.14742793 -0.102061406 0.5822679
000160 58 53 10 3e ff 83 25 bc 7b 69 94 bc 51 5a b4 be
       0.14094293 -0.010102271 -0.018116703 -0.35225156
000170 d7 3b 1c be c9 37 d8 bd 86 c6 f1 bd fc ce c6 bd
       -0.15257202 -0.10557515 -0.118054435 -0.09707448
000180 31 f0 6e 3d dc 56 a9 3e 46 09 53 bc b3 7e 25 bd
       0.058334533 0.3307408 -0.012880629 -0.040404033
000190 45 10 7a bb 36 96 58 be c6 71 09 3e d5 4f 4d be
       -0.003815667 -0.21151051 0.13422307 -0.20049985
0001a0 39 7c 2a be 89 91 c6 bb 0d cd 0d 3f 3a 94 c9 bd
       -0.1664895 -0.0060598296 0.5539101 -0.09842725
0001b0 e8 b7 c5 3e 77 d5 02 3d 15 7c 67 bd ef 15 7f bd
       0.38616872 0.031941857 -0.05651482 -0.062276777
0001c0 c6 c2 89 3e a2 50 82 3e 05 5e d2 bd 36 cd f2 bd
       0.26906413 0.25452143 -0.10271839 -0.11855547
0001d0 00 69 75 3c e7 47 11 3e 4a 8b 44 3e 29 fc 1f bf
       0.014978647 0.14187585 0.1919376 -0.6249414
0001e0 6b bd 61 3e 91 42 ef 3c 20 36 92 3d b5 7a 16 3e
       0.22044913 0.029206546 0.0713923 0.14695247
0001f0 70 fc 28 be 32 94 b2 bd 5b 69 08 3f 92 b9 a2 bd
       -0.16502547 -0.08719672 0.5328576 -0.07945551
000200 de df 1e be da 07 63 be f1 85 af 3e 31 a2 27 3e
       -0.15515086 -0.22170964 0.34281877 0.16370465
000210 27 eb 9d be b6 8c f5 bd 63 8a 63 3d e5 9f a1 3c
       -0.3084347 -0.11989729 0.055551898 0.019729564
000220 0f 6d 2e be 06 4e 4d 3e 46 8f 3d bd d3 2c 72 be
       -0.1703379 0.20049295 -0.046279214 -0.23649912
000230 85 ef 3f 3d fe a0 f8 3d e7 8e 8e 3e a0 98 81 bd
       0.046859283 0.12140082 0.278434 -0.06327939
000240 68 cb 86 bb 12 cf a9 3d 01 61 8d 3e 32 7f 5c be
       -0.0041136034 0.08291449 0.2761307 -0.21532896
000250 27 9d 87 bd 2f 5b 4c 3e 68 a5 81 be c8 0c b8 3e
       -0.06621771 0.19956659 -0.25321507 0.3594725
000260 35 7f fd 3d ed cf fa 3d a5 bc 07 bf 37 7e 0c bc
       0.123777784 0.1224669 -0.53022224 -0.008575014
000270 7e 8f 1f 3e 2d 7b c6 3c d2 57 e1 3d 89 45 c5 3d
       0.15582082 0.024228657 0.110030785 0.096324034
000280 2d 57 be bd 7a 29 59 3e 03 7a 85 bb 04 ae b0 be
       -0.09293971 0.21207228 -0.004073383 -0.34507763
000290 32 28 35 bd dd dd 19 bd f8 3d c1 3d 4d 90 b1 be
       -0.044227786 -0.0375651 0.09435648 -0.34680405
0002a0 1b e3 e4 3d d5 70 cf 3d 4e 5a 27 3e 73 f5 82 3d
       0.111761294 0.10128943 0.16343042 0.06394472
0002b0 5a 88 b2 3d 62 80 1c 3d 08 30 47 3e dd 71 b7 be
       0.08717413 0.038208373 0.19451916 -0.35829058
0002c0 a3 f0 23 be 2e f1 b1 3e 70 87 d0 3d 46 5f d2 bd
       -0.16009764 0.34754318 0.10182083 -0.10272078
0002d0 4c 35 9e 3d 52 40 c0 be 4b 2e 44 3c c9 3b ac 3e
       0.07725009 -0.37549073 0.011973928 0.33639362
0002e0 15 a3 ef 3d 13 90 15 be e0 39 e3 3d 05 48 c3 be
       0.11701027 -0.14605741 0.11095023 -0.38140884
0002f0 80 4c 6a be 55 e3 5d bc 93 9f a1 bd 19 0d 66 ba
       -0.22880745 -0.01354297 -0.078917645 -0.00087757554

features.conv3.pointwise.weight f4 [64, 48, 1, 1]
000000 da e6 7a be 98 3f 0b 3e ef 26 a2 3d 45 45 7b 3e
       -0.24502125 0.13598478 0.07917582 0.24538143
000010 d1 75 2c 3e f7 49 52 bf 48 3d 3e 3c dc 6b 10 be
       0.16841818 -0.8214411 0.01161129 -0.14103645
000020 a6 2e bd 3e a9 ac 07 be 88 d3 83 3f f5 64 34 3f
       0.36949652 -0.13249458 1.0298929 0.7046655
000030 30 c4 28 3e 2a 07 55 3e 06 fc e2 3d 9b 1a 31 be
       0.1648109 0.20803514 0.11083226 -0.17295305
000040 73 ee ed bd 95 e6 1a bf 82 a0 bc 3d 8b d5 1b 3e
       -0.11617746 -0.6050809 0.09210302 0.15218179
000050 f7 db aa be 9b fd 41 3e 2d ac 0d bf fa 98 a6 bd
       -0.33370945 0.18944399 -0.55340844 -0.08134647
000060 66 c9 41 3f c2 a3 48 bd f9 44 7f bd 9e 9d c7 3e
       0.75697935 -0.048984297 -0.062321637 0.3898744
000070 79 86 fb 3d 50 0c a9 3f 02 28 bc 3e 0a 37 32 be
       0.12281508 1.3206882 0.36749274 -0.17403808
000080 53 d8 d6 bd ba f9 2a 3c 78 96 21 bd d0 29 bb 3e
       -0.10490479 0.010435516 -0.03945014 0.36555338
000090 8e 5d 23 be 80 2a 91 bf ae d9 06 be f0 f4 d9 3d
       -0.15953657 -1.1341095 -0.13168976 0.10642421
0000a0 05 d0 1e be 4f ef 82 bf bc 73 41 bf a9 20 1c 3e
       -0.1550904 -1.0229281 -0.7556722 0.15246834
0000b0 80 6d 4f bf a8 94 8a be 4b 89 5d 3f 68 db 07 bf
       -0.8102646 -0.2706654 0.8653762 -0.5306916
0000c0 f6 bb e0 3d 8b 2d 36 bf d9 6b 6d 3f b8 c1 41 3f
       0.10973351 -0.71163243 0.9274269 0.75686216
0000d0 3d 7a 12 bd 24 5d a7 be fc 7e 53 3d c1 c3 01 be
       -0.035761107 -0.32688248 0.051634774 -0.1267233
0000e0 7d db b1 be e7 bb ef 3f e9 96 cd bd cd cb 60 3d
       -0.3473777 1.8729218 -0.100385495 0.05488186
0000f0 75 33 31 3f d2 da 84 bf 13 89 2b bf f8 35 29 bf
       0.6921914 -1.0379279 -0.67006034 -0.66097975
000100 60 04 ad 3e 1c d7 a6 3d 34 f4 01 bf 48 b9 2c 3f
       0.337924 0.081464976 -0.5076325 0.67470217
000110 2c b1 97 3e f7 c5 5b bd 56 50 9c 3e cf 52 17 3f
       0.2962736 -0.05365559 0.3053004 0.5911073
000120 2e 77 7d 3f 3b 20 34 3e 25 cf c9 bd f0 e3 8f 3f
       0.9900998 0.1759042 -0.09853963 1.1241436
000130 ee 84 fc be 3a f9 d9 bd 52 43 68 bf e5 fa 00 bf
       -0.49320167 -0.10643239 -0.9072772 -0.50382835
000140 f2 c6 4a 3f 59 df 3a be 7e 65 5f 3e e6 39 47 bf
       0.79209816 -0.18249263 0.2181606 -0.7782272
000150 d5 f8 6e bc cd ce 0b 3e 23 ca 35 3e c4 ce 58 bf
       -0.014585693 0.13653107 0.1775289 -0.846905
000160 fc 42 dd bb e2 42 bc be 44 59 d4 bd a6 8e 05 be
       -0.00675237 -0.36769778 -0.103685886 -0.13042697
000170 8d ca 04 3c b3 ee e8 3d 2f 4d 71 3e 39 09 99 3e
       0.0081049325 0.11373653 0.235646 0.2988985
000180 e7 bc 41 be fb e2 27 be c9 67 de 3f 34 fd 8f 3d
       -0.18919717 -0.1639518 1.7375423 0.070307165
000190 e8 31 0c 3f 5c 27 20 3f 0f 56 96 be 00 42 0c bf
       0.5476365 0.6256006 -0.29362532 -0.5478821
0001a0 42 08 5c be 05 18 8c 3e 70 89 e9 3e 83 bd 97 3e
       -0.21487525 0.27362075 0.4561267 0.29636773
0001b0 41 74 c1 3d 6a ea 1f bf 76 5e 31 bd fb 38 4e bf
       0.09446002 -0.6246706 -0.043302976 -0.80555695
0001c0 b5 ea 12 be d1 f2 0c 3f 99 20 dc bd ae 3a 20 bf
       -0.14347346 0.5505801 -0.10748405 -0.6258954
0001d0 36 0b 31 3e 9e 34 36 be 65 29 1e 3f 5d 2e 20 3e
       0.17289433 -0.1779351 0.61781913 0.15642686
0001e0 70 30 ed bd 72 6b a5 be 12 a9 90 3e d5 c7 2e be
       -0.11581504 -0.32308537 0.2825399 -0.17068417
0001f0 85 54 6e 3e 92 4b 40 3e 33 fd aa 3d a6 48 4e bd
       0.23274429 0.18778828 0.08349075 -0.05036225
000200 5e f4 39 3e ed ad ba be 8e f0 df 3e 4a 3f 88 3e
       0.18159625 -0.3646082 0.43738216 0.26610786
000210 50 da a2 be 8f f8 c5 3d eb 98 e3 be 53 33 83 3e
       -0.31807184 0.096665494 -0.44452605 0.25625095
000220 18 0b af 3e 6b d7 2b 3f cb 4c a3 be d5 21 6f 3f
       0.3418815 0.67125577 -0.31894526 0.93411
000230 44 0a c8 3e 8c 0b 77 3f 98 7c 8c bf 7d 8c de 3c
       0.39070332 0.96501994 -1.0975523 0.0271666
000240 4d e3 eb be ce f3 e3 bd 57 ea 24 be e5 e2 5b be
       -0.46071854 -0.111304864 -0.16105019 -0.21473272
000250 8d 20 ae 3d 00 fc 08 be 0e 96 15 bf c9 51 84 be
       0.08502302 -0.1337738 -0.5843209 -0.25843647
000260 82 fb 84 bd 3f 93 a9 be f2 af 67 be 5d f6 9f 3d
       -0.06493284 -0.33120152 -0.22625712 0.07810662
000270 44 b6 1d bf ed 6e 9d be e2 86 d0 be d0 f7 7e 3d
       -0.6160624 -0.30748692 -0.40727907 0.06224805
000280 42 ca b6 bc 75 dc 92 be e5 1a 34 3f f8 0c ea be
       -0.02231324 -0.2868382 0.7035354 -0.4571302
000290 35 f1 78 3e e0 dc 54 bf 0d a1 13 3f e5 23 99 3d
       0.24310763 -0.8314953 0.5766762 0.074775495
0002a0 06 81 28 3e b8 56 74 be 92 31 86 3d 74 b8 71 be
       0.16455469 -0.23861206 0.065524235 -0.2360552
0002b0 77 8c a7 bd c9 d9 54 bf d5 df fd 3e 40 7e 25 be
       -0.081810884 -0.83144814 0.49584833 -0.16161442
0002c0 1f 69 7b 3d 1f 7c 91 3e 73 56 90 3e 89 e0 19 be
       0.06137955 0.2841501 0.28190956 -0.1502706
0002d0 29 76 7b be 00 5b d1 be b5 4b eb bd 05 38 1b 3e
       -0.24556793 -0.4088974 -0.11489049 0.15158089
0002e0 72 e4 ae bd 7f 0b 41 3e 67 4c 17 3d c7 a9 a4 be
       -0.08539666 0.18852042 0.036938097 -0.3216078
0002f0 ba 87 b6 be ac 67 38 be 17 e1 02 bf 49 0a d3 3e
       -0.35650426 -0.18008298 -0.5112471 0.41218784
000300 43 a4 02 3e b2 09 d5 bd 9a 12 19 3e e0 1e f8 be
       0.12757973 -0.1040224 0.14948502 -0.48461056
000310 71 eb 0b be 0b bc 95 bd 22 d0 8a bf 46 57 fd 3a
       -0.13664033 -0.07311257 -1.0844767 0.0019328378
000320 f3 7d 5c 3d 02 30 97 be a9 00 bf 3e da aa 3d bf
       0.053831052 -0.29528815 0.3730519 -0.74088824
000330 a7 02 24 bf 57 5d 07 3f de b0 8a be 42 53 16 3f
       -0.6406655 0.528768 -0.27088064 0.5872079
000340 be 93 8b be d3 d7 6c bf af fa 78 3f f3 7d dc 3e
       -0.27261156 -0.9251682 0.9725751 0.43064842
000350 96 8c 68 be 7e e8 06 bf 37 00 6b be 97 e0 14 bf
       -0.2270988 -0.52698505 -0.229493 -0.58155197
000360 3b 8c d7 3e 4a af 27 3e 94 2e fc bc 91 82 c6 3c
       0.42099175 0.16375461 -0.030783929 0.02423218
000370 cf 13 2f 3e 3e bb d0 3e 5a 3d e4 3e 85 d9 c9 3d
       0.170974 0.40767854 0.44578058 0.09855942
000380 99 c8 4f 3e 32 0b 9f 3d 07 c8 fe be b9 19 dc 3e
       0.20291366 0.07765807 -0.49761984 0.42988375
000390 00 00 a5 3e b5 88 8e bf 20 88 6b 3f 2b c6 33 3f
       0.32226562 -1.113547 0.92004585 0.70224255
0003a0 aa f6 fb 3d 65 41 30 bd 08 2b e7 3a cd 77 38 bf
       0.12302907 -0.043031115 0.0017636726 -0.720578
0003b0 f3 00 1f bf 09 2b 90 3e c7 c5 4e bf 76 d4 b7 3c
       -0.62110823 0.28157833 -0.80770534 0.022440176
0003c0 af 77 d8 bd 0e bc 0b bf 7e 21 0f 3e 66 07 f9 be
       -0.10569703 -0.54583824 0.1397762 -0.48638457
0003d0 52 4c fb bd 8d f6 e5 bc 43 33 0e 3d 5b 80 55 be
       -0.12270416 -0.028071666 0.034716856 -0.20849745
0003e0 cf 7a c3 bd 8e c2 49 be 8f cc b8 be 41 39 9d 3e
       -0.09544908 -0.19703123 -0.36093566 0.30707744
0003f0 68 49 14 bf 2e db 28 3f 7a bd db 3e 6a fe c0 3d
       -0.5792451 0.6595944 0.42917997 0.09423526
