prediction/prediction_KeyPoint/weight_R/model_122_0.12389076.pth (torch_old, 328977 bytes, 23 tensors)

features.conv0.conv1.weight f4 [3, 1, 3, 3]
00000000: 65a5 f3be 0fa3 9fbf b8c4 6f3c f6dc e43e
00000010: 9bea f83d ce58 ba3e f379 683e f05e 353f
00000020: dcbe 11be d4b8 00be 428b 64bf 82ff a4be
00000030: 3a30 ac3e b347 4abf d075 8cbe 6cb2 b23c
00000040: eea0 30bf 2ecd 023e 3061 433e b4e7 12bf
00000050: 93f8 8bbe 7bd6 d0be 25f4 26bf 03c0 15bf
00000060: 80d8 2ebe fe2a e8be b7fb 073d
-0.47587124 -1.2471637 0.014634304 0.4469983 0.121541224 0.36395878 0.2270277 0.7084799
-0.14232963 -0.12570506 -0.8927499 -0.32226187 0.33630544 -0.79015654 -0.27433634 0.021813594
-0.6899556 0.12773582 0.19080043 -0.573848 -0.27338085 -0.40788636 -0.65216285 -0.5849611
-0.17074776 -0.453453 0.03319904

features.conv0.pointwise.weight f4 [32, 3, 1, 1]
00000000: 4d13 c83e b28c 46bf 936e 1b3f d2a0 123f
00000010: dbe7 023f e237 3f3f e51f f3c0 e8d8 dbbc
00000020: a01a c53c e59b 6940 e2c2 cd3d 518e a5bd
00000030: bb02 2abe 89d4 2f3f bf3e 1ebf e00e 0940
00000040: 6d7b ce3e 2972 9ebe 38d3 473e cdb3 24bf
00000050: a386 153f a5c3 e6bd cda9 0ebe 793f cdbf
00000060: 1c90 13c0 f0c7 773e c904 86be 0d82 c940
00000070: d791 0c3e baaa f4bd d009 80c0 936a 6c3e
00000080: 11c3 f4bd daeb d83e 9ba6 873e bfcb 6a3f
00000090: fff9 cd3e 66df 57bf 2ebe a43e 3529 093f
000000a0: 1987 e83e d440 05bf 84e0 c2be 4a4e 0e3f
000000b0: 7f6f 19bf 3bca fd3d 4cb5 07bf 5fec b63e
000000c0: 2bab d5be 4718 36bf 4b33 c43e ae92 98be
000000d0: a1f3 083f 64f3 23bf c747 99c0 18d5 bc3d
000000e0: f391 e6bd 8bd3 743f bd88 273e 55b7 11bf
000000f0: 2513 e83f fb3c 143d 3dc6 f73d 4f00 6a3e
00000100: 5c25 21bf b2d2 043f b8dc 6dbf 237f 18bf
00000110: a65e a03e a1a7 45be b7ab a33d 69a3 8dbf
00000120: 696c 6fbe 08d8 863f 50cd cdbe d477 0b3f
00000130: 5e89 60be d588 4cbf 5d48 7cbf 6de4 843f
00000140: 88d7 09be 7832 253e f3b3 6c3f 1206 db3e
00000150: 6f8b 1240 266c b03e 4787 b5be 8496 073f
00000160: 250a 19be 1f80 dd3f 415d c4bd 8879 433f
00000170: b793 92bf db84 9dbe 03af 1dbf 5860 2e3f
0.39077225 -0.77558434 0.607156 0.5727664 0.51135033 0.74694645 -7.5976434 -0.026836827
0.024060547 3.65014 0.100469366 -0.08083785 -0.16602604 0.6868368 -0.6181449 2.141533
0.4032854 -0.30946472 0.19514167 -0.64336854 0.58408564 -0.11267785 -0.13931961 -1.6034995
-2.3056707 0.24197364 -0.26175526 6.2971253 0.13727508 -0.11946626 -4.001198 0.2308753
-0.119512685 0.4236744 0.26494297 0.9171714 0.40229794 -0.84325254 0.32176346 0.535785
0.4541557 -0.52052045 -0.38061917 0.5558821 -0.59935755 0.12392088 -0.5301101 0.35727212
-0.41732153 -0.71130794 0.38320383 -0.29799408 0.5349675 -0.6404326 -4.790012 0.09220332
-0.11258306 0.9563529 0.16360755 -0.5692037 1.8130842 0.036190968 0.12098358 0.2285168
-0.6294763 0.51883996 -0.92914915 -0.59568995 0.3132221 -0.19302227 0.079917364 -1.1065494
-0.23381199 1.0534678 -0.40195704 0.5447972 -0.21927401 -0.7989629 -0.9854792 1.038221
-0.13461125 0.16132534 0.9246208 0.4277807 2.2897604 0.3445751 -0.3545477 0.52964044
-0.14945276 1.7304724 -0.09588099 0.76357317 -1.1451329 -0.30765423 -0.6159517 0.6811576

features.bn0.weight f4 [32]
00000000: e6c5 b23d 770d df3d 2d79 003e b688 9e39
00000010: 8aa9 a73d 41b3 5d3d b30f 693d 696c 763e
00000020: 7c17 973d 71f4 b43d 78aa 453d f7f2 473e
00000030: ae51 a23d 6cbf 7d3d 6034 5f3d ec8c a0bd
00000040: 0a96 20be 313f 353d 1e21 ef3d 1e74 77bd
00000050: 926b 553e 85e0 d83d 86c5 803d b004 353e
00000060: 513c 0e3e f2bb b33d 4213 ca3e b313 a43e
00000070: fa1b 8b3d 5e63 233e 2e4b 7f3d 81a1 7d3d
0.087291524 0.1089124 0.12546225 0.00030237966 0.08186634 0.054126028 0.056899738 0.24064793
0.07377526 0.08835686 0.048258275 0.19526277 0.079257354 0.061950132 0.054493308 -0.07839379
-0.15682235 0.044249717 0.116762385 -0.060413472 0.20841816 0.10589699 0.062876746 0.1767757
0.13890196 0.08776082 0.39467818 0.3204628 0.067924455 0.15955874 0.062327556 0.0619216

features.bn0.bias f4 [32]
00000000: cfcb 713d d97f cb3b 90f9 29bc 461f dc3d
00000010: 6ce9 b33d 79b7 e23c cf42 593d 183d d5be
00000020: d22e da3c 121a ab3c b54d d73c 1e94 dabd
00000030: f2a1 b13c ba55 bcbc e268 e53a db03 a2bd
00000040: a8cf 25be 6ec8 e2bc ab9e 8e3c 1d66 e2bd
00000050: 5846 40be 50a9 f23c 2ad2 c83b b506 7abe
00000060: ceaf acbd f729 3ebc adf9 b4be cb60 9abe
00000070: 2f61 633d 236a 71bd c6cb 6d39 93c4 c13c
0.059032258 0.006210309 -0.010374442 0.107481524 0.08784756 0.027675377 0.05304223 -0.41648173
0.026633654 0.020886455 0.02628217 -0.10672782 0.021683667 -0.022990096 0.0017502571 -0.079108916
-0.16192496 -0.027683463 0.017409643 -0.11054633 -0.18776834 0.02962175 0.006128569 -0.24416621
-0.084319696 -0.011606685 -0.35346738 -0.30151972 0.055512603 -0.05893911 0.00022677993 0.023653304

features.bn0.running_mean f4 [32]
00000000: d9fb b1be 829b 423f 5bf7 aa3c 3cb2 e93c
00000010: f1cc 893e 644c 323e 1718 80be 18ec 5bbf
00000020: 20ec a93d cffb ed3c 20ba 163e 29bd 233f
00000030: 2ea2 08bf 998a f93d 218c 313e d187 87be
00000040: ffd1 cabe fe9e 0c3e 7a09 2d3d 7653 0dbe
00000050: 6583 a03d 37e7 89be f5ac aabe 9048 e6be
00000060: e7c4 2a3f 2041 0dbf 253d 483f 4f85 723f
00000070: abbf d53d c0e2 2e3f 08c3 b13d 4ca5 38be
-0.34762457 0.76018536 0.020869901 0.028527372 0.2691417 0.17411953 -0.2501838 -0.85907125
0.082969904 0.029050736 0.14719439 0.6396051 -0.53372467 0.121846385 0.17338611 -0.26470807
-0.3961334 0.13732526 0.042245366 -0.13801369 0.078375615 -0.26934215 -0.3333508 -0.44977236
0.667067 -0.551775 0.782183 0.9473466 0.104369484 0.68314743 0.086797774 -0.18031806

features.bn0.running_var f4 [32]
00000000: 755a 1d3e 0ee6 2340 6faa 7540 e46f 663f
00000010: b297 0c3e 72cd c03e 9b40 fa3d 6493 b440
00000020: 4de0 b53e 5de1 2a40 9518 873f 8d8e 1b40
00000030: 29e2 bd3e d616 153e 9e15 113e 1e64 983d
00000040: 53cd 463e 3da1 373e c8d7 c03f 9258 f23e
00000050: c5fb 823e fff0 d23d 7d51 4c3e e05d 0740
00000060: ca89 133f ec5e eb3f 9bbf 903f 9845 2a40
00000070: 4eee db3e 3d0f a240 5c44 453f bee3 4f3e
0.15366538 2.5609164 3.8385274 0.9001448 0.13729742 0.37656742 0.12219354 5.642992
0.3552269 2.670005 1.0554377 2.4305756 0.3708661 0.14559492 0.14168403 0.07440971
0.19414262 0.17932601 1.5065851 0.473332 0.2558271 0.102998726 0.1995296 2.1151047
0.57632124 1.8388343 1.1308473 2.6604977 0.4295525 5.06436 0.77057433 0.2030172

features.prelu0.weight f4 [32]
00000000: a5fe 88be deb8 f53e 38a0 dcbd dc83 8f3e
00000010: f1e0 babf 6e65 b13e 087d 603f 7a3b e63c
00000020: 50b7 97be 31cb bdbd 212c 73bd 5240 323f
00000030: ba67 9f3f 09c0 633f 1411 563f 26df ddbe
00000040: 48b6 4b3b 07eb 843e e6da afbe 66bd 0e3c
00000050: fb80 ba3c eddd 25bd df49 b43f 4c86 e93c
00000060: 1cda 2d3f af81 343e 1aed c93d 3943 b93c
00000070: 1c48 4cbf fe43 443f abc6 4abf d276 2b3f
-0.26756778 0.47992605 -0.10772747 0.28030288 -1.4599897 0.34647697 0.8769078 0.028104533
-0.29632044 -0.09267271 -0.059368256 0.69629395 1.245353 0.889649 0.8361981 -0.4333431
0.003108399 0.25960562 -0.34346694 0.008712148 0.02276658 -0.040494848 1.4085044 0.02850642
0.67910933 0.17627595 0.09859677 0.022615062 -0.7979753 0.7666625 -0.79209393 0.6697818

features.conv1.conv1.weight f4 [32, 1, 3, 3]
00000000: 16ae efbd 64f6 18bc 18e6 39be 77d4 9dbd
00000010: 666c dd3e 3822 4d3d 76cc 02bf 335c 8d3d
00000020: ef07 00bd 39b1 11bf aa1d 5bbd 9181 79bd
00000030: c431 ae3e 7cd7 013f c0ac 383e c037 2cbe
00000040: 7953 b3bd b36f 9cbe 55ce 273e d8f9 afbd
00000050: 27df a63e d6b6 283e e287 3bbd 4c95 f53d
00000060: f05a e8bc f7ce 55bd 9888 8abd c550 04be
00000070: 6753 6abd 75d3 92bd 02e9 e0bb 3f6f 57bd
00000080: 87b9 d7bc b670 c5bd fcb3 b2bd ff53 1fbd
00000090: 206a f6bc c395 123e 30b8 053e 5e6f f93c
000000a0: bd71 97bd b8fa 4d3b 3a45 803d 8d48 5e3c
000000b0: 45cd d93d e9e0 e0be 44de 86be 5ac5 573e
000000c0: 958b 203f 20c0 cb3e 3439 a5bd 9196 dfbd
000000d0: 3692 5dbe d87c 9fbd 1965 c43e f368 c6be
000000e0: e2ea e83e 4dd5 02bf 6b34 3abf 833e 4fbe
000000f0: 6726 d83e e91a 9a3e f02a b83e 3ac2 43be
00000100: d6b1 083e 6290 11be 4dbd ad3e 7d42 5b3e
00000110: 2015 d5bd 7001 09be 2471 10bd dac5 1e3e
00000120: 19fa c4bd 9d32 cd3e b328 2f3e 702d 5bbe
00000130: 4903 0c3e 6b37 6dbc c71a 27be 07a1 a33d
00000140: 988a 0dbe 69f5 c73b 71b6 a9be 9137 8fbe
00000150: 3396 243e 707d e83c c25a 24bd 20c5 393d
00000160: bc54 c1bc 7fa6 f23c 5965 57be 5797 e6bd
00000170: 6b3b 993e f0c5 11bf d181 7abc 7680 f73e
00000180: a91a 1bbe f459 763e 4cf5 fe3d c939 033f
00000190: cc59 b53e 62f1 bdbe 23f5 ab3e 6d43 203d
000001a0: fbf0 23bf 9844 8d3e 5fb9 67bd afe4 f6be
000001b0: 70e1 e03e 93bb 093f 519e 143e 7c9a 913d
000001c0: 69cd dbbd b7df 283e 5299 16be b5f3 1bbf
000001d0: 4d5c ecbe c62c e43e 35cc 1bbf 1f31 093e
000001e0: ad0b 943e d0bd ecbe 656b 373f 6a52 8fbe
000001f0: 71d5 85be d057 2abb 3912 1bbd 5452 dabe
00000200: e067 0d3d 1fa5 093e e8d9 c2be 7607 363f
00000210: 7007 a93d 2be7 0fbf c2c9 0d3f e02b 873e
00000220: 7b89 aa3e de71 b33e 2f11 a63d ed40 8d3d
00000230: 6c8c 383c 1189 b9be a52f 1cbe e046 0abf
00000240: e26f f2bd f609 453e a550 863e 4933 fc3d
00000250: 669d 99bd a7d5 8bbd f8e7 bebd fc32 d7bb
00000260: 5d38 433e 677c 06bf 4c4b dd3e 0078 0d3e
00000270: 0f83 d6be 04d7 38be 3043 7e3d a487 353e
00000280: 633d 61bd eecb aa3e 12f1 e1bc c1c4 92bc
00000290: 2405 e13d c3c5 383c 6994 a63d bd93 8f3d
000002a0: ff0e 67be 8273 53be 512f 48be c2d7 2cbc
000002b0: 0596 66bb f353 103c d0db 463e e01c 17be
000002c0: 88db 5ebd 07c9 a23d bf2a 8cbe ca3c 503e
000002d0: 341a dbbd 25d5 c9bb 736f 03be 4dd1 f1bd
000002e0: e961 05ba be13 51be a2f6 53be 6b3f 563d
000002f0: 8889 76bd 0332 843e d635 21be d404 bcbe
00000300: 760c 333e 742c 613c 4983 31be e9cd 9f3c
00000310: f95b d53c dfa6 1abe b502 103f 1fb2 eabe
00000320: 8904 febd a569 ec3e b85f 12be ca63 a1ba
00000330: 90d0 62bb 58b0 e23d 12b2 c6be 7f6d db3d
00000340: 1f84 cd3e 067a a73e 2953 1fbe 12a8 753b
00000350: 2eb0 8abe f7d7 febd 7781 56bd 1902 89bd
00000360: c82d 123e cbfe dd3d 8115 4ebf 4097 823e
00000370: a873 3b3e b248 d7be c300 bc3e fbd1 833e
00000380: c839 c0bd 700b 393e 4d06 e13d d54d eb3c
00000390: bdc7 9cbc ec6c 44be 742b 7b3d 336e f2bc
000003a0: 8fa3 22be ba15 b43e 6978 e93d f5f1 b13d
000003b0: 72e3 23bd a1ca 753c 8ab8 523d 9c2e 0f3d
000003c0: 12aa b93d acf3 19be d1f0 8f3d 7cca e13d
000003d0: af49 203f 3728 b6bc 7fda 0abe d91a 243d
000003e0: b27e 03be 0111 5dbe 2258 58be 3f84 0abe
000003f0: a51c c6bd d277 70be 7829 a4bc ebba 14be
-0.11703126 -0.009336088 -0.1815418 -0.0770654 0.43246764 0.05008146 -0.5109323 0.06902351
-0.031257566 -0.56911045 -0.053495087 -0.06091458 0.34022343 0.5071943 0.18034649 -0.16818142
-0.087561555 -0.3055397 0.16387303 -0.08592576 0.32592127 0.16475996 -0.045783885 0.11991367
-0.028363675 -0.05219933 -0.067643344 -0.12921436 -0.057208445 -0.071692385 -0.006863714 -0.052596327
-0.026333584 -0.096406385 -0.087257355 -0.038898464 -0.030079901 0.14314942 0.13058543 0.030448612
-0.07394741 0.0031429958 0.06263204 0.013567102 0.10634855 -0.43921593 -0.2634145 0.21071377
0.62712985 0.39795017 -0.08067551 -0.1091739 -0.21637806 -0.07787484 0.3835838 -0.38751945
0.454917 -0.5110672 -0.72736233 -0.2023869 0.422168 0.30098656 0.3597026 -0.1911706
0.13349089 -0.14215234 0.33933488 0.21412082 -0.1040442 -0.13379455 -0.03526415 0.15505162
-0.09618015 0.40077677 0.1710537 -0.21404052 0.13673128 -0.014478545 -0.16318808 0.07989698
-0.138224 0.006102253 -0.33147004 -0.2797208 0.16072921 0.028380126 -0.040125616 0.04535401
-0.023599975 0.029620407 -0.21034755 -0.112593345 0.29928145 -0.56942654 -0.01528974 0.48340195
-0.15146889 0.24057752 0.124491304 0.5126005 0.35420072 -0.37098223 0.33585462 0.039126802
-0.6403958 0.27591395 -0.056573268 -0.48221347 0.43921995 0.5380184 0.14513518 0.07109544
-0.10732538 0.1649159 -0.14706925 -0.6091874 -0.4616417 0.4456541 -0.6085847 0.13397644
0.28915158 -0.46238565 0.71648246 -0.27992564 -0.26139405 -0.0025992282 -0.037859175 -0.42640936
0.03452289 0.13441895 -0.38056874 0.71105134 0.08253372 -0.5621211 0.55385983 0.2640066
0.33308014 0.3504781 0.08108746 0.06897149 0.011263948 -0.36237386 -0.1525255 -0.54014397
-0.11837746 0.19242081 0.26233402 0.12314469 -0.075007245 -0.0682786 -0.09321588 -0.006567357
0.1906447 -0.5253357 0.4322151 0.13815308 -0.41896865 -0.18050772 0.062075794 0.17727524
-0.054990184 0.3335871 -0.027580772 -0.017916085 0.109873086 0.011277619 0.08133776 0.07010601
-0.22564314 -0.20649531 -0.195493 -0.010549488 -0.0035184633 0.008809078 0.1941979 -0.14757109
-0.05440858 0.07948499 -0.27376363 0.20335689 -0.10698357 -0.006159442 -0.12835483 -0.11807499
-0.0005088137 -0.20417687 -0.20699552 0.052306574 -0.060189754 0.25819406 -0.15743193 -0.36722434
0.17485222 0.013743509 -0.17335238 0.019507365 0.026044833 -0.15102719 0.5625413 -0.4583902
-0.12403209 0.4617435 -0.14294326 -0.0012313065 -0.0034609176 0.11068791 -0.38807732 0.10714244
0.40139863 0.32710284 -0.15559067 0.003748421 -0.2708754 -0.12443536 -0.05236956 -0.06689853
0.14275277 0.108396135 -0.8050156 0.2550602 0.18305838 -0.4204765 0.3671933 0.2574614
-0.09386021 0.1807077 0.1098753 0.028723637 -0.019138211 -0.19182175 0.061320737 -0.029593563
-0.15882705 0.35172826 0.113999195 0.08688728 -0.04001183 0.015001924 0.05144552 0.03495656
0.090656415 -0.1503436 0.07028354 0.11024949 0.6261243 -0.022235973 -0.13559912 0.040064666
-0.12841299 -0.21588518 -0.2112737 -0.1352701 -0.09673432 -0.23483208 -0.020039305 -0.14524429

features.conv1.pointwise.weight f4 [28, 32, 1, 1]
00000000: acc2 c23e 9857 dcbb 56a4 843d 75da b3be
00000010: 66a6 ca3e 9997 a1bd f71a dabe c421 e3be
00000020: 25b4 2ebe 5129 fd3e c30f a2be be31 623e
00000030: 2c28 e33e 2b83 2d3d 07cd 9a3e a97f 293f
00000040: c2ce 01bf 41ab 63be 9abd 9bbe 2bb3 5fbd
00000050: deb9 d43c 1d66 3c3f 676f 1d3e 237f ce3d
00000060: 7710 9a3e 2894 91be d61a b9be a283 8fbd
00000070: 0916 9fbe dba3 e3bb 7776 a7be c802 c73e
00000080: 0e55 da3c fc21 9b3b 1ce3 6b3d 9dc1 073f
00000090: 41e1 fbbd 3e99 4ebe 49da 82be e965 cc3d
000000a0: 819b dcbd aa27 023e 5b45 273e e380 dcbe
000000b0: 09b9 4d3f d968 09bc 50ad e53d 27ce b5bd
000000c0: fe68 873e e7c9 47be c69e 8dbe a79b 803c
000000d0: cb84 1abf e876 bc3c a1ac 5a3d 4ef3 ff3e
000000e0: 68e5 bd3d bdb1 aebe 345f c53d f8aa d2be
000000f0: b246 9d3a db3b 4e3f ea9e 8bbe bc8d 5abe
00000100: 0806 5cbf 8416 5c3e d0c4 99be 5d94 893d
00000110: 01ed 84bf a50f d63e b926 c8be 6a50 adbe
00000120: 642d 5dbe 6be5 10bf 8284 c8be 55f7 3ebe
00000130: 05ce 193e 0110 ea3e b3e7 babe 7e9d e53e
00000140: 6e79 533f ec32 34bf 97af da3d 6136 03bd
00000150: ba41 f7bd 8c98 80bf 5a92 86be 3989 643e
00000160: 2870 f73e e78c 7f3f d3a1 ff3e 00fa 8cbd
00000170: c050 c03e 26c1 b23e 339c 8cbd b92b 023e
00000180: 93cd be3c 9784 123d f3dc 6fbe e60f 8ebe
00000190: 6d56 3d3e 851c efbe def7 9c3e ad92 513e
000001a0: 078d 79be e615 46be 7491 8d3e 43cf 8cbe
000001b0: 840b f0bd 6344 efbd 2cf4 d0bd e179 1fbe
000001c0: 92bc c2bc b73d 52be 83e3 ff3d 0b5b 5a3d
000001d0: 8225 4ebe a7b9 aebd 863a ef3d d42a 4a3d
000001e0: f5a7 573d ca47 f03c 814a 053e f098 a0be
000001f0: a6e5 543e 6c39 4a3f c0cf 13be 91e7 5bbe
00000200: 38e0 2b3f e116 6bbe 67bb ff3e a452 3b3e
00000210: 638b 69be 7351 6b3e fc4f bdbd faaf 88be
00000220: 5be7 fa3e c4f7 b03e b15f 083e 0480 7abe
00000230: 6e27 9e3d c1e2 08bf 28ce 82be 61e9 423e
00000240: c640 7e3e 8e8f eb3e 2b3a 153f 4338 9a3c
00000250: f5dd 20be 7853 9b3c 82b0 12be 25f6 e43e
00000260: 925b 053e dcdf cebe a01a 283e f36a c83e
00000270: 10a2 0c3f d2b6 59bf 4871 1cbe 8156 c63e
00000280: 1b13 3cbe 0633 b6be 002c ae3e 03ef 963b
00000290: 8c1a 80bd 6165 8fbe 6198 8e3e e23a ab3e
000002a0: 40fa e5be c3a7 a0bd 84c7 6a3e 115c 953d
000002b0: d0b9 b93c ac5e 8b3c 821a 953e 25f8 143d
000002c0: 9b44 93be cd41 22bf 6b50 bd3d ce79 4fbd
000002d0: 25d9 d53e 12f3 1a3e fc41 4bbd 9ca1 03be
000002e0: 6b55 10be 0fa3 80be ca28 cbbd 9226 9d3e
000002f0: d380 8f3d db60 77bf 0432 353e 12bb 37be
00000300: 2d40 053f e4f3 f6be 6607 a1be a75e e0be
00000310: 9d72 3f3e 79fd 293f 6777 dd3e 7dbc 603e
00000320: b2f2 5b3e 00c2 433e 0676 203f 3d7e 05bf
00000330: 268f 0c3e a77e 2a3e a67f 613e 06ff b83d
00000340: a150 a2bc 3135 c2bd e43b bdbe 8f3b 9f3c
00000350: 755d a53e 3f90 02be 9b1d cd3d 8a69 513e
00000360: cd4c 64bd 0a4d aebe 8e6d 0e3f 3e25 9c3c
00000370: 7046 0ebf 5e94 5dbd 554a 933d 7597 ae3e
00000380: 5c71 75bf 4593 03bf d4f7 063e 92fa 8bbe
00000390: d760 1fc0 15e6 3cbe e901 ea3e 60f5 53bf
000003a0: b1e7 ecbc 9cc2 7cb8 4bbc 1ebe d594 1c3e
000003b0: aab2 453c 0a9a 393e f3fa 363c eac9 1e3d
000003c0: c57b fdbe d9b6 453e aa5b 6bbe a013 303d
000003d0: 16c3 993d 4d8a b4be 6b59 6d3d 5fec 8cbe
000003e0: bd4e 3abe 4e63 c8be 0ab9 48be 9e8e 1dbe
000003f0: e2e8 e3bc 565c efbd eeb2 a63d 7f64 5d3f
0.38039148 -0.006724309 0.06476657 -0.35127607 0.39580077 -0.07890243 -0.42598698 -0.443617
-0.17060907 0.49445584 -0.3165265 0.22089288 0.44366586 0.04236142 0.30234548 0.6621042
-0.5070611 -0.22233297 -0.30418092 -0.054614227 0.025967535 0.7359331 0.15374528 0.10082843
0.30090687 -0.28433347 -0.36153287 -0.07007529 -0.310715 -0.0069470233 -0.3270757 0.3886931
0.026651885 0.004734276 0.057589635 0.53029805 -0.12298823 -0.20175645 -0.25557163 0.09980375
-0.107718475 0.12710443 0.16335051 -0.43067083 0.80360466 -0.008386814 0.11214697 -0.08877211
0.2644729 -0.19510613 -0.27660197 0.01569922 -0.60358876 0.023005918 0.053387288 0.49990314
0.092722714 -0.3411998 0.09637299 -0.41146064 0.0011999218 0.8056008 -0.2726968 -0.2134313
-0.859467 0.21492964 -0.3003297 0.06717751 -1.0384828 0.4180881 -0.39092043 -0.33850414
-0.21599346 -0.56600064 -0.39163595 -0.18649037 0.15019996 0.45715335 -0.36504897 0.4484672
0.8260716 -0.703902 0.10678022 -0.03203428 -0.12073083 -1.0046554 -0.26283532 0.22317971
0.48327756 0.99824375 0.4992815 -0.06883621 0.37561607 0.34912986 -0.0686573 0.12711991
0.023291385 0.03577098 -0.23424129 -0.27746505 0.1849 -0.46701446 0.30657858 0.20466109
-0.24370204 -0.19344291 0.27650034 -0.27501878 -0.117209464 -0.116829656 -0.10202822 -0.15573837
-0.023771558 -0.20531355 0.12494566 0.05330948 -0.20131496 -0.08531504 0.11681084 0.04935725
0.05265041 0.029331107 0.13016702 -0.31366682 0.20790729 0.7899387 -0.14434719 -0.21475054
0.67139006 -0.22957946 0.49947664 0.18293244 -0.22807078 0.22980289 -0.092437714 -0.2669676
0.49004635 0.3456403 0.13317753 -0.24462897 0.07722364 -0.53471 -0.2554791 0.1903434
0.24829397 0.4600796 0.5829188 0.018825656 -0.1570967 0.0189607 -0.14325145 0.44719043
0.13023213 -0.40405166 0.16416407 0.39144096 0.5493479 -0.85044587 -0.15277588 0.38737872
-0.18366663 -0.35585803 0.34017944 0.004606129 -0.062550634 -0.28007033 0.2785063 0.33443362
-0.44917488 -0.07844498 0.22927672 0.07292951 0.02267161 0.017012917 0.29121786 0.03636946
-0.2876328 -0.63381654 0.09243854 -0.05065327 0.4176723 0.15131786 -0.049623474 -0.12854618
-0.14095084 -0.25124404 -0.09919889 0.3069349 0.07006993 -0.96632165 0.1769486 -0.17942455
0.5205105 -0.4823295 -0.31450957 -0.43822214 0.18696065 0.66402394 0.4325516 0.21946903
0.214793 0.19116974 0.6268009 -0.5214575 0.13726482 0.16649877 0.2202135 0.09033017
-0.019813837 -0.09482802 -0.36959755 0.01943758 0.32297865 -0.12750338 0.100154124 0.20450416
-0.055737305 -0.3404315 0.5563592 0.019060727 -0.5557623 -0.054096572 0.07191912 0.34099928
-0.958761 -0.5139659 0.13180476 -0.27339607 -2.4902856 -0.18447144 0.45704582 -0.8279629
-0.028919073 -6.0262726e-05 -0.15501516 0.1529115 0.012066523 0.18125167 0.011168229 0.03876678
-0.4950849 0.19308032 -0.22984186 0.042987466 0.07507913 -0.35261765 0.057946604 -0.27524087
-0.18194099 -0.39138263 -0.19601837 -0.15386435 -0.027821008 -0.116875336 0.08139597 0.8648147

features.prelu1.weight f4 [28]
00000000: 5c85 3b3f 013b ef3e 15e7 0a3f ca27 1bbf
00000010: 9a39 e03e d3a2 1d3f d546 d63e 6253 3c3f
00000020: ebef 213f bbb3 723e bf2c 1c3f 3bbb 1b3f
00000030: d28d 4f3f 102a 883f 9a56 073f e7e0 ab3e
00000040: 0de9 8d3e dbaa a63e 4fef 4a3f 0fea 4e3f
00000050: e1af 7d3e 0102 483f bf88 333f 131e 923e
00000060: 72ca bd3e d219 cb3e 6d43 1a3f 80e7 843f
0.73250365 0.46724704 0.54258853 -0.6060759 0.43793947 0.61576575 0.41850916 0.7356473
0.6325671 0.23701374 0.6100578 0.60832566 0.81075776 1.0637836 0.5286652 0.33570024
0.27716866 0.32552227 0.79271406 0.80825895 0.24774124 0.7812806 0.7013053 0.2853857
0.37068516 0.39668137 0.60259134 1.0383148

features.conv2.conv1.weight f4 [28, 1, 3, 3]
00000000: f58d 823d 6d70 933e cc0b 9cbc 7b1c 2ebe
00000010: 2bc3 703e 4689 0fbe e3e8 68be b481 3a3b
00000020: 96ff 07bf 9e31 34be ac5e 71bd a404 14be
00000030: 9650 88be d923 13be b8e1 9bbe 27a7 19bd
00000040: 2e66 00be e25b febd 055d c83e b015 2c3e
00000050: eb54 92bd 0dde 1a3e 7271 d33d 9342 46bc
00000060: df88 873e d1c6 943d dca2 bbbd c7e0 b4bc
00000070: 1c65 c03d cc4f 0a3f c0be 1fbd 34a5 77bd
00000080: 8b40 193e 71ac fbbe 8d9e 87be 6399 023d
00000090: 8e55 1c3e c624 893d 34b5 873e 5c2b dfbd
000000a0: caea a23d 3123 363e 4b8a 803e 8d4f c0bb
000000b0: e192 753d 84df 1bbe b928 cebe 8cd0 97be
000000c0: 2f87 063f ce45 4c3e 0c7e a5bc 7f1d 563e
000000d0: eaab 8dbd fe15 0abe 5d58 42bd 2d0e 0b3e
000000e0: 9512 a93c 066d 20be 5aeb fabd 518c 41bc
000000f0: d23f 86be a2de 9abe 2138 b1bd 3b95 15bf
00000100: 01b8 eabe c0e7 92be 3953 30bd 5972 a13d
00000110: 5c3f 993d f905 ad3e a7f1 943e b747 de3e
00000120: 98cd 34be fb4d b1be 724d aebe 7a23 783d
00000130: e76f d93c 8e0c 05be 687a 15bd e052 65bd
00000140: 160a 9bbd 353f 11be e5ea 48be 0a80 70be
00000150: 8846 cebe ad95 bfbd c422 a3bd 6c70 d2bd
00000160: c9d2 083d b73d 8b3e 02bf 79be 3368 e63d
00000170: 19c0 d53d c44a 99be 000f 453d b766 a43d
00000180: ebaa 96be 21a4 b4be 653f 52be d297 b2be
00000190: 6fd4 97be f9bd bfbe fd8e 56bc 7ae2 f3bc
000001a0: 4463 e6bd d378 7b3d 792d 943b d6b2 19bd
000001b0: 0a0c 643e b23c a53e f305 c23e 3b02 03bc
000001c0: e527 033c c4c5 203e c639 69bd e095 993b
000001d0: 52da 563d 9b92 56be c406 6fbe 1f8f 5dbd
000001e0: fdf5 f6bd 198e b33c 0d49 173e 1701 1cbd
000001f0: fd7a 5a3e a3c7 aa3e 4946 fc3e 7799 1b3d
00000200: 3648 25be 21df 8a3e 1969 fabd 129d 09be
00000210: d26c 7a3d 9b5c 4abe 59bc a0be 1e18 05be
00000220: 3438 163d 95b6 0e3e 702e 883d dca7 323c
00000230: 2ec4 633e 0984 573e 47ad 993e aac5 843e
00000240: bf94 99be aad8 89bd c344 cfbe 4027 28be
00000250: 3869 61bd ab9f 11bd a18e 2c3d f5eb 47bd
00000260: 8ac8 d3bd bac8 253f eb11 3c3c ed37 b3be
00000270: bf3d 933e 3499 73be ad15 35be 1da7 303e
00000280: 930e 4fbe c3db 2dbe 839b 073f e550 873a
00000290: da02 133b ff97 033e 8833 c7bd b011 a2bd
000002a0: 4fef 7b3e 5370 69bd 9458 90bc d192 443d
000002b0: 7ca4 6abe aa7e 0ebd 1d93 493e baaa 113d
000002c0: 58ea 583d df1a 573e f306 8d3e 1b6b 873e
000002d0: c248 03be 68bf febd 1e46 83be f844 c5bb
000002e0: 9071 4fbd 957a 60be 219d 3c3d e581 c13c
000002f0: 12c7 89be f4db cc3e a84a 323d f6cf 8fbe
00000300: e4ab 953e b17b 8d3e eefe afbe fdc3 623e
00000310: 55db cbbd b4c6 d2be 0ec3 8f3e 8bfe 823e
00000320: 7d45 883e 8d95 173e 065c 30bb 413e 193d
00000330: 8e7b 483e c956 a63d 6485 783c ff50 ebbe
00000340: b00f 81bd 3297 a83e 3dfb 5bbe de6d 663c
00000350: 28c8 ab3e 2b79 b2be 89a2 93bb c685 7a3e
00000360: 9629 0bbe 4a1e d4bc 67da 3dbe f421 49be
00000370: c53e 18be 8f34 0fbe f863 acbd 30fd e4bd
00000380: 9ea3 f7bd 4ff3 e63d 7473 293d ecb9 203e
00000390: 1379 133d 2f51 453d 5f9a 463e 8959 8e3d
000003a0: 67ed 273e b4a5 ea3d cba6 623e 560d 473e
000003b0: 746a 2b3e 9644 84bc c5ae 1a3e d845 553d
000003c0: dfda c23b 3b4c a83d 681d 543e 41ec 3b3e
000003d0: c3b6 98be 225f b3be 68d0 be3e 64b5 1abe
000003e0: be98 00be fdc4 fb3e a20d e03d 19ec 91bd
0.063747324 0.28796712 -0.019048594 -0.17003052 0.2351195 -0.1401721 -0.22745089 0.0028458657
-0.5312437 -0.17597052 -0.058928177 -0.14454895 -0.26623982 -0.14369144 -0.30445647 -0.037512925
-0.12538978 -0.12419869 0.39133468 0.16805148 -0.07145103 0.15123768 0.10324372 -0.0121008335
0.26471612 0.07264484 -0.09161922 -0.022079838 0.09394285 0.5402801 -0.039000273 -0.060460284
0.14966027 -0.49155 -0.26488152 0.031884562 0.15267012 0.06696467 0.26505435 -0.10896942
0.07954939 0.17786862 0.2510551 -0.005868858 0.059954528 -0.15221983 -0.40265444 -0.29651296
0.52550024 0.19948503 -0.020201705 0.2090969 -0.06917556 -0.13484952 -0.04744755 0.13579626
0.020638743 -0.15666589 -0.12251921 -0.011813239 -0.26220566 -0.3024798 -0.08653284 -0.5843083
-0.4584351 -0.28692436 -0.043048117 0.07883138 0.07482788 0.3379362 0.29090616 0.4341409
-0.17656553 -0.34629807 -0.3404346 0.060580708 0.026542617 -0.1299307 -0.03649369 -0.05598724
-0.07570283 -0.14184268 -0.19620855 -0.23486343 -0.40288186 -0.0935472 -0.079656154 -0.10275349
0.033404145 0.27195522 -0.2438927 0.11250343 0.1043703 -0.29939854 0.04811001 0.08027404
-0.29427275 -0.3528147 -0.20531996 -0.34881455 -0.2965426 -0.37449625 -0.0130956145 -0.029771078
-0.11249402 0.061394524 0.0045220223 -0.037524067 0.22270218 0.3227287 0.37895164 -0.007996137
0.008005117 0.15700442 -0.056939863 0.004687056 0.0524543 -0.20954363 -0.23342425 -0.05409157
-0.12058637 0.021918343 0.1477396 -0.038086977 0.21335979 0.33355436 0.49272373 0.037988152
-0.16140828 0.2712336 -0.12227077 -0.13438824 0.061138935 -0.19761889 -0.31393698 -0.12997481
0.036674693 0.13936837 0.06649482 0.010904279 0.22242805 0.21046461 0.30015013 0.25932056
-0.29996297 -0.067307785 -0.4048215 -0.16421223 -0.055031985 -0.035552662 0.04212821 -0.04880901
-0.10340984 0.6475941 0.011478881 -0.35003605 0.28758046 -0.23788911 -0.1768405 0.17251249
-0.20220403 -0.16978364 0.5297167 0.0010323791 0.002243212 0.1285095 -0.09726626 -0.0791353
0.24603008 -0.056991886 -0.017620362 0.047991578 -0.22914308 -0.034788765 0.19685026 0.03556321
0.052957863 0.21006344 0.27544364 0.26448902 -0.12820724 -0.124388516 -0.25639433 -0.0060201846
-0.05064541 -0.21921761 0.046048287 0.023621509 -0.2690969 0.4001156 0.04352823 -0.2808835
0.29232705 0.27633432 -0.34374183 0.22145076 -0.09953944 -0.41167223 0.28078502 0.25584826
0.26615515 0.14803143 -0.002691032 0.037412886 0.19578382 0.08122022 0.015168522 -0.45960233
-0.0630182 0.32927853 -0.21482559 0.01406428 0.33551145 -0.3485807 -0.0045054597 0.24465093
-0.13590083 -0.02589335 -0.18540345 -0.19641858 -0.14867695 -0.13984893 -0.08417505 -0.11181104
-0.120917544 0.11276876 0.04136987 0.15695924 0.036004137 0.048173126 0.19394825 0.06950671
0.16399156 0.114573866 0.22133939 0.19438681 0.16739827 -0.016145986 0.15105732 0.05206856
0.0059465016 0.08217665 0.20714343 0.18351842 -0.29826936 -0.35033518 0.37268376 -0.15108258
-0.12558267 0.49173728 0.109401 -0.0712511

features.conv2.pointwise.weight f4 [48, 28, 1, 1]
00000000: 5f64 84bc 435b ad3f 668c da3d 802d 5fbf
00000010: be60 053f 2f48 9f3e 8e18 573e 7d2e 453e
00000020: 3538 9b3e 1031 1d3f 9456 3f3e 48ee 0d3f
00000030: 16da 6dbe 2023 cb3e 37f8 a9bd c732 cc3e
00000040: c384 2b3f 008a 373f 35fa 6f3d 5aac d73e
00000050: 8b82 933e e069 9dbe 8a26 0f3e 2025 f43e
00000060: 4afb 7dbe 1590 be3d fbdf 893f d3db 90be
00000070: 8c0c 04bc 2423 04bf 99c8 94be b0d0 553e
00000080: befd e33e f258 9bbd 49ec 0cbd 0429 4bbf
00000090: 8fbf 673f 2ede 22bf 46a0 18bd 13b3 0f3e
000000a0: c7ec 98be d8b1 62bd 8620 83bd 7cd1 3abe
000000b0: f346 fdbe 6ceb 3dbe baba 023e 2668 8abf
000000c0: ad9e 3c3f 6698 1abe 11e0 15be 6d7c 9c3e
000000d0: 86ad 38be 51a2 11be fcda 0d3f 429b 42bf
000000e0: 55ac bb3d df8c 6dbf f47a 4bbe 9da4 e7bd
000000f0: 482a 38be 580f fe3e b506 d73e 3d0d c5bc
00000100: 0b59 3bbd fe4d d5bd 177b 413f a59a 3a3e
00000110: 1f8e 70be f035 12be 6f51 5abe 0da8 603e
00000120: 9f5d b5be c9a1 ee3b 3fd5 5c3e e3b3 e4be
00000130: 15ed fd3e 7b93 883e 13a6 963d daa8 51be
00000140: ff85 3fbe df91 48be f3c8 67be 2a27 2b3f
00000150: c814 09bf a154 253e a8a3 9ebc 0c5a 35be
00000160: 909d c53e 7a99 65bf dc5f 89bc db70 f9be
00000170: f0b2 da3e 26b4 91be be24 6fbd 64d3 233d
00000180: 0264 d5be b7b2 ce3d 39d6 adbc bf73 2cbe
00000190: 460b 943e 74e1 81bc 2ca7 a3be 310a 42bf
000001a0: a6f8 763f a471 473d f178 18bf ced2 49bf
000001b0: 261d 2f3e 787a 06bf 47d7 f03e 5241 b43e
000001c0: e28d 57bd dcd9 c93f 2aca 09be 8eeb 513f
000001d0: aef4 53bf c0b0 2c3d 9047 dcbd 3c24 a8be
000001e0: 39e8 093d 3177 173e e4ec 52be da6a c9be
000001f0: 1de1 ae3e eb08 d33b 1a02 cabe 5727 d4be
00000200: ed2e 883f b575 dd3d 28e1 063f 5adf 113f
00000210: 247a a8be 78b8 f93e 2f56 b43e de4f 62bd
00000220: 37a0 903f cc63 8b3e 5041 29bf 17ec ca3e
00000230: faf0 e93e 21b2 dfbe bc39 a73d 2dce 67bd
00000240: 8e2b fb3d b1c2 943e 21bd d43d 3b27 3f3d
00000250: 8a14 2fbf 8b32 fd3d 7621 81be c602 16be
00000260: b337 043f 7b4e 573e 0827 41bd bd8f 3ebe
00000270: 65eb 293f a02c 23bf d58c 6d3e edbb c8bd
00000280: 6833 bbbc ca48 cf3d 9c93 2b3e 5a2f a83e
00000290: 5c47 9bbe 362c d93d bafc 41be c39d 7abe
000002a0: 3289 603e de14 083f bbbf 73be 582f 80bd
000002b0: c625 4cbe 291d 103f 19d6 07bf 5139 b5bd
000002c0: 798e 75bd d9e8 493f 6ca4 a63e e2bf 4cbc
000002d0: 261d 1fbd 88fa bebc d671 0e3f 8367 ecbe
000002e0: 380c 9e3e 365f 083f f160 e53e 341e ea3e
000002f0: aefe d6bd a7b3 0a3f f3dd 8b3e 14f7 18bf
00000300: 2c9f d73f fdd2 853e 64e2 82be e74f c73d
00000310: c4eb 15be 31ee e23d cd16 f8be 1e1d b2be
00000320: 3fd6 5abe 297e 31bf f765 0d3f 1306 e83d
00000330: cad0 473e 3dd2 3f3c 2366 94bd 698c 2b3f
00000340: c605 cdbd 45dc 923f 3c53 60bd 8b1d f93d
00000350: 4068 9a3e d548 74bf 2a9f b13e 0afa 8a3d
00000360: 78bf 173f 380d 01be ae6e 85bc 7f46 043f
00000370: 39bb 6f3f 4c07 febd 4734 48bf 7416 743f
00000380: d731 85be 45a2 6e3e fc98 bfbd 9ff5 f73d
00000390: 1760 64be 555e 34be 32ce 063f 21af 14be
000003a0: 8b4f bf3d d48a 273e 6a7b a53d 2eea 273e
000003b0: af0c 66bf cf4c 9f3e f37f fcbe 5711 f63e
000003c0: 3ad8 5a3e f8b7 37bf 354b 373f 0560 d2be
000003d0: c02b 953e d580 4e3f dcfc 253f f4a1 983e
000003e0: a9ec da3e 9823 dc3d 3f8b 073e 5c13 4f3f
000003f0: 0827 babd f6b1 b53c d0ce 98bd 541e bd3e
-0.016161142 1.3543476 0.1067131 -0.871788 0.5210074 0.3110976 0.2100546 0.19256015
0.3031632 0.6140299 0.1868537 0.55441713 -0.23227724 0.39675236 -0.08299296 0.3988249
0.66999453 0.71694946 0.058588225 0.4212368 0.28810534 -0.3074484 0.13979545 0.47684574
-0.2480289 0.09304825 1.0771478 -0.28292713 -0.008059632 -0.5161612 -0.29059294 0.20880389
0.44529527 -0.07585324 -0.034405027 -0.7935946 0.9052667 -0.6362027 -0.037262224 0.14033155
-0.29868147 -0.055345386 -0.06402688 -0.18243974 -0.49468192 -0.18546838 0.12766543 -1.0813034
0.7367962 -0.15097198 -0.14636256 0.3056368 -0.18034944 -0.14222075 0.5541227 -0.76018155
0.09163729 -0.9279308 -0.19871122 -0.11310694 -0.17984879 0.4962108 0.41997305 -0.024054164
-0.045739215 -0.104152665 0.75578445 0.18223055 -0.23491715 -0.14278388 -0.21320127 0.21939106
-0.3542299 0.00728247 0.21565722 -0.44668493 0.49594942 0.2667502 0.07355895 -0.20474568
-0.18703459 -0.19586895 -0.2263525 0.66856635 -0.53547335 0.16145565 -0.019365147 -0.17710131
0.38596773 -0.8968731 -0.016769342 -0.48718914 0.42714643 -0.28457755 -0.05838465 0.03999652
-0.41677862 0.10092681 -0.021220313 -0.16841029 0.2891485 -0.015854575 -0.3196348 -0.757968
0.9647316 0.04869236 -0.5955954 -0.7883729 0.17100963 -0.5253062 0.47039244 0.35206085
-0.052625544 1.576961 -0.13456026 0.8200005 -0.82795227 0.04216075 -0.10755837 -0.32840145
0.03366873 0.14791562 -0.20598179 -0.39339334 0.34156123 0.006440272 -0.39454728 -0.41436264
1.0639321 0.108134665 0.5268731 0.5698143 -0.32905686 0.4877355 0.35222003 -0.05525195
1.1298894 0.27224576 -0.66115284 0.39633247 0.45691663 -0.4369059 0.08165309 -0.05659311
0.12264167 0.29054788 0.10387636 0.046668272 -0.68390715 0.12363156 -0.2522084 -0.14649495
0.5164749 0.21026032 -0.047156364 -0.1860952 0.6637481 -0.6373997 0.23198254 -0.09801469
-0.02285166 0.10121305 0.16755527 0.32848626 -0.3032788 0.10604136 -0.18944064 -0.24474244
0.21927336 0.5315684 -0.23803608 -0.0625903 -0.19936284 0.56294495 -0.5306106 -0.08848823
-0.059950326 0.7887092 0.3254732 -0.01249692 -0.038846157 -0.023312822 0.5564245 -0.46172723
0.30868697 0.5327028 0.44800523 0.45726168 -0.10497795 0.5418038 0.2731777 -0.5975201
1.684545 0.26137534 -0.25563347 0.09732037 -0.14640719 0.11080588 -0.48454896 -0.3478784
-0.21370791 -0.6933313 0.5523371 0.113292836 0.1951324 0.01170784 -0.072460435 0.67011124
-0.10010867 1.1473471 -0.05476688 0.12163838 0.3015766 -0.9542363 0.34691745 0.067859724
0.59276533 -0.12602699 -0.016288128 0.5167007 0.93645054 -0.124037355 -0.7820477 0.9534676
-0.26014587 0.23304088 -0.09355351 0.121073954 -0.2230228 -0.1761411 0.5265838 -0.14519931
0.093413435 0.16361552 0.0808018 0.16397926 -0.89863104 0.31113288 -0.49316368 0.48060104
0.21371546 -0.7176509 0.7159913 -0.41088882 0.2913494 0.8066533 0.6483896 0.2981106
0.42758682 0.107489765 0.13236712 0.80888915 -0.09089476 0.022179585 -0.07461321 0.369372

features.prelu2.weight f4 [48]
00000000: 79bf bc3e d449 03be a283 bf3e d74e c63e
00000010: c437 cf3e f7d6 833f 460d ef3e 931e ca3e
00000020: 78a0 843e 57fd dd3e dc47 1dbe 9c97 ea3e
00000030: a3db 343f c287 2f3f f0da ccbd e91c 653f
00000040: d797 f33e e602 c13e 270d 443f 656f 773e
00000050: b565 0a3f f090 033f 9b52 2f3f c17c 053d
00000060: f0d8 523f 7e5e 913e 1bee 243f 909c 433e
00000070: a9aa 053f 9d01 433f 5ee6 473e db29 8a3e
00000080: 987e b43e da67 e43e 5774 de3e 6d63 e33e
00000090: 8d1d 213f 8b50 9a3e 5547 073f fb82 633e
000000a0: 012f b93e bac1 e63e 7d8d 383f 6ea3 cd3e
000000b0: cf41 0a3f 2a3c 113f c1a6 4f3f 1052 303f
0.36864832 -0.12821132 0.37405115 0.38732025 0.40472233 1.0299977 0.46689814 0.3947645
0.25903678 0.43357345 -0.15359443 0.45818794 0.7064764 0.68566525 -0.100026965 0.8949724
0.47576782 0.37697524 0.7658257 0.24163587 0.5406144 0.5139303 0.6848542 0.032589678
0.8236227 0.28392404 0.6442582 0.19102693 0.5221353 0.76174337 0.19521472 0.26985058
0.35252833 0.44610482 0.43448135 0.44411793 0.62935716 0.30139574 0.5284322 0.22217934
0.36168674 0.45069677 0.72090894 0.4016375 0.54006666 0.5673243 0.8111382 0.6887522

features.conv3.conv1.weight f4 [48, 1, 2, 2]
00000000: 3610 913e a168 603d e0aa a63d 862c d43c
00000010: 7ccb 70be 4d62 09be dcc0 b3bd 4233 7abd
00000020: cb15 3abe 5192 a1bb d349 24be 1c07 c8bd
00000030: be47 343d 6e80 8ebe 2348 5bbc b87f 2cbe
00000040: a403 1abe 9668 3f3b ba76 8cbe c077 b63a
00000050: 032b a0be 36c3 1dbe 5e44 783e 98cc 653d
00000060: 4d00 5f3e a011 543e 0e6c 1fbd 89e4 3fbb
00000070: ab58 a8be 28ec 5e3c e12e 2abd 65ec 633d
00000080: 13f1 a0be 264a 57bd dd60 b1bd 0214 ad3d
00000090: 36af 36be 6d6a a43e 12af 5ebe 0d67 ccbd
000000a0: a266 3fbd d6e2 abbd 8267 7dbe c407 42bd
000000b0: 3b32 01be 46dc 98be 3e26 693d b071 a83c
000000c0: ca46 26bc 2bd7 94bc f65d 04be d11a 2ebe
000000d0: 0054 97bd 0ab2 cabd 6a0e b4bc 9b6b 2abe
000000e0: 9dfd a6be 6769 f0bc 7722 4abd b098 b53c
000000f0: e2c8 123e 70b9 153e 59d6 363e 19e3 883d
00000100: 4597 f0be 8566 873d a5d7 bf3d 4bd3 b83d
00000110: 5c3c bb3e 8e1c d9bd 4020 e43c 5180 313d
00000120: 8bd3 42be 8e93 a3be c55b 9e3e d143 503d
00000130: 3a54 96bd c8be 1fbe b180 15be 52ea 39bd
00000140: beaf 25be 0ec4 25bd b9e3 1ebe 0730 7abd
00000150: c00d cebe 795f d0bc 5fcb 183e 5429 0c3d
00000160: f185 d53e 93a7 ecbb 8442 2abd 5872 d2bd
00000170: 8f25 5cbe 4f2e e2bd 6bad 0cbe a766 85bd
00000180: 6d01 633e 05f2 a53d fd6b 9dbe 0a14 08be
00000190: 9459 8ebd 0978 a1be 991c debd 9f12 03bd
000001a0: 83dd 203e d067 5abe ce5d f33e 442e 37be
000001b0: 5b12 8d3e ec9f 743d 2245 8b3d 0a72 97bc
000001c0: 0799 c23e 35aa 1f3e db14 e8bd f3ad dabd
000001d0: cadf 46bc 26a4 5abd 4a21 483e 77bb 3b3e
000001e0: 8f8d 513e 5ef2 31bd 4111 fd3c 11fb 583e
000001f0: a5ab 77be 4966 babe bff7 593e e034 853d
00000200: 4bb1 bb3e 3245 b53d a45f c2bd 44d3 83bb
00000210: 7c37 85be 7aa3 26be 559b 063d fee4 ab3d
00000220: 2f71 a1be 8672 813e a79a 92be e5b3 a33d
00000230: 5e92 323e be1d 043e 629b e43c 931f ba3d
00000240: a126 703e d967 4bbd 0ed8 d23c dcb2 e0be
00000250: b334 53be 7e3b 793e 566d 0fbe 1fbe c03e
00000260: b6e9 a83b d56c 043e 1d56 ccbe 9918 ecbc
00000270: f688 6b3e 267c 9f3d 376e ffbb f767 913c
00000280: 22b5 9c3e d893 6c3e 8c51 2fbe aad9 28be
00000290: 27d8 93bd b3e7 14be 22bb 0abe e750 0fbc
000002a0: c70f 5d3e 3d25 ff3d 47e5 843c 950e 0dbd
000002b0: dc1f 8b3e 0389 6a3e c36e 69be 7a59 98bc
000002c0: 1af4 c6bd 3585 9e3e abce 05be 8283 5c3d
000002d0: a0c1 8cbe 75bd 76bd 8bc5 af3c 7a78 a13d
000002e0: 361c e53d 8bae 1ebe 98b2 a53e 7d9f 8abd
000002f0: ab75 1fbe 61cd b4bd dd52 f1bd 207b aebd
0.2833268 0.054787282 0.081380606 0.025900137 -0.23515123 -0.13416405 -0.087770194 -0.06108404
-0.18172376 -0.0049307724 -0.16043787 -0.09766981 0.04401373 -0.2783236 -0.013383898 -0.16845596
-0.15040451 0.0029206625 -0.2743433 0.0013921186 -0.31282815 -0.15406498 0.2424483 0.05610332
0.21777458 0.20709848 -0.03892141 -0.0029280505 -0.32880148 0.013606109 -0.041548613 0.055645365
-0.31433925 -0.052560948 -0.08661053 0.08451082 -0.17840275 0.32112446 -0.21746472 -0.09980593
-0.046728738 -0.08392875 -0.24746516 -0.047370687 -0.12616818 -0.29855555 0.056921236 0.020562023
-0.010148713 -0.018169006 -0.12926468 -0.17002417 -0.073890686 -0.098972395 -0.02197953 -0.1664261
-0.32615367 -0.029347135 -0.049349274 0.022167534 0.14334443 0.1462152 0.17855205 0.066839404
-0.4699041 0.06611351 0.09367303 0.09024676 0.36569488 -0.106011495 0.02784741 0.043335263
-0.1902601 -0.31948513 0.3092939 0.050845925 -0.07340284 -0.15600121 -0.14599873 -0.04538948
-0.16180322 -0.040470175 -0.15516557 -0.06108096 -0.40244865 -0.02543615 0.1492133 0.0342191
0.41703752 -0.007222125 -0.04156734 -0.102757156 -0.21498702 -0.11043989 -0.13738029 -0.0651372
0.22168513 0.08102802 -0.3074645 -0.13288894 -0.069506794 -0.31536892 -0.10845298 -0.03200018
0.157095 -0.21328664 0.47532505 -0.17888743 0.27553067 0.059722826 0.068002954 -0.018486995
0.38007376 0.15592273 -0.11332103 -0.106777094 -0.012138316 -0.0533792 0.19543949 0.18333231
0.20464157 -0.04344403 0.030892016 0.21189524 -0.24186571 -0.36406162 0.21285914 0.06504226
0.366587 0.088510886 -0.09490898 -0.0040229876 -0.26018894 -0.16273299 0.03286298 0.08393286
-0.31531665 0.25282687 -0.28633615 0.079932965 0.17438647 0.1290197 0.027906124 0.090880536
0.23452236 -0.049659584 0.025737789 -0.4388646 -0.20625572 0.243391 -0.14006552 0.3764505
0.0051548136 0.12932141 -0.3990945 -0.028820323 0.23001465 0.07787351 -0.007795121 0.01774977
0.30606943 0.23103273 -0.17120951 -0.16489282 -0.07218962 -0.14541511 -0.13547948 -0.008747316
0.2158805 0.124582745 0.01622261 -0.034437735 0.27172744 0.22903828 -0.22796158 -0.018597353
-0.097145274 0.30961004 -0.13067119 0.053836353 -0.27491474 -0.060239274 0.0214565 0.07884307
0.111870214 -0.1549627 0.3236282 -0.06768701 -0.1557223 -0.088282354 -0.11783383 -0.08519578

features.conv3.pointwise.weight f4 [64, 48, 1, 1]
00000000: 550d 18bf e45a 033f 759f aabd d95a 31bf
00000010: 46bf ffbe 22f3 c33d a190 b73d 5820 e33e
00000020: 0fb1 bf3e 7f97 633e dc02 9b3d 9075 9bbc
00000030: 9eb5 7d3d 43a6 34bf 9f40 69be 3f1a d73c
00000040: aafd d7be f165 e3be 2734 053e b085 fdbd
00000050: 6d3a 5ebf d01f 443f 1114 9e3d 815a e73d
00000060: 9a0d 11be e573 0c3e 5dd6 3a3f d04f efbe
00000070: 7f53 793e 7f1b 4abe 522e 03be 062f ec3d
00000080: ea3b 54be 45d5 bc3d 2eac 3cbf 5a83 5dbe
00000090: c8d6 f7bd 9942 adbe 9929 8a3d bcd4 a8bc
000000a0: 295f 003e acc3 aebe f2bd 62bf 7f2f 573e
000000b0: f1ef 243f 3582 c13d 93c4 8c3e 28e9 82be
000000c0: fc10 dbbc f804 1cbd 4385 be3e 36ad b4be
000000d0: dda5 72bf 7d0b a7be a71f e9be e3f6 903e
000000e0: 75b1 b9bd ef75 323f 2b08 a2ba 8307 653e
000000f0: 585b 873e 9538 babe 1c74 f83e c9a8 5cbd
00000100: 1007 bcbd c0d0 0d3f 6a57 b7bd fc96 80be
00000110: f405 893e 7178 033f 2a6b be3e 3ef4 ecbd
00000120: f641 ad3d 3b14 26bf 96eb 9e3d b983 8f3e
00000130: d054 c4bd cfc8 4a3c fca8 1b3e bce1 b93e
00000140: 8a91 a43e 9c00 a83e fa9b a73c 8420 3fbf
00000150: d032 ae3e e7a9 e9bd 7cda 003e f776 8b3e
00000160: 2b1f 53be 5b4c a93e 4dfa 42bf 2dd5 dabe
00000170: aec2 823d 2a17 8abf 3d22 a83e 49c3 d4be
00000180: 8811 993e cb11 133f d529 263f df2e af3c
00000190: 9600 38bf 1eef 32be a7ef 2ebf f121 9c3c
000001a0: 7541 85be 7ade b7be 102c e6bc 8155 7c3f
000001b0: 938c bb3e 2d6d b73d 753b 033e 1f01 093f
000001c0: 7291 87bf bc2f 683e c317 d43d d275 c73d
000001d0: 9a6d 3f3c 2ec4 5e3e 426b c5be dc3e c53e
000001e0: 3235 8abf 5c9b 803d b702 d93e fb59 a43d
000001f0: dcfa 68bb a068 dd3e 69b6 50bf 75ba a83e
00000200: adab a83e ba20 07be 7b3b 623e 04f4 0abe
00000210: 644c 473f 5b3d 84bf 0d47 f9be 0262 e3be
00000220: 643f 913f 666f 883d 7717 36be 9630 24bf
00000230: 6b66 953e be11 9f3e 7a23 e1be 8eba f73d
00000240: c76e 3ebf 220d a83e 1033 b03e 2cde 6d3d
00000250: f4e6 143e fc8e 003f f3f0 953e b629 5cbf
00000260: 0cac 29bf d3af c93d a8c4 c33e fed7 03bf
00000270: 70ef c7bd 6401 803e 044d 8d3f 6549 3ebf
00000280: 74a7 1cbf 8154 d93e e185 323d 6047 893e
00000290: c7bc 0a3e 74da b43d 757b 28bd 538a e03d
000002a0: 9efb 003f 32f1 dbbe a4cc eebe f057 38be
000002b0: 789a 91be b775 0fbe 2235 17bf 1776 243f
000002c0: ce8a 973f 1a98 a5be e9fa 1abe 7bfb efbe
000002d0: 834f a13e b256 dbbe e814 223f c985 9a3e
000002e0: 4dee dabe 8c36 d9bd e2d7 813e e5fa a43e
000002f0: 0816 fc3e 11ac 29bf e1bd 893e 051a eabe
00000300: b7b2 d13e df82 f63e 2951 57bf 1fe4 edbe
00000310: 6c76 fcbe 1837 473f 8caf 96bf e75f bb3e
00000320: 6105 b83e 36e4 b43e 56f2 4e3d 97c2 ffbe
00000330: 826c d43e 2ee3 933c 8322 febd 4d91 993e
00000340: 0d79 87bf 4e56 e4be 46a6 39be d168 033f
00000350: 7108 8fbd 8c5c 013d a142 1bbf e573 1f3f
00000360: 39a8 803e 8c5c cfbe 24c6 f03d b015 bd3d
00000370: c6cc 15bf 1a6c 933d 78e1 fbbd d9d3 7cbf
00000380: e9d9 823f 773b a9be 3dab 9dbe 4391 aabe
00000390: 6273 c03d d6d7 3fbf 001c 073f f632 fb3e
000003a0: f5b6 06bf 7f44 f63d 8cb1 32be ae9c 99be
000003b0: eac8 e5be f4f2 ad3f acba 9cbe 6412 babd
000003c0: bcde 283f 3cca 523e 55d7 153e 67de 2dbf
000003d0: de5c 203f 5404 1abf 9317 a1bd af32 d8be
000003e0: 0ff5 af3f a92a 23bf 6ba2 963d 8033 76be
000003f0: 01e8 9cbe 7feb ad3e 2070 f73e 698b 513f
-0.59395343 0.51310563 -0.08331195 -0.6927925 -0.49950618 0.09567858 0.08963133 0.44360614
0.37439772 0.2222576 0.07568905 -0.018976957 0.06194078 -0.70566195 -0.22778557 0.026257632
-0.42185718 -0.44413713 0.13008176 -0.123790145 -0.868079 0.7661104 0.07718671 0.11296559
-0.14165345 0.13716085 0.7298334 -0.4674058 0.24348257 -0.19737051 -0.12810639 0.115324065
-0.2072598 0.092203654 -0.73700225 -0.21632138 -0.12101513 -0.33839872 0.067462154 -0.020609252
0.125363 -0.3413366 -0.88571084 0.21014212 0.6442862 0.09448663 0.27493724 -0.2556851
-0.026741497 -0.038090676 0.37211046 -0.352884 -0.9478434 -0.32625952 -0.4553196 0.2831336
-0.0906705 0.697112 -0.0012362053 0.22366147 0.26436877 -0.36371294 0.48526084 -0.053871904
-0.091810346 0.5539665 -0.0895222 -0.25115192 0.26762354 0.51355654 0.37191135 -0.11570023
0.08459847 -0.6487462 0.07759778 0.28030184 -0.09586489 0.012376978 0.15201181 0.36305034
0.32142287 0.32812965 0.020460118 -0.7465899 0.34023142 -0.114093594 0.12583345 0.272392
-0.20617358 0.33066067 -0.7616318 -0.42740765 0.063847885 -1.0788319 0.32838622 -0.4155524
0.29896188 0.57449025 0.6490758 0.021384655 -0.71875894 -0.17474028 -0.6833443 0.019059153
-0.26026502 -0.35911924 -0.028097183 0.9856797 0.36630687 0.089563705 0.1281565 0.53517336
-1.0591261 0.22674459 0.10356095 0.09739269 0.011683846 0.21754524 -0.38558394 0.3852452
-1.0797484 0.062796324 0.42384884 0.08024975 -0.0035549914 0.43243885 -0.81528336 0.32954755
0.32943478 -0.13196078 0.22093002 -0.13569647 0.7785094 -1.0331224 -0.4868702 -0.44410712
1.134747 0.066618726 -0.17782389 -0.64136636 0.291797 0.31068224 -0.4397238 0.12096129
-0.7438778 0.3282252 0.34413958 0.058073208 0.14541227 0.50218177 0.29285392 -0.86001146
-0.6627815 0.09847989 0.38235974 -0.5150145 -0.09762466 0.2500106 1.1039128 -0.7433074
-0.61193013 0.42447284 0.043584708 0.26812267 0.13548575 0.08830729 -0.041133363 0.10963883
0.5038394 -0.42957455 -0.46640503 -0.18002295 -0.28438163 -0.14009748 -0.5906545 0.6424269
1.1839235 -0.32342607 -0.15134777 -0.46871552 0.31505975 -0.4283958 0.6331315 0.30180195
-0.42759934 -0.10606107 0.25360018 0.32222667 0.49235559 -0.6627818 0.2690268 -0.45722976
0.4095666 0.48146722 -0.84108216 -0.46463105 -0.493091 0.7781844 -1.1772323 0.36596605
0.35941604 0.3533036 0.05052408 -0.49953148 0.41489035 0.018052664 -0.12408926 0.29993668
-1.0583817 -0.44597095 -0.18129835 0.5133181 -0.06984032 0.0315824 -0.6064854 0.62286216
0.25128344 -0.40500295 0.11756542 0.09232652 -0.58515584 0.07198353 -0.12298864 -0.98760754
1.0222751 -0.3305318 -0.30794707 -0.3331395 0.093970075 -0.74938715 0.527771 0.49062318
-0.5262292 0.12024783 -0.17450541 -0.3000235 -0.44879848 1.3589768 -0.3061117 -0.09085539
0.65964866 0.20584959 0.14632924 -0.67917484 0.62641704 -0.60162854 -0.078658246 -0.4222617
1.3746661 -0.6373697 0.073551975 -0.24043083 -0.30645755 0.33968732 0.48327732 0.8185335

features.prelu3.weight f4 [64]
00000000: 364b 613e f8d9 5c3e 4bef 793d 727c f6bd
00000010: c210 343d 0b0c a63b 0439 2abd 73ee 533c
00000020: abb8 253e b3de 8bbd 4619 dcbd 17f8 043c
00000030: 9718 be3e c2bd 143d 83be 453e aa4f 5c3c
00000040: e89e 8f3d 851f 963d bc6a a13d 51b0 893e
00000050: 0fe2 9f3c 57d9 66bc 957c ed3e 623e 23be
00000060: c900 8cbe f481 823c 6148 3e3e 3474 9e3e
00000070: 5154 443e 9010 873e 2705 92bb 226f 3c3e
00000080: 73c2 75be d776 90bd 39bf b93b fd91 833d
00000090: 0f85 bb3e d399 a93d aba9 a13e 0a92 873d
000000a0: 145c 1ebe 5590 68bd 8b6c 2c3f 212f b53e
000000b0: 389d cc3d df2e 4f3e 84c6 0fbe e632 62bd
000000c0: a147 c43b 1fea efbb b589 ad3c d731 f2bc
000000d0: d527 cd3d 62b5 c2bd 387f 9d3e 1147 81bd
000000e0: 94d7 fbbd bb9c 163d 1073 0e3e 1676 073e
000000f0: dd5b a53e b8ae 0fbe ebcf 113c 7d1e 3b3e
0.22001347 0.21567523 0.061019223 -0.12035455 0.043961294 0.0050673536 -0.04155828 0.012935269
0.16183726 -0.06829586 -0.10747008 0.00811579 0.37128136 0.03631378 0.19310956 0.013446728
0.07012731 0.073302306 0.07881686 0.2689233 0.019516973 -0.014089904 0.4638411 -0.15941766
-0.2734435 0.015931107 0.18582298 0.3094803 0.19172789 0.26379824 -0.0044561806 0.18401769
-0.23999958 -0.07053917 0.0056685475 0.064243294 0.36624953 0.08281293 0.3157476 0.066196516
-0.15464813 -0.05677827 0.67353123 0.3538752 0.099909246 0.20232724 -0.14040571 -0.05522432
0.005989984 -0.0073216106 0.021183828 -0.029564781 0.10017363 -0.09507252 0.30761123 -0.06312383
-0.12296978 0.036770564 0.1391108 0.1322864 0.3229665 -0.14031494 0.008899669 0.18273349
