prediction/prediction_KeyPoint/weight_P/model_152_0.13011982.pth (torch_old, 36767 bytes, 19 tensors)

features.conv1.weight f4 [10, 10, 3, 3]
0	0x3e6722ef	0.2257192
1	0x3d1e9ef5	0.038725812
2	0xbe7088fc	-0.23489755
3	0xbd9f7534	-0.077860266
4	0x3eea56ad	0.45769253
5	0x3e61373d	0.21993728
6	0xbded991b	-0.11601468
7	0xbe532078	-0.20617855
8	0x3f24805e	0.6425837
9	0xbdb87dce	-0.0900837
10	0xbe0d2fc0	-0.13787746
11	0xbc5ea0eb	-0.0135881705
12	0x3d048205	0.03235056
13	0xbe0bc6f7	-0.13650118
14	0xbe0b932c	-0.1363036
15	0x3de03ce9	0.10949118
16	0xbd89bb11	-0.06725133
17	0xbd1d26f1	-0.038367216
18	0xbe48835c	-0.1958136
19	0xbe1f1c1a	-0.15538064
20	0x3e23944c	0.1597454
21	0xbe3b9788	-0.18319523
22	0xbc770f07	-0.015079266
23	0xbe1c864e	-0.15285608
24	0xbe605789	-0.21908392
25	0xbe329593	-0.1743987
26	0xbc05e7b1	-0.008172915
27	0x3d970364	0.073736936
28	0x3ec6a340	0.38796425
29	0x3e7ca165	0.24670942
30	0xbe9405c5	-0.28910652
31	0x3e875084	0.26428616
32	0x3e4e881e	0.20169112
33	0xbe6bec14	-0.23039275
34	0xbee771e8	-0.4520409
35	0x3eb3d3cc	0.35122526
36	0x3e21a2b0	0.15784717
37	0x3e9f98e5	0.31171337
38	0xbe3d0782	-0.18459895
39	0x3e950600	0.2910614
40	0x3d2a66bc	0.04160188
41	0x3debcac4	0.11513284
42	0xbdafab93	-0.08577647
43	0xbe93e03a	-0.2888201
44	0x3efa1ffc	0.48852527
45	0xbea3a4e0	-0.31961727
46	0xbea2499d	-0.31696787
47	0xbe4977c6	-0.19674596
48	0xbe617a63	-0.22019343
49	0xbedc3751	-0.43010953
50	0xbed4d09f	-0.41565415
51	0xbe38362e	-0.17989418
52	0xbeab92bc	-0.33510387
53	0xbf002016	-0.5004896
54	0xbb00e02e	-0.0019664872
55	0x3e1c1425	0.1524206
56	0x3e12592a	0.14291826
57	0x3e0620cb	0.13098447
58	0x3d2c6a39	0.04209349
59	0x3e93f17b	0.28895172
60	0x3e242147	0.1602832
61	0xbde39016	-0.111114666
62	0x3df74755	0.120741524
63	0x3d8b1411	0.06790937
64	0xbe5e6f34	-0.21722108
65	0xbe891896	-0.2677657
66	0xbeaffd0e	-0.34372753
67	0xbd14e229	-0.036348496
68	0xbe08d0ac	-0.13360852
69	0xb9e0e45e	-0.00042894756
70	0xbe19b997	-0.15012203
71	0x3e399a21	0.18125202
72	0xbe80bb13	-0.25142726
73	0xbe72a667	-0.2369629
74	0xbe8a769c	-0.27043617
75	0x3ccce8fb	0.025013437
76	0xbe9992a8	-0.29994702
77	0xbeb53048	-0.35388398
78	0x3e264c5e	0.1624007
79	0x3e9f05d0	0.31059122
80	0xbf74196b	-0.95351285
81	0xbda042eb	-0.078252636
82	0xbe3ad52c	-0.18245381
83	0x3e94c356	0.2905528
84	0x3e6de926	0.2323347
85	0xbd5e2da7	-0.054242756
86	0xbe3d935a	-0.18513241
87	0x3c831d4d	0.016005183
88	0x39c8b652	0.00038282812
89	0x3c5b0181	0.013367058
90	0x3ea3a086	0.31958407
91	0xbf251ac2	-0.64493954
92	0x3dd18c5d	0.1023185
93	0x3e8f0cd4	0.27939475
94	0xbce4d402	-0.027933124
95	0x3e75a313	0.23987989
96	0x3dda571f	0.10661148
97	0x3e1ff82c	0.15622014
98	0x3e469e22	0.1939626
99	0x3e2db844	0.16964823
100	0x3e07f3f2	0.13276652
101	0x3e860282	0.26173788
102	0xbe3daf39	-0.18523873
103	0x3e4ff9c9	0.20310129
104	0xbb1da9ec	-0.002405758
105	0x3e29fd4b	0.1660053
106	0xbca96c72	-0.020681594
107	0x3e31eede	0.17376277
108	0xbd2137be	-0.0393598
109	0xbe022700	-0.1271019
110	0xbe444d99	-0.19170226
111	0xbe0b791b	-0.13620417
112	0xbe6dac5e	-0.23210284
113	0xbe82aa36	-0.25520486
114	0x3b6c6459	0.0036070554
115	0xbed6f09f	-0.41980454
116	0xbcf8cbc4	-0.0303706
117	0xbd88a732	-0.06672515
118	0xbe9971fb	-0.29969773
119	0x3e519c84	0.20469862
120	0xbe77a6d7	-0.24184738
121	0xbeb93272	-0.361713
122	0xbd3b8093	-0.045776915
123	0xbe291da1	-0.16515209
124	0xbefae8cd	-0.49005738
125	0xbdf461c3	-0.11932709
126	0x3de26355	0.11054102
127	0x3e3fec89	0.18742575
128	0x3f2bbe7e	0.67087543
129	0xbe900a3f	-0.28132817
130	0xbed8a460	-0.42312908
131	0x3f8cdd63	1.1005062
132	0x3f2cfee7	0.6757645
133	0x3ec2e71f	0.38066956
134	0x3f713033	0.9421417
135	0xbdbd70e4	-0.09250048
136	0xbe4976ee	-0.19674274
137	0x3de3aab5	0.11116544
138	0xbd1ab13f	-0.03776669
139	0x3cb967ab	0.02263244
140	0x3db99cc2	0.09063102
141	0x3cd290f1	0.02570388
142	0x3df46695	0.119336285
143	0x3e5de2f3	0.21668606
144	0xbe3474b1	-0.17622639
145	0xbd7e2cfa	-0.06205461
146	0x3e94d332	0.2906738
147	0xbdddfc3c	-0.108391255
148	0xbe38b97b	-0.18039505
149	0x3e1846ec	0.14870805
150	0x3d97e094	0.07415882
151	0x3e973266	0.29530638
152	0x3d7df390	0.061999857
153	0x3ec7e467	0.39041445
154	0xbdba3f17	-0.09094065
155	0x3eb828b6	0.3596856
156	0xbdc9d279	-0.098545976
157	0x3eec988f	0.46210143
158	0x3f34b33b	0.70585984
159	0xbe5083a1	-0.20362712
160	0xbebd428b	-0.3696483
161	0x3e88495b	0.26618466
162	0x3d64b09f	0.0558325
163	0xbdec537e	-0.11539362
164	0x3e03f3d9	0.12885989
165	0xbdd8c65a	-0.105847076
166	0xbdb09b3a	-0.08623357
167	0xbcc70986	-0.024296533
168	0xbde366f9	-0.11103625
169	0xbe94b866	-0.29046935
170	0x3ec1fcb5	0.37888113
171	0x3e0bf032	0.13665846
172	0xbd80580d	-0.06266794
173	0xbc8c6b19	-0.017140912
174	0x3dd7bf28	0.10534507
175	0xbd463254	-0.04838784
176	0xbe7b91f0	-0.2456739
177	0xbe6cc53f	-0.23122118
178	0xbd7af896	-0.061272226
179	0x3d6d7ad1	0.057978455
180	0x3de85c83	0.1134577
181	0x3e3396d6	0.17538008
182	0xbd899e9d	-0.06719706
183	0xbea1ce0a	-0.31602508
184	0x3d21316c	0.039353773
185	0xbe71ea8a	-0.23624626
186	0xbea10a41	-0.31453136
187	0x3ee4adb7	0.44663784
188	0xbeb0162d	-0.3439192
189	0x3e086e88	0.13323414
190	0xbed69eb3	-0.41917953
191	0x3db102c8	0.086431086
192	0xbd28ff5d	-0.04125916
193	0x3d80f4af	0.0629667
194	0xbc2e0736	-0.010621836
195	0x3d822309	0.06354339
196	0xbf477ab8	-0.7792163
197	0x3c7b8d0e	0.015353454
198	0xbe3162f1	-0.173229
199	0xbcbd60ce	-0.02311745
200	0xbe1545e5	-0.14577444
201	0xbe083bc8	-0.13304055
202	0xbea325b8	-0.31864715
203	0xbe3a1707	-0.18172847
204	0xbd8e9c8b	-0.06963452
205	0xbe8f4f13	-0.27990016
206	0xbdc40391	-0.09570993
207	0x3c032256	0.008003792
208	0xbe8e9622	-0.27848917
209	0x3de96021	0.11395288
210	0x3d706b27	0.05869594
211	0xbe51c3a7	-0.20484792
212	0xbdc4431a	-0.09583111
213	0x3df2503d	0.118317105
214	0xbecb5d66	-0.39719695
215	0x3d8d290a	0.06892593
216	0x3f6758e0	0.9036999
217	0xbf22d61e	-0.63607967
218	0x3f25e79e	0.64806545
219	0x3f955041	1.1665117
220	0xbf845577	-1.0338582
221	0x3fab7113	1.3393883
222	0x3f9768a9	1.1828815
223	0xc0289406	-2.6340346
224	0x3f7d919e	0.9905032
225	0x3b8eb33d	0.004354863
226	0xbcff2ae4	-0.031148382
227	0x3b62f4b8	0.0034630727
228	0x3c4c788a	0.012479911
229	0xbdffa3bb	-0.12482401
230	0xbd73f5c3	-0.05956055
231	0x3d003084	0.031296268
232	0x3d602ff1	0.05473322
233	0xbe2f6e17	-0.1713184
234	0xbe98b4e3	-0.29825506
235	0x3e9be0c9	0.30444935
236	0xbeb4d14a	-0.35315925
237	0xbd72a7aa	-0.05924193
238	0xbde8619c	-0.113467425
239	0x3e06df7a	0.13171187
240	0xbe364f1b	-0.17803614
241	0x3f1c2447	0.60992855
242	0xbec5e8a0	-0.3865404
243	0xbda47206	-0.08029561
244	0x3e816f84	0.25280392
245	0x3bfe60e6	0.007763016
246	0x3d9c8bec	0.076438755
247	0x3e3a66de	0.18203303
248	0xbc4b3052	-0.012401657
249	0xbf0e7b6b	-0.5565707
250	0x3e5218fc	0.20517343
251	0xbf09d715	-0.53843814
252	0x3e516b9d	0.20451207
253	0xbe16b6ac	-0.14718121
254	0x3dbe24b8	0.09284347
255	0x3ee1f2fc	0.44130695

features.conv1.bias f4 [10]
0	0x3e9926a6	0.299123
1	0x3f2fd9e2	0.6869184
2	0xbeff1efe	-0.49828333
3	0x3f28c188	0.65920305
4	0x3e3c6829	0.18399109
5	0x3e6dd7be	0.2322683
6	0xbe67209f	-0.22571038
7	0x3ddb2428	0.10700256
8	0xbf0348cb	-0.5128295
9	0x3edf96d0	0.43669748

features.prelu1.weight f4 [10]
0	0x3ecd744d	0.40127793
1	0x3ed286eb	0.4111856
2	0x3dc0aa6b	0.09407505
3	0x3efba122	0.49146372
4	0x3e10edac	0.14153165
5	0x3e47bfc5	0.19506748
6	0x3f5c0754	0.8594868
7	0x3e7401b2	0.23828772
8	0x3ebc4e2a	0.36778384
9	0x3e8ac4ac	0.27103174

features.conv2.weight f4 [16, 10, 3, 3]
0	0x3e543721	0.20724155
1	0x3e8e7df8	0.27830482
2	0x3de11a1b	0.10991307
3	0xbb06b8ae	-0.0020556855
4	0xbcc6b1d7	-0.024254723
5	0x3e22c5ef	0.15895818
6	0xbeaffb15	-0.34371248
7	0x3e6a5649	0.22884478
8	0x3e9b08b4	0.30280077
9	0xbf23ca25	-0.63980323
10	0xbec6fb10	-0.3886342
11	0xbdf17f89	-0.117919035
12	0x3e29f0bc	0.16595739
13	0x3d6564b0	0.056004226
14	0xbdd48211	-0.10376371
15	0x3d910d5c	0.07082626
16	0x3e6d8b46	0.2319766
17	0x3e1b040f	0.15138267
18	0xbe490001	-0.19628908
19	0xbd201b4b	-0.03908853
20	0x3e87ed8c	0.2654842
21	0x3e885410	0.26626635
22	0xbc58df8b	-0.013236891
23	0xbe93fc64	-0.28903496
24	0xbe059c8c	-0.13047999
25	0xbd86efd4	-0.06588712
26	0xbe8cd3be	-0.27505296
27	0x3e1f62c4	0.1556502
28	0xbe91e96f	-0.28498408
29	0xbdc0fc62	-0.09423138
30	0x3e24a080	0.16076851
31	0xbdb0f352	-0.0864016
32	0xbec229b5	-0.37922445
33	0xbd3138e7	-0.043267157
34	0xbe0f4d65	-0.13994367
35	0xbeb43ea2	-0.35204035
36	0xbe84d2bd	-0.2594203
37	0xbede299e	-0.43391126
38	0xbe260159	-0.16211452
39	0xbe7ebf84	-0.24877745
40	0xbec6c775	-0.3882405
41	0xbd71c6ce	-0.059027486
42	0xbea114eb	-0.31461272
43	0xbdd015eb	-0.101604305
44	0xbea72a22	-0.32649332
45	0x3e1a278e	0.15054151
46	0xbd0b9f4c	-0.034087464
47	0x3d762060	0.06008947
48	0xbe6500e4	-0.22363621
49	0x3e37aea7	0.17937718
50	0xbd01fb42	-0.03173376
51	0x3c6ab243	0.0143247275
52	0x3e749c34	0.23887712
53	0x3ea8dd0c	0.32981145
54	0x3ef189e8	0.47175527
55	0x3e312556	0.17299399
56	0x3e8332d6	0.25624722
57	0xbc763a9e	-0.015028624
58	0xbc1f81fd	-0.009735581
59	0x3e5cd2d6	0.21564803
60	0xbe86e28a	-0.2634471
61	0x3e27c68b	0.16384332
62	0xbebeb821	-0.37249854
63	0x3f25dd9e	0.64791286
64	0x3f01bf9c	0.50683
65	0x3e840f9b	0.25793156
66	0x3e947f7d	0.29003516
67	0xbcfc12f5	-0.030770758
68	0x3b7ca107	0.0038548128
69	0x3e837112	0.25672203
70	0x3da658d3	0.081224106
71	0xbc6c7c11	-0.014433877
72	0x3ef61031	0.48059228
73	0xbe7bc791	-0.24587847
74	0x3e8e6dc9	0.27818134
75	0xbd1baf24	-0.038008824
76	0x3d973685	0.07383446
77	0x3db52f48	0.08846909
78	0x3ca30255	0.019898573
79	0xbe51ccf4	-0.2048834
80	0xbdaa0fe1	-0.0830381
81	0xbe4b2099	-0.19836654
82	0x3d544056	0.051819168
83	0x3da2544a	0.07926233
84	0xbda2bfd0	-0.079467416
85	0x3ec83549	0.39103153
86	0x3ea38ffd	0.31945792
87	0xbe5e3b29	-0.21702255
88	0x3e04bc21	0.1296239
89	0x3ed09a44	0.40742695
90	0x3da606dc	0.08106777
91	0xbec814d2	-0.39078385
92	0x3d142f6d	0.03617804
93	0xbcecfc0a	-0.028928775
94	0xbdf42b86	-0.11922364
95	0xbe06faf0	-0.13181663
96	0x3f25f758	0.6483054
97	0x3e55b1f4	0.20868665
98	0xbeb72739	-0.35772112
99	0x3f1d12c3	0.61356753
100	0x3e482e79	0.19548978
101	0x3ec22b50	0.3792367
102	0xbe2d0f8a	-0.16900459
103	0xbed0ff95	-0.40819994
104	0x3d893d93	0.067011975
105	0x3ee9ee36	0.45689553
106	0xbcbc09f2	-0.022953961
107	0x3e77c001	0.24194337
108	0xbe9ab953	-0.30219516
109	0x3ef8c8fe	0.48590845
110	0xbe643c61	-0.22288658
111	0x3fa8103b	1.3129953
112	0xbee054db	-0.4381474
113	0x3e83fb2a	0.2577756
114	0xbecf845c	-0.4053067
115	0x3ec14366	0.37746733
116	0x3f362bfc	0.71160865
117	0xbedb9db0	-0.42893744
118	0x3da0e9fd	0.0785713
119	0x3e0de2da	0.13856068
120	0x3e4dcebf	0.20098399
121	0x3e8d7d46	0.2763464
122	0x3e556130	0.20837855
123	0xbe50d31c	-0.20393032
124	0x3ecbdc40	0.39816475
125	0x3f0f26e8	0.5591874
126	0xbe7b973c	-0.2456941
127	0x3db2d3a6	0.08731775
128	0xbecf282c	-0.40460336
129	0x3f2c54b2	0.67316735
130	0x3f0954d1	0.53645045
131	0x3f0f52f1	0.55985934
132	0x3e5bad20	0.2145276
133	0xbde306c6	-0.11085276
134	0x3e30214c	0.17200202
135	0xbcab0bc2	-0.02087963
136	0x3e796e58	0.24358499
137	0x3f033ec7	0.51267666
138	0x3db52fa2	0.08846976
139	0xbd0471b1	-0.032334987
140	0x3dcdecfd	0.100549676
141	0x3a08fc06	0.00052255427
142	0xbe94a701	-0.29033664
143	0x3da0da7b	0.07854172
144	0x3ee70e31	0.45128015
145	0x3d9605b5	0.07325307
146	0x3ef7d19e	0.48402113
147	0xbe768ecc	-0.2407791
148	0xbf797b5e	-0.9745387
149	0xbe51cb81	-0.20487787
150	0x3f44a6b0	0.76816845
151	0xbe7a0ce3	-0.24418978
152	0x3f142da7	0.5788216
153	0xbe0b9f0a	-0.13634887
154	0x3ded33c9	0.11582143
155	0xbed96742	-0.42461592
156	0xbceffd26	-0.029295515
157	0xbef16fe7	-0.47155687
158	0xbe20e2e1	-0.15711547
159	0x3e18df44	0.14928919
160	0xbe9dd89d	-0.30829325
161	0x3e6c1312	0.2305415
162	0xbddd4acb	-0.10805281
163	0x3f2a8c04	0.66619897
164	0xbdc11a9b	-0.09428903
165	0x3e0e679b	0.1390671
166	0x3ea7ab04	0.32747662
167	0x3ef369a5	0.47541538
168	0x3e769f56	0.2408422
169	0x3ecfc837	0.4058244
170	0x3e7bbfe6	0.24584922
171	0xbdc6bfa3	-0.097045206
172	0xbe065b53	-0.13120775
173	0x3ecd7aa0	0.40132618
174	0x3e4af3fa	0.19819632
175	0xbe371cbd	-0.17882057
176	0xbeb5ef0d	-0.35533944
177	0xbc5b9628	-0.013402499
178	0xbe1cadc0	-0.15300655
179	0xbec3a31a	-0.38210374
180	0xbd2e311a	-0.042527296
181	0x3caf2bfe	0.021383282
182	0xbe7b6676	-0.24550804
183	0x3e193da5	0.14964922
184	0x3de812f4	0.1133174
185	0x3e937d94	0.28806746
186	0xbd3737f4	-0.044731095
187	0x3bf0d687	0.0073497924
188	0xbe0217c0	-0.12704372
189	0x3e436860	0.19082785
190	0x3e3ef829	0.18649353
191	0x3d8a94d6	0.067666695
192	0xbd8dfe27	-0.06933241
193	0x3e321cf2	0.17393854
194	0xbc2f8f7b	-0.010715361
195	0x3b25dddb	0.0025309238
196	0x3d4d703b	0.05015586
197	0x3e24ed78	0.16106212
198	0xbe2c83ff	-0.16847228
199	0xbe730f0b	-0.23736207
200	0xbd6a5bf5	-0.057216603
201	0x3e39578e	0.18099806
202	0x3df43f55	0.11926142
203	0xbc641c22	-0.013922723
204	0xbe867ce5	-0.26267162
205	0x3e09531f	0.13410614
206	0x3df9c157	0.1219508
207	0xbeb22964	-0.34797204
208	0x3e956637	0.29179546
209	0x3e6dbe77	0.23217188
210	0xbebcb273	-0.36854896
211	0x3d3827ec	0.044959947
212	0xbbdff0fc	-0.0068341475
213	0xbea79fb6	-0.32739037
214	0xbcc685a2	-0.024233643
215	0x3def4e5e	0.11684869
216	0xbe7b1f4d	-0.24523659
217	0xbdd321de	-0.10309194
218	0x3eb27790	0.34856844
219	0xbe09b4eb	-0.13447921
220	0xbe69c8ed	-0.22830553
221	0xbdc1c571	-0.09461487
222	0x3e0ccd92	0.13750294
223	0x3d3de6b0	0.04636258
224	0xbd51a206	-0.05117991
225	0xbc67030e	-0.014099849
226	0x3e3ee342	0.1864138
227	0xbe8de181	-0.27711108
228	0x3df08dc6	0.11745791
229	0x3e2f889b	0.17141955
230	0xbe333f32	-0.17504576
231	0x3e23c432	0.15992811
232	0x3e31db64	0.17368847
233	0xbded99b9	-0.11601586
234	0x3ebd184e	0.36932606
235	0x3dda3192	0.10653986
236	0xbfc23ddb	-1.5175127
237	0x3dd2bcbd	0.10289905
238	0x3dadae43	0.084805034
239	0x3e176086	0.14782915
240	0x3f14dc87	0.58149
241	0xbd634255	-0.05548318
242	0xbc06a814	-0.008218784
243	0x3e55a0b3	0.20862083
244	0xbe4bd10a	-0.19903961
245	0x3e59292d	0.21207114
246	0xbd275448	-0.04085186
247	0xbcc1da81	-0.023663761
248	0xbe518338	-0.20460212
249	0x3d2a505c	0.041580543
250	0x3e807852	0.25091797
251	0x3c4eafda	0.0126151685
252	0x3eb52213	0.3537756
253	0xbd991791	-0.07475198
254	0x3e50a75e	0.20376346
255	0xbdd2d27e	-0.102940544

features.conv2.bias f4 [16]
0	0xbebd6483	-0.36990747
1	0xbf1ede08	-0.6205754
2	0x3ef670aa	0.4813283
3	0x3e839cb2	0.25705487
4	0xbe8fcfd9	-0.28088263
5	0xbea0cd85	-0.314068
6	0x3ea9532b	0.33071265
7	0xbd783f90	-0.060607493
8	0xbf210f3f	-0.6291389
9	0xbef48d2e	-0.47763962
10	0xbd929b9d	-0.07158587
11	0xbd8f8c32	-0.07009162
12	0x3d7b3979	0.061334107
13	0xbe7f2b42	-0.24918845
14	0x3d9c42c8	0.07629925
15	0xbdaed1ac	-0.085360855

features.prelu2.weight f4 [16]
0	0x3f015d9c	0.5053346
1	0x3b360b62	0.002777778
2	0x3e9a44c7	0.30130598
3	0x3e084c1e	0.13310286
4	0x3eb46635	0.35234228
5	0x3efedbd6	0.49777097
6	0xbe6c8b5e	-0.2310004
7	0x3f1e2182	0.6176988
8	0x3ef6e99b	0.48225102
9	0x3e5ce5b2	0.21571997
10	0x3f01ef69	0.50755936
11	0x3cffb5eb	0.031214675
12	0x3eb21db5	0.3478829
13	0x3ec7bb3b	0.39010033
14	0x3d6d81cf	0.057985123
15	0x3e89adc7	0.26890394

features.conv3.weight f4 [32, 16, 3, 3]
0	0x3ecd4c36	0.40097207
1	0xbe997e19	-0.29979017
2	0x3ea84a6b	0.32869276
3	0x3e6a98cd	0.22909851
4	0x3cc798a3	0.024364775
5	0xbe2534b5	-0.16133387
6	0xbd898ffb	-0.06716915
7	0x3e920d60	0.2852583
8	0xbf050768	-0.51964426
9	0xbf2235d3	-0.6336338
10	0xbe58a4ed	-0.21156664
11	0xbf2c96d8	-0.6741767
12	0xbf5d52e4	-0.86454606
13	0xbf0d7062	-0.5524961
14	0xbeb112e9	-0.3458474
15	0xbf95189f	-1.1648139
16	0xbe3ac516	-0.18239245
17	0xbe6b3994	-0.22971183
18	0x3f18e9d1	0.59731776
19	0x3e3c4340	0.18385029
20	0x3ed4f753	0.41594943
21	0xbe3a92b3	-0.18220024
22	0xbe0746a0	-0.13210535
23	0xbea01d89	-0.31272534
24	0xbe7257e5	-0.23666342
25	0x3eba517d	0.36390296
26	0xbd926e37	-0.07149928
27	0x3dba4a17	0.09096163
28	0xbd1fad12	-0.038983412
29	0x3d4d6bac	0.050151512
30	0xbe36a880	-0.17837715
31	0xbe7c534d	-0.24641152
32	0x3d1b4d15	0.037915308
33	0x3f52fc8f	0.82416624
34	0xbeec8d12	-0.46201378
35	0xbe058800	-0.13040161
36	0xbf20c271	-0.62796694
37	0x3e83a8f4	0.25714839
38	0xbf16d4a3	-0.5891821
39	0xbf860a17	-1.0471829
40	0x3ebe608c	0.37183034
41	0x3e1bc013	0.15209989
42	0x3c62ec7f	0.01385033
43	0xbe3d433e	-0.18482682
44	0x3fbc2628	1.4699144
45	0xbf881459	-1.063121
46	0xbe72460b	-0.23659532
47	0xba3f3a8f	-0.00072947977
48	0x3dd8ffdb	0.105956756
49	0x3e6d0b8d	0.23148938
50	0xbef698ba	-0.48163396
51	0xbeb3ff92	-0.35155922
52	0x3d9697f6	0.07353203
53	0x3e8f3090	0.27966738
54	0x3d900085	0.07031349
55	0x3d916e5a	0.07101126
56	0x3e0a5893	0.13510351
57	0x3d7e66f9	0.06210992
58	0xbc05da26	-0.008169686
59	0x3d96a529	0.073557205
60	0xbcbef29a	-0.02330904
61	0x3d8f47aa	0.06996091
62	0xbd7fef6c	-0.06248419
63	0xbdcac236	-0.09900324
64	0xbebe8165	-0.37208095
65	0x3ec61197	0.38685295
66	0xbf4cb252	-0.79959595
67	0x3e08c817	0.13357578
68	0x3e4bbc9c	0.19896168
69	0xbe3b7ce3	-0.18309359
70	0x3edf4186	0.43604678
71	0x3f199c77	0.6000437
72	0x3e517c10	0.20457482
73	0x3d1f7252	0.038927384
74	0xbd8f9ad3	-0.07011952
75	0x3d28f8c3	0.041252863
76	0xbd586d9a	-0.0528389
77	0xbe284616	-0.16432986
78	0x3f2c1f5c	0.6723535
79	0xbd8b510b	-0.06802567
80	0x3e42d37e	0.1902599
81	0x3b4da3c0	0.003137812
82	0x3e960885	0.29303375
83	0xbb2e2931	-0.0026574845
84	0xbc463de7	-0.01209972
85	0xbd6d99b8	-0.058007926
86	0xbe9ef5be	-0.3104686
87	0xbd637ccc	-0.055538937
88	0x3e349348	0.17634308
89	0x3e3700f9	0.17871465
90	0x3e83b163	0.25721273
91	0xbe8a7d61	-0.27048782
92	0x3e07b3db	0.13252203
93	0xbf0c709f	-0.54859346
94	0xbdebcde2	-0.115138784
95	0x3e3ae626	0.18251857
96	0xbdc2b742	-0.0950761
97	0xbd9a7d8c	-0.075434774
98	0x3edc08a4	0.42975342
99	0xbe96e4b1	-0.29471353
100	0xbdbab47f	-0.09116458
101	0xbe586901	-0.21133806
102	0xbe63a115	-0.22229417
103	0xbccfec83	-0.025381332
104	0x3e166533	0.14687042
105	0xbe28ea2d	-0.16495581
106	0xbbb7b354	-0.0056060944
107	0xbe5613b3	-0.20905952
108	0x3e4c1c96	0.1993278
109	0x3e2f7ba9	0.17137016
110	0xbf85aaad	-1.0442711
111	0x3e5c45a1	0.21510936
112	0xbdae665d	-0.08515618
113	0xbeeb2079	-0.45923212
114	0xbc6580cd	-0.014007759
115	0xbe508b56	-0.20365652
116	0x3ee1a7a3	0.4407321
117	0x3f5c4f42	0.8605844
118	0x3e326d50	0.17424512
119	0x3ee456ec	0.44597566
120	0xbe1a32f4	-0.150585
121	0xbce4e709	-0.027942197
122	0x3d3b231c	0.04568778
123	0xbc463430	-0.012097403
124	0x3bd45063	0.0064793094
125	0x3c8846d9	0.016635345
126	0xbcd81f3e	-0.026382085
127	0xbe1b1b3f	-0.15147112
128	0x3ce1ca6e	0.027562346
129	0xbd30be64	-0.04315032
130	0x3b500e23	0.0031746707
131	0xbda0cb98	-0.078513324
132	0xbea57ece	-0.32323307
133	0xbe94e3d3	-0.29080066
134	0xbddbdcba	-0.107354596
135	0xbd891b4b	-0.06694659
136	0xbdba4c28	-0.09096557
137	0xbdc70c78	-0.09719175
138	0xbda1637e	-0.07880305
139	0xbe60143d	-0.2188272
140	0xbe2a7a69	-0.16648258
141	0xbe2dee17	-0.16985355
142	0x3e51db69	0.20493855
143	0xbe116980	-0.14200401
144	0x3ebf9178	0.3741567
145	0xbe5faec0	-0.21844006
146	0xbeb50d78	-0.35361838
147	0xbf3484cf	-0.7051515
148	0xbf17c1f6	-0.59280336
149	0xbd40516d	-0.046952654
150	0x3d14a0fb	0.036286335
151	0xbecd00b5	-0.40039602
152	0xbece680e	-0.40313762
153	0x3e587848	0.21139634
154	0xbda21e59	-0.079159446
155	0xbe9be6f6	-0.30449647
156	0x3d866184	0.065615684
157	0x3dce08d4	0.100602776
158	0xbd3dfe72	-0.046385236
159	0x3dca1665	0.09867553
160	0x3e29369b	0.16524737
161	0xbd381a2d	-0.04494684
162	0xbf29c6ae	-0.66318786
163	0xbf47ace9	-0.77998215
164	0xbed52f4d	-0.4163765
165	0x3a2ba018	0.0006546988
166	0xbe1010a9	-0.14068855
167	0xbf3c083e	-0.73450077
168	0xbe9a7c14	-0.3017279
169	0x3ca0d553	0.01963297
170	0xbbbcef75	-0.00576585
171	0x3e92f267	0.28700563
172	0xbf0c6a24	-0.5484946
173	0xbf093f58	-0.5361228
174	0x3e4df86f	0.20114301
175	0xbe44ce83	-0.19219403
176	0xbe834f57	-0.2564647
177	0x3defe50e	0.117136106
178	0xbe77ec9f	-0.24211358
179	0xbf687c42	-0.908146
180	0x3ee65dcb	0.44993433
181	0xbe90776b	-0.2821611
182	0x3e78d1fe	0.24298856
183	0xbdf342ce	-0.11877976
184	0xbc2667c1	-0.010156573
185	0xbf0850ae	-0.5324811
186	0x3f090377	0.5352091
187	0x3db88a7a	0.09010787
188	0x3e0a7e06	0.13524637
189	0xbdd67e84	-0.1047335
190	0xbd484b81	-0.04890013
191	0x3c2373a1	0.009976299
192	0xbe5aa7ed	-0.21353121
193	0x3e4222c5	0.18958576
194	0x3d209e72	0.039213605
195	0xbde34df2	-0.11098851
196	0x3ddf551d	0.10904906
197	0x3ece55fb	0.40299973
198	0xbdec261e	-0.11530708
199	0xbea383b0	-0.31936407
200	0xbc59c084	-0.013290528
201	0xbcbba8d8	-0.02290766
202	0x3e30bfa0	0.17260599
203	0x3e4d63f4	0.2005766
204	0xbf37e483	-0.71833056
205	0xbe16c454	-0.1472333
206	0xbe317dc1	-0.17333128
207	0xbddde969	-0.10835535
208	0x3f13e131	0.5776549
209	0x3e98d905	0.29853073
210	0xbe3c8e95	-0.18413766
211	0xbe498883	-0.19680981
212	0xbe53b075	-0.20672782
213	0xbf988e8a	-1.19185
214	0xbf48e4df	-0.7847423
215	0xbe07fc1c	-0.13279766
216	0xbdc6aaf3	-0.09700575
217	0x3f093605	0.5359805
218	0x3e3b879e	0.18313453
219	0xbefa68bb	-0.48908028
220	0xbebae161	-0.36500075
221	0x3dc8d534	0.0980629
222	0xbf5656a0	-0.8372593
223	0xbdd442c3	-0.10364296
224	0xbea7397e	-0.3266105
225	0xbe85b4fe	-0.2611465
226	0xbdacdba4	-0.084403306
227	0xbea0ae32	-0.313829
228	0xbe956b13	-0.29183254
229	0xbd70eb73	-0.058818292
230	0x3ef81de2	0.484603
231	0xbf38948f	-0.7210168
232	0x3e4fa665	0.20278318
233	0x3ef315d5	0.47477594
234	0x3e2db62b	0.16964023
235	0x3f1fee8e	0.6247338
236	0xbe90c4d0	-0.28275156
237	0x3f147c25	0.5800193
238	0x3ec07319	0.37587813
239	0xbebd7889	-0.37006024
240	0x3dd1a483	0.10236456
241	0x3dbc9a13	0.09209075
242	0x3e83d4f5	0.2574841
243	0xbe918976	-0.28425187
244	0x3efdb3b3	0.49551162
245	0x3d5e6660	0.05429685
246	0xbf26013d	-0.6484564
247	0x3f046b43	0.5172617
248	0x3ee4b3bd	0.4466838
249	0xbf7cc27c	-0.9873426
250	0x3e81e67e	0.25371164
251	0x3f2363d6	0.6382421
252	0xbd7c9c4a	-0.061672486
253	0xbf00c78b	-0.5030448
254	0x3e454901	0.1926613
255	0xbf2aa2fe	-0.66654956

features.conv3.bias f4 [32]
0	0x3e511df6	0.20421585
1	0xbea9e1b1	-0.3318
2	0x3e6ab68a	0.22921196
3	0xbfa14c24	-1.2601361
4	0x3f1fc01c	0.6240251
5	0x3ef172ca	0.4715789
6	0xbf0c2522	-0.5474416
7	0x3fe0cf7b	1.7563318
8	0x3fda767b	1.7067407
9	0x3fe689cf	1.8010806
10	0x3f72f151	0.9489947
11	0x3f6e335b	0.9304711
12	0x3f526207	0.8218083
13	0xbd1f1649	-0.038839612
14	0x3e9fc536	0.31205148
15	0x3f4866a5	0.78281623
16	0x3fc25102	1.5180972
17	0x3f7ef7b1	0.995967
18	0x3dea915f	0.114535086
19	0x3fa1c05f	1.2636832
20	0x3f06b3d5	0.5261815
21	0x3fecbc83	1.8495029
22	0x3fb0baed	1.3807045
23	0x3e6af0fb	0.22943489
24	0x3f5ca93a	0.8619572
25	0x3f95ca3b	1.1702341
26	0x3f2d5c24	0.6771872
27	0x3f95a860	1.1692009
28	0xc0417354	-3.022664
29	0x3f8df705	1.1091009
30	0x3f8e682f	1.1125544
31	0x400e329d	2.2218392

features.prelu3.weight f4 [32]
0	0x3c817539	0.015802966
1	0xbd0c204a	-0.03421048
2	0x3b31ee5c	0.002715013
3	0xbcb2cc46	-0.02182592
4	0x3ae2f4ee	0.0017315426
5	0xbdf25c9d	-0.11834071
6	0xbd8dab28	-0.06917411
7	0x3d7e6739	0.06211016
8	0x3d225086	0.039627574
9	0x3cb82890	0.02248028
10	0xbe51625e	-0.2044768
11	0x3c936a39	0.017994987
12	0x3eba0523	0.36332044
13	0xbc4f53c9	-0.012654253
14	0xbc7aa98c	-0.015299212
15	0xbd4b6b3b	-0.04966281
16	0x3d78369c	0.060598955
17	0x3d85a02d	0.06524692
18	0xbbdf2b2a	-0.0068105655
19	0xbbca4b40	-0.0061735213
20	0xbda4d789	-0.080489226
21	0xbb8ae9c3	-0.0042392923
22	0xbf4bdeaa	-0.79636633
23	0xbe1816fb	-0.14852516
24	0x3d8e418a	0.06946094
25	0x3cd2ff80	0.025756598
26	0x3c3bd6ae	0.011464758
27	0xbde0f15d	-0.109835364
28	0x3d8ae3aa	0.06781705
29	0xbe49812d	-0.19678183
30	0xbf600ae7	-0.87516636
31	0x3ac65f03	0.0015134517

conv0_1.weight f4 [10, 3, 3, 3]
0	0x3d4d1ceb	0.050076406
1	0x3de35d03	0.11101725
2	0xbe1d539f	-0.1536393
3	0xbe030feb	-0.12799041
4	0x3e7ccbe0	0.24687147
5	0xbbcd6b36	-0.006268884
6	0xbda19473	-0.078896426
7	0xbc03dea7	-0.00804869
8	0x3b42be16	0.002971535
9	0xbdd09da3	-0.10186317
10	0xbf5c54aa	-0.8606669
11	0x3e51cf41	0.20489217
12	0x3e2d80e8	0.16943705
13	0xbc7f4778	-0.015581004
14	0x3d7a0716	0.061041914
15	0x3e67f3b2	0.22651556
16	0x3d4cc8cf	0.049996193
17	0x3e90e1fc	0.28297412
18	0xbe9d7901	-0.3075638
19	0xbf34347b	-0.7039258
20	0xbb85752e	-0.004072807
21	0x3ee54496	0.4477889
22	0x3f97a5e3	1.18475
23	0xbe5c97a1	-0.21542217
24	0xbd2f27a7	-0.042762425
25	0xbd39f483	-0.0453992
26	0xbe87bbca	-0.2651046
27	0xbe6de487	-0.23231708
28	0x3ef57a2d	0.47944775
29	0x3e199283	0.14997296
30	0xbe46754b	-0.19380681
31	0x3f0296f3	0.5101158
32	0x3c9f68b7	0.019459112
33	0xbe0b5117	-0.13605152
34	0x3e84c5b0	0.25932074
35	0x3d8136b7	0.06309264
36	0x3ea721ab	0.32642874
37	0xbeae2856	-0.3401515
38	0xbe7ffa35	-0.2499779
39	0x3e343ae3	0.17600589
40	0xbf94f742	-1.1637957
41	0xbf4b96f5	-0.7952722
42	0x3f18d16a	0.5969454
43	0xbdc3ead9	-0.09566278
44	0x3d142876	0.0361714
45	0xbe483dbe	-0.19554803
46	0x3e2258ed	0.15854235
47	0x3d76d0cc	0.060257718
48	0x3e028f1b	0.12749903
49	0x3ed8e2aa	0.4236043
50	0x3efac440	0.48977852
51	0xbe9a1f5c	-0.3010205
52	0xbeeeb62e	-0.46623367
53	0x3e15d9af	0.14633821
54	0x3e10fb86	0.14158449
55	0xbd80735b	-0.06272002
56	0x3d57bffe	0.052673332
57	0xbdb21686	-0.08695702
58	0xbf015465	-0.505194
59	0x3e1ab2dd	0.15107293
60	0x3e3dc122	0.18530706
61	0x3e2eec59	0.17082347
62	0x3d454773	0.048163842
63	0xbe6b993b	-0.23007672
64	0xbca28e8b	-0.01984336
65	0xbe69fb0d	-0.22849675
66	0x3e036623	0.12831931
67	0xbb9f1bf0	-0.0048556253
68	0x3e75c7a0	0.24001932
69	0x3ca63267	0.020287706
70	0x3e63c1be	0.22241876
71	0xbe00bf5a	-0.12572995
72	0x3f02bd06	0.51069677
73	0x3ca7a7b1	0.020465704
74	0x3c805a60	0.015668094
75	0x3f1e9ff6	0.6196283
76	0xbfc99015	-1.5747095
77	0x3edeb730	0.43499136
78	0x3db7d2d7	0.089757614
79	0xbe4d9a9b	-0.20078509
80	0x3ce412cb	0.027840992
81	0xbe01f1e6	-0.12689933
82	0x3e108c38	0.14115989
83	0xbd6f838e	-0.05847507
84	0x3d9d2b13	0.076742314
85	0xbf1fc3f7	-0.62408394
86	0x3d06d9d2	0.032922573
87	0xbd4f241d	-0.05057155
88	0x3ea7b295	0.32753435
89	0xbd19d0a1	-0.03755248
90	0x3c087dd1	0.008330778
91	0x3d865cd3	0.065606736
92	0xbd801ba4	-0.06255272
93	0x3d796bc8	0.060893804
94	0xbf2cd092	-0.67505753
95	0x3d31dfb8	0.043426245
96	0xbeaa3dff	-0.33250424
97	0x3e447126	0.19183788
98	0xbe665cfe	-0.22496411
99	0x3dee56b3	0.1163763
100	0xbd1188bc	-0.03553079
101	0x3e0fee38	0.14055717
102	0xbe106fec	-0.14105195
103	0xbfc10a69	-1.5081302
104	0xbdf1017e	-0.11767863
105	0x3e0b01a9	0.13574852
106	0xbd966029	-0.0734256
107	0x3d244f4f	0.040114697
108	0x3e145940	0.14487171
109	0x3f08baed	0.53410226
110	0x3f2ff656	0.68735254
111	0xbddcf490	-0.10788834
112	0x3e6525ef	0.22377752
113	0x3ee23788	0.44182992
114	0xbf488f04	-0.78343225
115	0xbd72ece1	-0.059307937
116	0xbe9c3500	-0.30509186
117	0xbeaac5c2	-0.33354002
118	0x3e6971b6	0.22797284
119	0xbe5db283	-0.21650128
120	0xbdec5c90	-0.115410924
121	0xbe637fde	-0.22216746
122	0xbe5b8e4b	-0.21440999
123	0x3e112c9a	0.1417717
124	0x3e9e537c	0.3092307
125	0x3dbc06c8	0.09180981
126	0xbc0b012c	-0.008484166
127	0xbe50659d	-0.20351262
128	0xbf1425ff	-0.5787048
129	0x3ef60765	0.48052517
130	0xbf5f2f3a	-0.87181437
131	0xbd001623	-0.03127111
132	0x3f1bb4bd	0.6082266
133	0x3d0668ef	0.032814916
134	0x3d8941af	0.06701981
135	0x3e0493ca	0.12947002
136	0xbd743dcb	-0.059629243
137	0x3df02a90	0.11726868
138	0xbcfd2592	-0.030901704
139	0x3e7bd909	0.24594511
140	0xbda7bf3e	-0.081907734
141	0xbde12527	-0.10993414
142	0xbe773c0c	-0.24144
143	0x3da243a0	0.07923055
144	0x3e8335f0	0.2562709
145	0x3e5c7bb5	0.21531565
146	0x3b1cfaad	0.0023953125
147	0xbdd9bdaf	-0.106318824
148	0x3ebaa5e0	0.36454678
149	0x3cbd671c	0.023120455
150	0xbdcd9ca1	-0.1003964
151	0xbf11f6ff	-0.5701751
152	0xbd8bf72d	-0.068342544
153	0x3e27d7c1	0.16390897
154	0x3e9dfd29	0.30857208
155	0xbc15437c	-0.009110328
156	0x3dc50ddf	0.09621786
157	0x3f44a179	0.7680889
158	0xbe298d4f	-0.16557811
159	0xbe90b719	-0.28264692
160	0xbf542428	-0.8286767
161	0xbd3938da	-0.045220234
162	0xbee4766e	-0.44621605
163	0x3ecbf0c5	0.3983213
164	0xbf08e4f1	-0.53474337
165	0x3e648814	0.22317535
166	0x3f3a6bfd	0.7282103
167	0xbe037aa5	-0.12839754
168	0x3e4d0871	0.20022751
169	0x3e88ab2b	0.2669309
170	0xbe95ca9c	-0.2925614
171	0x3eb309ed	0.3496851
172	0x3ed43e02	0.41453558
173	0x3e2abfcf	0.16674732
174	0xbd519e06	-0.051176094
175	0x3e00185c	0.12509292
176	0x3d93c259	0.07214803
177	0x3d86099a	0.065448
178	0x3d8f6a3d	0.07002685
179	0xbdfbc69b	-0.1229374
180	0x3cdb122b	0.026742062
181	0xbf294f5b	-0.6613671
182	0x3ec8ca15	0.39216676
183	0xbdb4e02d	-0.08831821
184	0xbf67453b	-0.9034001
185	0x3e11671a	0.14199486
186	0xbe819d99	-0.2531555
187	0xbed9ec0e	-0.42562908
188	0x3ed36504	0.41288006
189	0x3d90c3a1	0.07068563
190	0xbd2a2e6a	-0.04154817
191	0x3c3a86b3	0.011384654
192	0xbd41114d	-0.04713564
193	0x3db2ea1b	0.08736058
194	0xbdccb124	-0.099947244
195	0x3c35668e	0.011071814
196	0x3dd7d041	0.10537768
197	0xbd8bef56	-0.06832759
198	0x3e1c0fc9	0.15240397
199	0x3d391601	0.045187
200	0xbe36f246	-0.17865857
201	0x3ef73250	0.48280573
202	0xbe4938b4	-0.19650537
203	0xbedfe86b	-0.43732008
204	0x3e7933a0	0.243361
205	0xbe0c09b9	-0.13675584
206	0x3cbe603b	0.023239246
207	0x3d85a186	0.06524949
208	0x3e19c78e	0.1501753
209	0xbe684e6b	-0.22686164
210	0x3f2882cc	0.6582458
211	0x3cb40e57	0.021979494
212	0xbed63942	-0.4184056
213	0xbe90a3b5	-0.282499
214	0xbd4c0d21	-0.04981721
215	0x3dec46e6	0.1153696
216	0x3d035252	0.03206093
217	0x3ce5bde4	0.028044648
218	0x3d881bfc	0.066459626
219	0x3e4c1418	0.1992954
220	0xbf202e12	-0.625703
221	0x3ea33832	0.3187881
222	0xbd21d8f0	-0.03951353
223	0x3e14ba17	0.14524113
224	0xbddc29cc	-0.107501596
225	0xbd4d0e95	-0.050062735
226	0xbe76d4c3	-0.241046
227	0x3e7c855f	0.24660252
228	0x3f159760	0.58434105
229	0xbf778ab8	-0.96696043
230	0x3eac7a85	0.33687225
231	0x3d05136d	0.03248923
232	0x3d43819b	0.047731023
233	0x3bcf1794	0.0063199494
234	0x3e1c9d4f	0.15294383
235	0xbef04e0e	-0.4693455
236	0x3e3629c7	0.17789374
237	0x3f29de95	0.6635526
238	0xbf90eaa3	-1.1321605
239	0x3f2bf857	0.6717581
240	0x3d68b227	0.056810524
241	0xbc3a310c	-0.011364233
242	0xbdf186a3	-0.11793258
243	0xbdc5382b	-0.09629854
244	0x3ed1cdf6	0.40977448
245	0xbe2adb27	-0.16685162
246	0xbe1a97f9	-0.15097035
247	0x3f1ee354	0.62065625
248	0xbddec603	-0.108776115
249	0xbe463160	-0.19354773
250	0x3e76c118	0.24097097
251	0xbe289a8a	-0.16465202
252	0xbd95466d	-0.07288823
253	0x3f36078f	0.71105283
254	0xbddbf2a3	-0.10739639
255	0xbde15152	-0.11001839

conv0_1.bias f4 [10]
0	0x3e59a4fe	0.21254346
1	0xbe066dd1	-0.13127829
2	0x3e88529d	0.2662553
3	0xc006f19a	-2.1084962
4	0x3de04c6b	0.109520756
5	0x3e0a208e	0.13488981
6	0x3ea57116	0.3231284
7	0x3c99f050	0.018791348
8	0x3aa0df13	0.0012273513
9	0xbd7232f4	-0.059130624

pre1.weight f4 [10]
0	0xbc98b050	-0.01863876
1	0x3f55d50f	0.83528227
2	0x3e9163d8	0.28396487
3	0x3e10af9b	0.14129488
4	0xbeed3750	-0.46331263
5	0xbe197cd3	-0.14989023
6	0x3da3312c	0.07968363
7	0xbe9b0294	-0.30275404
8	0xbf40c0e9	-0.7529436
9	0xbefc5053	-0.49280033

conv0_2.weight f4 [10, 10, 3, 3]
0	0xbd057522	-0.03258241
1	0x3ddb6b27	0.10713797
2	0xbe66a1c6	-0.22522649
3	0xbd416eae	-0.047224693
4	0xbdf8151e	-0.12113403
5	0xbdd73a0b	-0.10509118
6	0xbea4b103	-0.321663
7	0xbf20abea	-0.6276232
8	0xbeb84d98	-0.359967
9	0xbdd2dbb2	-0.1029581
10	0x3e053f7f	0.13012503
11	0x3ed99348	0.4249518
12	0x3c9408c5	0.018070588
13	0xbee663e2	-0.4499808
14	0xbf0e3acd	-0.5555847
15	0x3e751cbe	0.23936746
16	0xbc809452	-0.015695725
17	0x3e2ea458	0.1705488
18	0x3b3ce610	0.0028823651
19	0xbc31ca01	-0.010851384
20	0xbeb47124	-0.3524257
21	0x3f01a3aa	0.50640357
22	0xbee00c72	-0.43759495
23	0x3cb290c7	0.02179755
24	0xbdbd0240	-0.09228945
25	0x3decb11a	0.11557217
26	0x3f2dbb3f	0.6786384
27	0x3d3bb3a6	0.045825623
28	0xbf341654	-0.7034657
29	0xbe871b7f	-0.26388165
30	0x3f0c8ac1	0.5489922
31	0xbe35c547	-0.17751037
32	0x3e739c34	0.23790056
33	0x3df61818	0.12016314
34	0xbeacd551	-0.33756498
35	0x3eeeb175	0.46619764
36	0x3dbb6c6b	0.091515385
37	0x3dd5fdbb	0.10448786
38	0xbe96589f	-0.29364488
39	0xbe3b2ae3	-0.18278079
40	0xbeaf7966	-0.34272307
41	0x3db91d8d	0.090388395
42	0x3e3e0a75	0.18558677
43	0xbe9503a6	-0.29104346
44	0x3e56f225	0.20990808
45	0xbdfd181a	-0.12358113
46	0xbdfea802	-0.12434389
47	0xbf18ff0c	-0.5976417
48	0xbe99aebe	-0.3001613
49	0x3e5d0033	0.21582107
50	0xbe46e53d	-0.19423385
51	0xbb969e32	-0.004596495
52	0xbe04df3c	-0.12975782
53	0xbe01343d	-0.12617584
54	0xbe30ae97	-0.172541
55	0x3f25c1f9	0.64749104
56	0x3dd3ca5a	0.1034133
57	0xbea94e3f	-0.3306751
58	0xbeed4862	-0.46344286
59	0xbe322314	-0.17396194
60	0x3ecca7f6	0.39971894
61	0xbd9865d2	-0.07441296
62	0xbe38158e	-0.17976972
63	0xbe1e363f	-0.1545038
64	0xbe1af14a	-0.15131107
65	0xbd997e9d	-0.07494853
66	0xbdf1499a	-0.117816165
67	0xbec2944b	-0.38003764
68	0xbd1d4a94	-0.0384012
69	0x3d850ba7	0.06496363
70	0x3e7a608b	0.2445089
71	0xbd77f6b7	-0.06053802
72	0x3d4ce809	0.050025973
73	0x3d855cc5	0.06511835
74	0x3e178270	0.14795852
75	0x3d8487d9	0.064712234
76	0x3e1d2ed8	0.153499
77	0x3ce64058	0.028106853
78	0xbcf6f876	-0.030147772
79	0xbcd6135f	-0.026132284
80	0xbe84ada7	-0.25913736
81	0xbe8bde75	-0.2731816
82	0x3e7813b8	0.24226272
83	0x3e30cf91	0.1726668
84	0xbeccce07	-0.40000936
85	0x3fa5ac13	1.2943138
86	0x3e5cd943	0.21567254
87	0xbec90ceb	-0.39267668
88	0x3e1da208	0.15393841
89	0xbf343e00	-0.70407104
90	0x3d01c6a3	0.031683575
91	0x3e165515	0.14680894
92	0xbbba95fe	-0.00569415
93	0xbe88c1a1	-0.26710227
94	0x3cc932ca	0.02456035
95	0xbed6af0b	-0.41930422
96	0xbe8df3c3	-0.27725038
97	0x3f153c19	0.58294827
98	0xbe8f296d	-0.27961293
99	0x3dcf50b0	0.10122812
100	0x3e00ae96	0.12566599
101	0xbe19b3ad	-0.15009947
102	0xbe74943f	-0.23884676
103	0x3ee1b35f	0.44082162
104	0xbe8c654e	-0.2742104
105	0x3e10ab23	0.14127783
106	0x3e8a5849	0.2702048
107	0xbe9bea29	-0.30452088
108	0xbdb673f3	-0.08908834
109	0xbe2a2d60	-0.16618872
110	0xbeb67a4d	-0.35640183
111	0xbda2231c	-0.07916853
112	0x3f7550d2	0.95826447
113	0xbdfcb491	-0.12339128
114	0x3e034f5c	0.12823242
115	0x3ea89bf4	0.32931483
116	0xbf0fce25	-0.56173927
117	0xbdce3a8c	-0.10069761
118	0x3f34bcd2	0.70600617
119	0xbf36a437	-0.7134432
120	0xbe66dcee	-0.22545215
121	0x3fdf0198	1.7422361
122	0xbe9123a0	-0.28347492
123	0xbe299e30	-0.1656425
124	0x3d3f9446	0.046772264
125	0xbf6a6d94	-0.9157345
126	0xbc113960	-0.008863777
127	0xbd631a7c	-0.05544518
128	0xbd41dfb8	-0.047332495
129	0xbc4eb52c	-0.012616437
130	0x3e000a61	0.12503959
131	0x3d31bedb	0.043394905
132	0x3d4bbdab	0.04974143
133	0xbce8938e	-0.028390672
134	0xbe158b5f	-0.14603947
135	0x3ea7e345	0.3279058
136	0xbdabf76a	-0.083968
137	0x3d62e376	0.055392705
138	0x3e1cf122	0.1532636
139	0xbf00135a	-0.5002953
140	0x3e409068	0.18805087
141	0xbd028ded	-0.031873632
142	0x3e59df9b	0.21276705
143	0x3dac9044	0.08425954
144	0x3ec0195f	0.37519357
145	0xbe3ebd96	-0.18627009
146	0xbe6becb1	-0.2303951
147	0xbe050559	-0.12990321
148	0xbd8a4736	-0.06751864
149	0x3ebbb660	0.3666258
150	0x3da9b56d	0.08286557
151	0xbe8b2f73	-0.27184638
152	0xbbbe7f4e	-0.0058135157
153	0xbcb9ffac	-0.022704922
154	0xbd849141	-0.064730175
155	0xbea87430	-0.32901144
156	0x3dd9d6df	0.106366865
157	0xbe75e33f	-0.24012469
158	0x3d99ac6b	0.07503589
159	0x3d207acc	0.03917961
160	0x3e9a447f	0.30130383
161	0xbcee3fc4	-0.02908314
162	0x3dbea8b4	0.09309521
163	0xbe700670	-0.23439956
164	0x3e316159	0.17322291
165	0x3ce264ba	0.02763592
166	0xbeecc832	-0.46246487
167	0x3d918aa8	0.07106525
168	0xbdf7c217	-0.120975666
169	0xbe63ed3d	-0.22258468
170	0x3e920713	0.28521022
171	0x3e3f6e06	0.18694314
172	0xbea0abff	-0.31381223
173	0x3e445212	0.19171932
174	0x3d870c8b	0.06594189
175	0xbf5aded8	-0.8549628
176	0x3e5e60eb	0.21716659
177	0x3ee27606	0.4423067
178	0xbf1199ad	-0.56875116
179	0x3f219176	0.6311258
180	0x3dea480d	0.11439524
181	0x3de7e9b4	0.11323872
182	0x3e92d1b1	0.28675607
183	0xbe751174	-0.23932439
184	0xbfa0efc3	-1.257317
185	0xbf59037a	-0.8477093
186	0x3e8c02d9	0.27345923
187	0xbe885783	-0.26629266
188	0x3eab6a2b	0.33479437
189	0xbe07259a	-0.13197938
190	0x3f3d4c56	0.73944604
191	0xbf0fc0d0	-0.56153584
192	0xbead3357	-0.33828232
193	0xbe07f487	-0.13276874
194	0x3e4b6562	0.19862893
195	0xbd7685e1	-0.06018627
196	0x3e8bfec5	0.2734281
197	0xbdda9d8f	-0.10674583
198	0xbe050f0a	-0.12994018
199	0xbecc3a25	-0.3988811
200	0x3cfb8ab4	0.030705787
201	0xbe110628	-0.14162505
202	0x3f36fc33	0.71478575
203	0x3e1610ba	0.14654818
204	0x3de96559	0.11396284
205	0xbdfb7251	-0.122776635
206	0x3e17a82b	0.14810245
207	0xbf3d9a50	-0.7406359
208	0xbcfbba04	-0.030728348
209	0xbece64ec	-0.40311372
210	0x3dd08214	0.101810604
211	0x3e8d33b5	0.27578512
212	0x3f4bf3e9	0.7966905
213	0xbe8c51c7	-0.2740614
214	0x3d84f260	0.06491542
215	0xbd35480c	-0.044258162
216	0x3eb8d359	0.36098745
217	0x3e9171ed	0.2840723
218	0xbda5be08	-0.08092886
219	0xbe3c9a0c	-0.18418139
220	0xbefc4724	-0.49273026
221	0x3e899d1b	0.26877674
222	0x3e4d024c	0.20020407
223	0xbe82c7a9	-0.25542954
224	0x3d2bdd87	0.04195931
225	0x3e18e69f	0.14931725
226	0xbe125993	-0.14291982
227	0x3e911d04	0.2834245
228	0xbe6aeec8	-0.2294265
229	0x3e14ba79	0.14524259
230	0xbe752316	-0.23939165
231	0xbf031f73	-0.5121986
232	0xbe87cf9a	-0.26525575
233	0xbf4317e3	-0.76208323
234	0x3e8193de	0.25308126
235	0x3e2bf509	0.16792692
236	0x3f0aa4c7	0.5415768
237	0xbe26292d	-0.16226645
238	0xbe9cb08f	-0.30603454
239	0xbd0f0f32	-0.0349266
240	0x3e2842c4	0.16431719
241	0xbe9f729c	-0.31142128
242	0xbeba6cac	-0.36411035
243	0x3eee00f0	0.4648509
244	0xbe1c6528	-0.15272963
245	0x3f155e04	0.5834658
246	0xbca7fb6e	-0.020505633
247	0xbf306edf	-0.68919176
248	0x3ddea92d	0.108721115
249	0xbde27bbe	-0.11058758
250	0xbeab7075	-0.33484235
251	0xbe942305	-0.28932968
252	0xbf0775b6	-0.5291399
253	0xbf798236	-0.9746431
254	0xbf1bd075	-0.60864955
255	0x3ea8f7a1	0.33001426

conv0_2.bias f4 [10]
0	0x3f1b82d7	0.6074652
1	0x3e4d3a23	0.20041709
2	0x3eaef70e	0.34172863
3	0x3ee99509	0.45621517
4	0xbfb58a8a	-1.4182904
5	0x3c96fd2c	0.018431269
6	0x3f04db4c	0.5189712
7	0x3ea083f0	0.3135066
8	0x3f0cd37a	0.5501019
9	0x3e8a9379	0.27065638

pre2.weight f4 [10]
0	0x3e9a0dc9	0.30088642
1	0x3c652947	0.013986892
2	0xbc0b8fba	-0.008518154
3	0x3df0f7b8	0.117659986
4	0x3d790cda	0.06080327
5	0xbe8109cf	-0.25202796
6	0x3ee27451	0.44229367
7	0x3cf613e5	0.030038783
8	0x3e4dd92a	0.20102373
9	0xbf90b496	-1.130511

conv4_1.weight f4 [2, 32, 1, 1]
0	0xbe5b3014	-0.21405059
1	0xbe42da64	-0.19028622
2	0xbd16c487	-0.036808517
3	0xbd1acebc	-0.037794814
4	0x3e093793	0.13400106
5	0xbd950a59	-0.07277364
6	0x3e344462	0.17604211
7	0x3da1d457	0.07901829
8	0x3d24e783	0.04025985
9	0xbb6a3de6	-0.003574246
10	0xbde4748b	-0.11155041
11	0xbe50748b	-0.20356958
12	0xbe3f53db	-0.18684332
13	0xbe18ff39	-0.1494111
14	0xbe8409c4	-0.257887
15	0xbc76d967	-0.015066481
16	0x3e02946e	0.12751934
17	0xbd7cee0b	-0.061750453
18	0xbe9723f2	-0.29519612
19	0x3d0f2fc3	0.03495766
20	0x3e3814ed	0.17976733
21	0x3d98fb19	0.07469768
22	0xbdaf2044	-0.08551076
23	0x3ddd84ce	0.10816346
24	0xbe2cd5ba	-0.16878405
25	0xbd4a5312	-0.04939563
26	0x3d6d932e	0.05800169
27	0x3e05c384	0.13062865
28	0x3d3f44ac	0.04669635
29	0xbd0e9a32	-0.03481502
30	0x3d1fca62	0.039011367
31	0x3d6d190c	0.057885215
32	0x3ecbacc7	0.39780256
33	0xbda80dd8	-0.082057655
34	0xbe5ac5e2	-0.21364549
35	0x3ded2d96	0.115809605
36	0xbba80111	-0.0051270803
37	0x3dd7954a	0.105265215
38	0x3d357bb4	0.044307426
39	0xbd1ad67e	-0.037802212
40	0xbd975a02	-0.073902145
41	0xbd931b29	-0.07182915
42	0x3d800ce8	0.06252462
43	0xbd7cbc1b	-0.06170283
44	0x3d302e7d	0.043013085
45	0x3e178662	0.14797357
46	0x3e0cb4da	0.13740864
47	0x3de76dcf	0.11300241
48	0x3d9f808a	0.07788189
49	0x3e572055	0.21008427
50	0x3e81f546	0.2538244
51	0xbde1f8c7	-0.11033779
52	0xbb523e7c	-0.00320807
53	0xbcd8b148	-0.026451722
54	0x3d8d65ab	0.06904157
55	0x3b655d95	0.0034998406
56	0xbc6c5b2c	-0.014426034
57	0xbe2cdd4c	-0.16881293
58	0xbd7e7d3f	-0.062131163
59	0xbbebd884	-0.0071974415
60	0x3dd48e2a	0.10378678
61	0x3e083b41	0.13303854
62	0x3e2bbe98	0.16771924
63	0xbd992160	-0.07477069

conv4_1.bias f4 [2]
0	0xbf2662d8	-0.64994574
1	0x3f4d5a15	0.8021558

conv4_3.weight f4 [4, 32, 1, 1]
0	0xbb8fb21c	-0.004385246
1	0x3b87519c	0.0041296016
2	0x3b8e5e1e	0.0043447157
3	0x3baccb66	0.0052732704
4	0x3b948c66	0.0045333384
5	0xbab198ac	-0.0013549528
6	0xbae56a41	-0.001750298
7	0xbb9f9561	-0.0048701023
8	0xbbe92b97	-0.007115792
9	0x3c84f021	0.016227784
10	0xbaa32c62	-0.001244914
11	0x3bab311a	0.005224359
12	0xbb7fb7a0	-0.003901936
13	0xbb0b6ff6	-0.002127645
14	0xbaccfeca	-0.0015639898
15	0xbc48f5a2	-0.012265595
16	0xbd5e0363	-0.05420245
17	0xbbbbd47e	-0.005732118
18	0xbab58805	-0.0013849741
19	0x3ba6cee4	0.0050905813
20	0xba933358	-0.0011230512
21	0xbbadd558	-0.0053049736
22	0x3b0176af	0.0019754579
23	0xba312ef0	-0.00067590084
24	0x3ce93c06	0.028471004
25	0x3bdc2a82	0.0067189345
26	0x3b98985e	0.0046568355
27	0x3ba86425	0.0051388913
28	0xbda80b77	-0.08205312
29	0xbb0f44cf	-0.0021861081
30	0x3a337df4	0.00068470766
31	0x3c0fc49e	0.0087749045
32	0x3a2ae31f	0.0006518829
33	0x3b9c7b35	0.0047754296
34	0x3b717df3	0.0036848753
35	0xbba96c1c	-0.0051703583
36	0x3b083d24	0.0020788396
37	0x3a31f456	0.0006788423
38	0x3ad4587a	0.0016200684
39	0x3bade35e	0.0053066453
40	0xbbdb4c67	-0.0066924575
41	0x3d16f260	0.03685224
42	0x3a4ae002	0.0007739068
43	0xbc05df85	-0.008170967
44	0xbb4019d0	-0.002931226
45	0x3aa6518f	0.0012689101
46	0x3b38080e	0.0028080973
47	0x3bc6668f	0.0060547064
48	0xbca83474	-0.020532824
49	0x3a824de1	0.0009941423
50	0xba89f0f5	-0.0010524081
51	0x3be903a4	0.0071110297
52	0xbbd0de51	-0.0063741584
53	0xbd148d62	-0.036267646
54	0x3ba7b34f	0.005117811
55	0xbb06e166	-0.0020581125
56	0x3c5158db	0.012777532
57	0xbadf837b	-0.0017052734
58	0xba380d2a	-0.00070210046
59	0x3b8c94b9	0.00429019
60	0x3ce91c09	0.028455751
61	0xba833e87	-0.0010013141
62	0x3b2c4112	0.0026283902
63	0xb997dcff	-0.0002896562
64	0x3c25effb	0.010128017
65	0x3b726f33	0.003699255
66	0x3b3ef148	0.0029135514
67	0x3c0d9155	0.008640607
68	0x39a6f6fd	0.00031846008
69	0x3b0856f4	0.0020803781
70	0x3ba47239	0.005018499
71	0xbaa31b99	-0.0012444138
72	0x3b0d6ee2	0.0021580984
73	0xbbbcc918	-0.005761277
74	0xb92cd308	-0.00016481814
75	0x3cb1d3b7	0.021707399
76	0x3b46beff	0.0030326245
77	0x3a2d2b89	0.00066059135
78	0x3adccd52	0.0016845858
79	0xbd414064	-0.04718055
80	0xbc655412	-0.013997095
81	0x3ab963c8	0.0014144117
82	0xbb8fb7f8	-0.0043859445
83	0xbc79babf	-0.015242278
84	0x3c1f7046	0.009731358
85	0x3bfa0883	0.007630409
86	0xb96d286a	-0.00022617137
87	0x39d3d54e	0.0004040398
88	0x3b01ab84	0.001978607
89	0x3beba5fc	0.0071914177
90	0x3b92025a	0.0044558467
91	0x3b88af0f	0.0041712592
92	0xbe54ee1a	-0.20793954
93	0xbc27b713	-0.010236519
94	0xbc135538	-0.008992486
95	0xbc97c523	-0.01852662
96	0x3be59c5c	0.007007165
97	0x3b4a3422	0.0030853827
98	0xb9e16254	-0.00042988604
99	0xbb9010c0	-0.004396528
100	0xba93ae7d	-0.0011267212
101	0x3b686dfa	0.0035465942
102	0x3b9cab70	0.004781179
103	0xbb8ee3f5	-0.0043606707
104	0x3b048ec1	0.002022669
105	0x3cd24441	0.025667312
106	0xbb1d0039	-0.0023956432
107	0x3ca19a2a	0.019726831
108	0x3a3b1b5a	0.00071375596
109	0x3ae22466	0.0017253279
110	0x3b3afaef	0.0028530916
111	0xbc91da19	-0.017804192
112	0x3cbca307	0.023026956
113	0x3af2069e	0.0018465107
114	0xbc0158b8	-0.007894687
115	0xb919113e	-0.0001459764
116	0x3befba8e	0.00731594
117	0xbc1179ab	-0.008879106
118	0xba307201	-0.0006730855
119	0xba0bbb27	-0.0005330317
120	0xbba521eb	-0.0050394437
121	0x3ab6ef77	0.0013956864
122	0xbb9e2bc5	-0.004826995
123	0x3c24d59f	0.010060697
124	0xbdef3053	-0.11679139
125	0xbc0772a9	-0.008267083
126	0xbbd223c9	-0.0064129573
127	0xbca48f60	-0.020087898

conv4_3.bias f4 [4]
0	0x3c853731	0.016261669
1	0xbc73a86b	-0.014871697
2	0xbd892836	-0.06697123
3	0xbc5dfe94	-0.013549466
