prediction/prediction_KeyPoint/weight_O/model_206_0.3007328877101077.pth (torch_old, 540065 bytes, 32 tensors)

features.conv0.conv1.weight f4 [3, 1, 3, 3]
00000000: 534c 21be 6eb4 7abf 5de4 9ebf a882 443f
00000010: 1b79 5dbe a9d5 12bf 1889 a53e ed53 4d3f
00000020: 8a0c d4be 9812 2c3e fb0f 7c3d a1f8 0e3e
00000030: 3c10 4cbe 6027 883e 9a6f f6be bcfe 58bf
00000040: b6e0 5cbf 77ea b5bf 6ade acbf 82b3 c93d
00000050: df13 43be 5b9d 4ebf 6f65 283e ef13 4e3e
00000060: f48a aabe 86aa d9be feac 0cbf
-0.15751772 -0.97931564 -1.2413441 0.76761866 -0.2162823 -0.5735727 0.32331157 0.80206186
-0.41415817 0.16803968 0.061538678 0.13962032 -0.19928068 0.2659254 -0.4813202 -0.84763694
-0.8628038 -1.4212178 -1.3505375 0.098486915 -0.19050549 -0.80708855 0.16444944 0.20124792
-0.33309138 -0.42512912 -0.54951465

features.conv0.pointwise.weight f4 [64, 3, 1, 1]
00000000: 9235 a1bf 5aaf 94bc e228 07bf 3b91 37be
00000010: 0a4d a5be f0f5 ba3f c2b6 3d3f fe48 953e
00000020: f3fc 5cbf 77b6 2abf 0895 90bf 275a 963e
00000030: 3217 f33e b650 dabe 6f31 753f 2e62 793f
00000040: f2c5 8e3e b6bf 28bf 9f6f 193f 82d3 75bf
00000050: 0e93 953e 23ff 193f d2ab 79bf 1406 163f
00000060: e6d3 1440 b7af d33e ce05 b4be eb32 0bbf
00000070: 356a a53e 4b04 bdbf b923 85bf 8401 e5be
00000080: e5f3 f5be 2b13 093f 49c6 423f 7c5c 20bf
00000090: 4277 6dbe a26a 573f 8747 2bbf d070 683f
000000a0: 013c 4e3f 09e5 f1be 172d 2c40 cef4 77bd
000000b0: b3b8 ffbe 744a 813e 72f1 c03e e679 c0bf
000000c0: 9552 c03f 522b b0be cf66 00bf b3aa 2c3f
000000d0: 0e55 1d3f 4d90 1abf ad94 f93d 7bb6 94bf
000000e0: fd0f 3ebf c9a0 48be b584 93be ebd9 f13f
000000f0: 5f2d 9e3f 6236 48bf 32cf ad3e f2b7 a8be
00000100: 35c9 3bbf 62ae 4c3f 16a1 d8be 5615 273e
00000110: 3944 ef3f 113d 55bf 9aec 5b3f 7e50 a4be
00000120: 8372 f5be 3b2a 753f a0c9 f9be e805 43bf
00000130: 0475 75bf fd4e 883d 2d2e 033e 4967 973f
00000140: ab3d 913f ea45 d73d e096 1f3f 2b06 5fbf
00000150: 3655 7dbe 4583 1ebf 1a8c 783f 432f ffbe
00000160: 345e 37bf 6e66 2cbf f08e 243f 7dc3 be3f
00000170: 3f80 97be 2f34 2dbf bd34 0f3f 9529 593f
00000180: f998 81bf 694b e93d 168d 24bf 63d5 2abd
00000190: b916 a33f 22e5 fc3e 3797 513f 9fc5 5e3f
000001a0: afae d9be 2eba 2bbf 21f8 d5be a16d 5f3f
000001b0: d63f 073f 8536 9a3e 4bff a73f 2a96 00bf
000001c0: fd74 13bf 1102 493f 556a a8be 12fc 44bf
000001d0: d374 383f 5d44 453e 43c9 0940 203a 673e
000001e0: 6a00 3abf 8c9c a73e 3b11 253f a554 3b3f
000001f0: 8a5b a63f 52f0 9ebd ce16 303e f9ea 9a3f
00000200: bc51 273f fc7f fc3e 63d5 6b3e 1d8d 86bf
00000210: ca5b b33f 2f27 3fbf d77d 163f f147 453f
00000220: 12e6 4c3f dd3f d1be dc77 89bf f94a 513f
00000230: ec96 55be 8094 e8bf a913 4abc 4371 1d3f
00000240: fc47 79bf 4551 3d3f b348 c4bd ece1 df3e
00000250: 190d c93b 4d83 af3f 757b 9c3e 0bce 7bbe
00000260: d6ee 0dc0 6cc9 883e a4be 1c3f 35e3 993f
00000270: e098 7a3f 16bd 5abf f263 853e 68d7 c63e
00000280: 1e36 0b3e 2945 ffbf d010 b1bb 4839 e8be
00000290: 1277 a43f b6be 95bf 705a 1e3f 25df 5b3d
000002a0: ba4e 7f3e 170b 383f 8cd2 54bf 83f9 16bf
000002b0: 86a3 c3bd aa58 adbf d261 653f 4d73 37bf
000002c0: 01ae be3d 39ef 913e 95fb 233f f5b8 77bf
000002d0: a37c ea3e 1d48 5cbf 4865 193f 1176 adbe
000002e0: 03be 713f d53d 2ebf e5be 73bf de8d 3a3f
000002f0: 64d5 e23d ec95 98bf 88a2 36be 3da4 283f
-1.2594473 -0.01815002 -0.5279676 -0.17926495 -0.3228534 1.4606304 0.7410699 0.2915725
-0.8632347 -0.6668467 -1.1295481 0.29365656 0.47478634 -0.42639703 0.95778555 0.97415435
0.27885395 -0.6591753 0.59935945 -0.9602586 0.29213756 0.6015493 -0.975278 0.58603024
2.3254333 0.41344997 -0.3516068 -0.5437457 0.32307592 -1.4766935 -1.0401527 -0.4472772
-0.4803764 0.53544873 0.7608381 -0.6264112 -0.23190024 0.84147084 -0.6690602 0.9079714
0.8056031 -0.47245052 2.690252 -0.0605362 -0.49945602 0.25252116 0.37684208 -1.50372
1.5025202 -0.3440805 -0.50156873 0.67447966 0.6145791 -0.60376436 0.12186561 -1.1618189
-0.74243146 -0.19592585 -0.28812185 1.8894628 1.2357596 -0.7820798 0.3394714 -0.3295284
-0.7335389 0.7995359 -0.423104 0.16316733 1.8692695 -0.83296305 0.859079 -0.3209266
-0.47938928 0.95767564 -0.4878664 -0.7618089 -0.95881677 0.06655691 0.12810583 1.1828395
1.1346945 0.10511382 0.6233959 -0.87118787 -0.24739537 -0.6191905 0.9708878 -0.49840745
-0.7162812 -0.67343795 0.64280605 1.4903408 -0.29590032 -0.6765775 0.5593985 0.84829074
-1.0124809 0.113913365 -0.6427778 -0.041707408 1.274131 0.49393564 0.8187136 0.87020296
-0.42516086 -0.6708096 -0.4179087 0.87276655 0.5283178 0.3011972 1.3124784 -0.5022913
-0.57600385 0.7851878 -0.32893625 -0.7694713 0.7205326 0.1926436 2.152909 0.22580767
-0.7265688 0.32736623 0.64479417 0.7317603 1.2996686 -0.07760681 0.171962 1.2102958
0.6535909 0.49316394 0.2303062 -1.0511814 1.4012387 -0.74669164 0.58785766 0.770629
0.8003856 -0.40869036 -1.0739703 0.81755024 -0.20858353 -1.8170319 -0.012333789 0.6150095
-0.97375464 0.7395213 -0.09584179 0.43727052 0.0061355946 1.3711945 0.3056294 -0.24590318
-2.2177024 0.26716173 0.61228395 1.2022463 0.9788952 -0.8544477 0.26052815 0.38836217
0.13594863 -1.9942981 -0.0054036155 -0.45356202 1.2848837 -1.1698825 0.61856747 0.053679604
0.24932376 0.7189192 -0.8313377 -0.58974475 -0.09552674 -1.3542683 0.89602387 -0.7166031
0.09310532 0.28502825 0.6405576 -0.967666 0.45798215 -0.86047536 0.5992017 -0.3387914
0.9443056 -0.680631 -0.95213157 0.7287272 0.11075857 -1.1920753 -0.17835438 0.6587561

features.bn0.weight f4 [64]
00000000: 45c5 383f c3f7 8c3f da1a 363f 6327 233f
00000010: 49bb 863f 65e2 033f 08ad 0d3f 396e 153f
00000020: 6b45 493f db69 fb3e 8c9f 563f 38cf 243f
00000030: bc49 143f ff01 173f 1c33 f03e f5ad 5d3f
00000040: 24c4 033f c449 223f 7f1c 683f 5adc 4d3f
00000050: aa6b 253f 4f65 0c3f c9b4 533f 2334 0c3f
00000060: e0c7 053f 8c88 613f b487 823f 1568 533f
00000070: b06f 483f 428d 8c3f 7080 543f acc0 fb3e
00000080: 6e49 0a3f 0230 543f 149d 4f3f f5d3 3e3f
00000090: a699 5a3f 9d16 023f b103 0e3f 02ea 7c3f
000000a0: 6b49 0d3f 0744 333f 76c6 7e3f 09d4 3b3f
000000b0: 5468 fb3e 57ed 1c3f 5455 1e3f 9b29 ef3e
000000c0: 2e6a 053f 0a75 853f d2ec 673f fa79 7a3f
000000d0: beeb e03e 7100 393f 5943 963f da20 e63e
000000e0: 457b 163f f88c 863f d939 e03e 83ac 0e3f
000000f0: 24f4 f83e c4cf fe3e 1026 253f 79d8 0e3f
0.7217601 1.1013111 0.7113472 0.63731974 1.0525905 0.51517326 0.5534215 0.5837131
0.7862155 0.491042 0.838372 0.6437869 0.5792501 0.5898742 0.46913993 0.8659356
0.5147116 0.6339381 0.9066848 0.80414355 0.6461741 0.54842085 0.8269773 0.54767054
0.5225811 0.8809898 1.0197663 0.8258069 0.7829542 1.0980608 0.8300848 0.49170434
0.54018295 0.82885754 0.8109906 0.7454217 0.853907 0.50815755 0.5547438 0.9879457
0.5519015 0.70025676 0.9952158 0.73370415 0.49103034 0.6129965 0.6184895 0.4671143
0.5211514 1.0426342 0.90595734 0.9784237 0.43929857 0.722663 1.1739303 0.4494694
0.58781844 1.051177 0.43794134 0.5573198 0.48623765 0.49767888 0.64511204 0.5579906

features.bn0.bias f4 [64]
00000000: 3645 293f eba4 57bf 617f 42bd 4052 0abe
00000010: de00 59bf b8ed 6e3e 3c3b 273c caa4 4e3d
00000020: ce64 9ebe 1e51 1f3f 8383 653e fb4a 17bf
00000030: 0134 053f 2b50 193e 392a b83f a7bf 1ebf
00000040: 1e28 813d bdbf 08bd 5054 c13f e1d6 53bf
00000050: 78b4 b6be f6a8 c03e 17d7 9a3d b0c8 083f
00000060: cfbf 38bd e214 203e 5977 a9bf 6c60 1c3e
00000070: 1aad d8be 349f c23f 4976 1abe 061f 913e
00000080: adcd 32bf 5069 20bf a1ac 0dbf ade6 0abd
00000090: a443 1440 75a6 203f ae77 ed3e 764d f0be
000000a0: deb3 f03f 5247 d53f a8d5 4340 23ca d13d
000000b0: 6191 4d3d f9b3 9b3e 5f6a 3dbe 2f4b 363f
000000c0: 7bc7 04bf 02b5 2640 9cbb 263f 5431 a4bf
000000d0: 95a1 383f a03f 7bbd 6ccd 3ebf d331 663f
000000e0: 3152 86bc 6d55 dc3f 52c1 de3d 86d9 f0be
000000f0: 3c26 813f d862 503f 509b 17be 0d2b febe
0.6612123 -0.8423602 -0.04748476 -0.13507938 -0.8476695 0.2333287 0.010206994 0.050450124
-0.30936283 0.6223315 0.22413449 -0.59098786 0.52032477 0.14971988 1.4387885 -0.6201119
0.0630648 -0.03338598 1.5103855 -0.82749754 -0.35684562 0.37628907 0.075605564 0.53431225
-0.045104798 0.15632966 -1.3239547 0.15271157 -0.42319566 1.5204835 -0.15084185 0.28343982
-0.69845086 -0.62660694 -0.55341536 -0.033911396 2.3166285 0.62753993 0.4638037 -0.46934098
1.8804891 1.666239 3.0599155 0.10243633 0.050187472 0.30410746 -0.18497609 0.7120847
-0.51866883 2.6047978 0.6513002 -1.2827554 0.72121555 -0.061339974 -0.745322 0.89919776
-0.016396614 1.721357 0.10876717 -0.47040957 1.0089793 0.81400824 -0.14805341 -0.4964222

features.bn0.running_mean f4 [64]
00000000: 7d6f 79bf 5763 e83e 6a8a ea3e 738a b6bf
00000010: da2f e73e 334a 363f ccda dfbe 42a6 97be
00000020: eb49 0340 6888 1bbf c0b9 a4bf fc1e 793f
00000030: 01eb 073f dafb b03f b437 da3f e92e 88bd
00000040: 176a fb3e 00bd 683f 8609 b8bf 660a 453f
00000050: 8074 7a3e dd46 09bf de55 943f 23f3 c03e
00000060: 98ab 1d3f 7dc9 b4bf 3039 1440 da19 c83e
00000070: 19b4 81be 5675 aabf fe31 0940 60cd 503f
00000080: 4704 3ebf bd96 f23f 0c24 b63f 539a b0be
00000090: 3472 ce3f b207 f4be 4a04 1fbf 045e 3f40
000000a0: 9f0f bc3e e678 0640 a22e 0440 db78 063e
000000b0: 06f3 0b3f 21e3 a73f dc02 803e 8ed7 2cbf
000000c0: 61b8 8e3e a589 9c3f e983 7ebf 8e1b df3f
000000d0: b237 88bd e4e5 e2be d2c2 983e 3ba7 dd3d
000000e0: 5df5 1d3f 029a 83bf e5e3 84bd 3afb f83e
000000f0: 2963 88be 9261 153f 05ed cb3e 9fb8 fcbe
-0.9743574 0.4538829 0.45808727 -1.4261001 0.45153695 0.7120697 -0.43721616 -0.29619032
2.0513866 -0.60755014 -1.2869186 0.97312903 0.5309296 1.3826859 1.7048249 -0.066495724
0.49104378 0.9091339 -1.4377906 0.7696899 0.24458504 -0.53623754 1.1588705 0.376855
0.61589956 -1.4123989 2.3159904 0.39082223 -0.25332716 -1.3317058 2.1436763 0.8156338
-0.74225277 1.8952252 1.4229751 -0.3449274 1.6128602 -0.4766212 -0.6211592 2.9901133
0.36730668 2.101129 2.0653462 0.1313204 0.546677 1.3116189 0.25002182 -0.6751641
0.27875045 1.2229506 -0.9942003 1.7430284 -0.06651248 -0.44316018 0.29836136 0.10822912
0.6170252 -1.0281374 -0.0648878 0.4862917 -0.26638153 0.58352005 0.3982927 -0.49359605

features.bn0.running_var f4 [64]
00000000: 1612 6240 c5a8 8040 92ec 463f 7c3a 3c40
00000010: 53e6 f83f bc62 fe3e 8b34 e63e eb09 933e
00000020: 9c82 7740 a2b7 c940 0976 9e40 d2ca 043f
00000030: 8ad8 863e f07a af3f f4d7 2f40 a0f6 8240
00000040: bcca 523f d5b8 f23e b06c 0441 d14c f640
00000050: 4f98 f13e 858c cd3e f78d 2241 fd20 843e
00000060: a1af 8b3e e823 6140 b589 5441 7c99 183f
00000070: d09c 3f3f f90f cd40 a56e 9240 17a6 5440
00000080: 8a2b 3740 c540 d740 c717 c53f dabd 273f
00000090: a156 0f41 686b dc3e d2bb c33e e0f1 4b41
000000a0: 7d54 ac3f 93ee a240 3847 0741 1151 da3f
000000b0: 87df 9a3f c070 a43f f9da a83e 3aeb 993f
000000c0: e480 9f3e 86d2 de40 2753 8341 25ba 1541
000000d0: e370 a03e 18aa 1a41 9a9a 2c40 ff9f c73e
000000e0: 35b2 d83e e3cd 0541 9792 9c3e 9676 393f
000000f0: a156 7c3e f176 943e ee73 133f 1587 253f
3.5323539 4.0206017 0.7770473 2.9410696 1.9445289 0.49684703 0.44961962 0.28718504
3.8673468 6.303666 4.9519086 0.5187198 0.2633708 1.3709393 2.7475557 4.0926056
0.823406 0.4740664 8.276535 7.696877 0.47186515 0.4014627 10.159659 0.25806418
0.27282432 3.5178165 13.28362 0.596092 0.7484865 6.4082 4.5760064 3.3226373
2.8620324 6.7266564 1.5397881 0.65524065 8.95865 0.43050694 0.38229233 12.7465515
1.3463284 5.091623 8.454887 1.705599 1.2099465 1.2846909 0.32979563 1.202491
0.31153023 6.9631987 16.415602 9.357945 0.31336126 9.666527 2.6969361 0.38989255
0.4232346 8.362765 0.3058059 0.7244657 0.24642421 0.28996995 0.5759877 0.64659244

features.conv1.conv1.weight f4 [64, 1, 3, 3]
00000000: a4c5 d3be b7da 83be 4d7b 143f c1b8 e5be
00000010: a36e 9ebd 9e17 723f c9ba 65bf 9fd3 debe
00000020: 9910 873f ce4f a1bd 94e0 7ebf 8301 b73f
00000030: ce68 c5be bd19 75bf 5724 c83f bcf7 903e
00000040: f9f9 4ebe 048f 473f 7cb2 813c f3c7 5c3f
00000050: fb17 443f 5ec8 06bf 7ed5 0fbd 88b2 2f3f
00000060: e67a 42bf 4f1b 0abf b842 a13e e37d b33e
00000070: bea4 01bf edbe 06bf d968 943f 04e9 233d
00000080: ab5c 8abe 4441 573f 69a5 753e 3c98 31be
00000090: 5adb b9bf 3361 02bf f214 4fbf 87a8 40be
000000a0: 3712 2c3f 402f 4f3e 903c 0dbf 1c07 29bf
000000b0: bac9 0a3f c0ff efbe 1711 0ebf a12e e6be
000000c0: dc95 89be ffc9 84be 61bd e1bd 8268 c2be
000000d0: dcbe 38bf 76c6 03bf a46c 293f b102 573f
000000e0: ff24 ce3e 5e73 af3e 82ed 273e 4c07 c03e
000000f0: 09dc 69bd 6f8a 25be 02aa f93c 34eb d7be
00000100: c340 16be fd0a cb3d fdb1 35bf fc0a a83d
00000110: c0f8 70be 6218 35bf 4676 74be 0c05 75be
00000120: 7335 733f 833e c13e ef03 f2be 7a78 a6bd
00000130: a95c e23e 8abe bfbe be90 003e b9af 4b3f
00000140: 3efd 733e 9ba1 d0bc dc5e 7e3e 8060 0f3d
00000150: 757d bbbe d625 07bf 4ec5 68bf 64e0 f4be
00000160: f7ad 58bf baa2 47bf e5cc bf3e 8995 643f
00000170: ae79 fabe b73f df3e 931c 033f 1d25 f2be
00000180: bd9c cbbc 947d f8be 19ca 87bf a87b 983f
00000190: 62ea 3e3f 8f7b 263e a3fd b53e f5c1 083f
000001a0: 5bdd 8e3e b3cc 3b3f adc2 7e3e f313 ccbe
000001b0: 9591 49bd 9be4 31bf 7d5e 81bf b6e4 6f3f
000001c0: add6 393d 5af8 42be 2a64 683f a14f 6a3e
000001d0: a27b ea3d dfb0 de3e 268a 46bf 509d c1be
000001e0: 6ec2 763f 4c52 423e 6ab7 483e c92c a53e
000001f0: f0c1 1b3f 3849 41be deb1 db3d 6cf5 6cbe
00000200: 5504 873d e821 253f 6b36 82bf 9240 86bf
00000210: 0f82 093f 0a48 413f 49d1 563e 2c50 8a3f
00000220: 5f03 adbe 1afd b7be 86b9 753f 36b5 05bf
00000230: 9872 77be 6f90 243f 7c97 37be 27bb 7ebe
00000240: ac29 0b3f 3cbe 353f 1330 5e3e 9273 773f
00000250: 09ca 4d3e 6af1 063e 9295 693e bc52 13be
00000260: 8858 79be 762e d53e 55a1 dabe 2c47 dfbe
00000270: ed48 1d3f eaa4 55bf 4235 0abf d910 103f
00000280: 08b1 c6be 98cb 85be 5dc7 dabe 4493 f4be
00000290: 7f04 d33d c78a cbbd 8cb0 b1bf 35d4 a73e
000002a0: 8fe2 7d3f 83e4 1d3f 76d7 5f3e 99e6 dabf
000002b0: 3fa9 5ec0 f4a9 09c0 8db8 23bd 5e0a cebf
000002c0: 5eff 53bf 20e7 67be 93e0 683f 819c d1bf
000002d0: 0dce fb3e 8cf3 4f3f 3201 af3e 90c8 253f
000002e0: 2508 7a3e 0e62 e03e 7c52 8a3e 4861 8bbb
000002f0: 7410 b63e 3a96 b63e 1746 6dbf 22d0 79bf
00000300: 11b5 bb3e 65fd 843e 09b1 bfbe 9eec 1b3f
00000310: a2ad 223f 6783 2cbe 08a3 53bf 6285 bfbd
00000320: d804 c93d 5bb5 cf3e b70e 963f 4c3d f63d
00000330: d670 5cbf 65fc 9fbe ef5c 8d3c 5549 95bf
00000340: 7f59 e4be e94d 0b3f b6c0 c8be 3b8d c53e
00000350: 74e6 873f 3cc3 853d ea1d ec3d 5df1 ae3e
00000360: 347c 953d f07d 703e 2391 edbc 110c f83e
00000370: 6a83 ca3d 2633 e73e 2616 8f3e 84cf 233f
00000380: e410 0c3f f9f9 7abf f9f9 0abe 39b6 e4bd
00000390: 3f04 193e e796 ba3f 8ff6 ce3c f525 7e3e
000003a0: f668 ab3d 9b2e cfbe c9a7 d03e f40b 983d
000003b0: 6ba2 27bf fa7e 9abf a9a1 1f3f b5f4 813e
000003c0: f276 83be 8870 873e 393a 8141 a32b 1c3f
000003d0: 656f 193f 13c1 b83d 2e68 b83e 9e3b 3a3f
000003e0: cd4e 75be bef4 abbe d61a 4abf ea6e 81bf
000003f0: 2b91 c03d 4ee3 3ebe 0e81 7cbe f037 b63e
-0.41361725 -0.25752804 0.5800064 -0.4486752 -0.07735946 0.94567287 -0.89738137 -0.4352083
1.055194 -0.0787655 -0.9956143 1.4297336 -0.38556522 -0.957424 1.563609 0.28314006
-0.20212545 0.779526 0.015832178 0.862426 0.7659909 -0.52649486 -0.03511571 0.6863179
-0.7596878 -0.5394792 0.31496215 0.3505698 -0.50642 -0.5263508 1.1594497 0.040017143
-0.27023825 0.8408396 0.2398888 -0.17343229 -1.4520066 -0.50929564 -0.80891335 -0.18814288
0.67215294 0.20232868 -0.55170536 -0.66026473 0.5421406 -0.4687481 -0.5549483 -0.4495745
-0.26872146 -0.2593536 -0.11022449 -0.37970358 -0.7216623 -0.514747 0.661814 0.8398848
0.402626 0.34267706 0.16399196 0.37505567 -0.057094608 -0.1616609 0.030476574 -0.42171633
-0.14673142 0.09914205 -0.70974714 0.0820522 -0.2353239 -0.7074033 -0.23873243 -0.23927706
0.9500343 0.37743005 -0.47268626 -0.08128448 0.4421132 -0.37450057 0.12555215 0.79565006
0.23827073 -0.025467684 0.24840873 0.03500414 -0.36619154 -0.5279211 -0.90926063 -0.47827446
-0.8464045 -0.77982676 0.3746101 0.8929067 -0.4892096 0.43603298 0.51215476 -0.4729394
-0.024855012 -0.48533309 -1.060855 1.1912737 0.7457639 0.16258071 0.35545072 0.53420955
0.27903256 0.7335922 0.2487895 -0.3985897 -0.049211103 -0.6948945 -1.010696 0.9370836
0.045370746 -0.19040051 0.9077784 0.22881939 0.11449362 0.43494317 -0.7755455 -0.37815332
0.96390426 0.18976706 0.19601217 0.3226073 0.608428 -0.18875587 0.10727285 -0.23140496
0.06592623 0.6450486 -1.0172857 -1.0488455 0.5371408 0.7550055 0.20978273 1.0805717
-0.33791634 -0.3593529 0.9598621 -0.5222963 -0.24164808 0.6428289 -0.1792888 -0.2487608
0.5436046 0.709934 0.21698026 0.9666072 0.20096602 0.1317803 0.22810963 -0.1438703
-0.24350178 0.4163701 -0.42701212 -0.43608987 0.614394 -0.83454764 -0.53987515 0.5627571
-0.3880694 -0.26131892 -0.42730227 -0.47768605 0.10303592 -0.09938579 -1.3882003 0.3277909
0.99173826 0.61676806 0.21859536 -1.7101623 -3.47908 -2.150998 -0.039970923 -1.6096914
-0.82811534 -0.22646761 0.90967673 -1.6375886 0.49180642 0.81231 0.341806 0.6475916
0.2441717 0.4382481 0.27016056 -0.00425354 0.35559428 0.3566149 -0.92685074 -0.9758321
0.3666158 0.25974575 -0.37439755 0.60907924 0.6354619 -0.16847001 -0.8267064 -0.09351613
0.09815377 0.4056805 1.1723241 0.1202341 -0.86109674 -0.3124725 0.017256228 -1.1663004
-0.4459953 0.54415756 -0.39209527 0.38584313 1.0617204 0.065313786 0.11529143 0.3416852
0.072990805 0.23485541 -0.02899987 0.48446706 0.098883465 0.4515621 0.27946585 0.6398852
0.54713273 -0.9803768 -0.1357192 -0.11167569 0.14943026 1.4577302 0.025264053 0.24819167
0.08369629 -0.40465245 0.4075301 0.07424155 -0.65482205 -1.207 0.6235605 0.2538201
-0.25676686 0.26453042 16.153429 0.61004084 0.599356 0.09021201 0.36016983 0.7274722
-0.23955841 -0.3358516 -0.789472 -1.0111973 0.094026886 -0.18641397 -0.24658605 0.35589552

features.conv1.pointwise.weight f4 [64, 64, 1, 1]
00000000: c6ca 39be fc52 49bf e194 6b3f 221b 233f
00000010: 35e5 863e 6b2d 3ebf 47df 663e 4b5f 573e
00000020: eca5 87bf 4b3d 8a3f 7e3e 4abe 45b3 b13d
00000030: 0e69 523e b951 7d3f 3a3c a73e ba06 623c
00000040: 9f4a 123f 8dbc 14bf 396b 623f b5c2 00be
00000050: fc1d 5abd 91b1 2e3f 113f aebe 9a93 3ebf
00000060: bf54 3c3e b51c 70bd 0233 a7be 3d18 a13e
00000070: 1147 32be 7038 f2bd d077 853f 675e 0dbc
00000080: 796b 3abe 9851 ab3e e721 80bd 9c57 263f
00000090: fd92 013f a9c1 9cbe 74a2 26bf 36a0 3bbf
000000a0: edbe b53a 2fbd 84be 60bb b93e 2d18 8f3d
000000b0: 128c 4f3f bbb1 233f 9f91 c1bc c5df 0ebe
000000c0: f6b2 083f 7b49 9fbf 4a68 453f ecf2 1dc0
000000d0: 8f42 91be 2ae1 a8bf 5ca3 f2be 1fd7 443f
000000e0: 8260 8abf ed2b de3a 92e8 803d 430c bf3f
000000f0: 3fd0 76bf f546 543f 3e60 edbe 86f6 eabe
00000100: d00c 953f ca48 e23f b5b2 b6be a1a0 c63e
00000110: 6409 4dbf 36c0 2abf 7679 2d3e 7d88 843f
00000120: d174 793e a4bc e13e 6295 e7bd 498d 493e
00000130: 7b08 3e3d 054b 033e d53d 443f fd59 0bbf
00000140: bb56 33bf 250d 513f e5cd c3be cd7c 48be
00000150: 493d 70be eac6 b13f ee30 2b3f 87f3 2a3f
00000160: a260 4dbe 45a7 e6be 316f cebe f9e0 4fbe
00000170: 40c7 84bf f5ec 97bb 6a61 41bf 3444 3d3f
00000180: b2f8 28bf cafb 583e 90c8 fbbe 2faf b0bf
00000190: cfd0 463f bd18 983d 87fb c03e 2f45 a7bf
000001a0: beeb 45bf 0e45 a3bf 1159 4dbe 3154 8c3f
000001b0: 5135 1bbf d7ef 3e3e 0d79 9abb 4353 38bf
000001c0: be72 023f 257f 683f 13b9 18bf 274a 4ec0
000001d0: 73f5 4dbe 931e 6d3e 214e 15bf 6962 31bf
000001e0: 2026 423e 2f4a f53d e765 263f c04a 4d3f
000001f0: 5518 2cbf 50c7 c33a e6c5 52bf f119 a4bf
00000200: 61f2 37be f795 923d 886a fe3e 4927 5a3e
00000210: 8717 2c39 2274 ea3e 7dcc 84bf 8dc5 c4be
00000220: adb1 37bf ce73 e83e 3d10 56bd 288d a0bd
00000230: 2610 2c3f aa92 37bf 9596 27bd 104f 36bf
00000240: 0ae2 013f ce3c 11bf 1da7 23be 6ed1 123f
00000250: 9fb8 afbf 33af 553e f11e 3b3b ff23 823e
00000260: 55aa 603e a375 643f 0d75 97be f5a2 e2be
00000270: 05e3 83bf 1b83 c13f 1236 5b3f 6995 063f
00000280: 3773 5ebf b53e c53d e8cd 663e 86f5 98bf
00000290: c606 c43e 0e32 2fbf f21d a03c d773 aa3f
000002a0: 6310 55bf 6205 a0be ef04 71bf 6751 05bf
000002b0: e901 983f 9d98 773f 4ea4 6a3f 58fe 333f
000002c0: ac2f 7abf a55c 9a3e 14b0 b33e 9443 683f
000002d0: c4f4 07bf 6138 83bd 2cd8 b93e afd2 0cbe
000002e0: 7658 00bf d1b4 7d3f 01df 043c 4df5 563e
000002f0: 8057 3c3e 98d9 da3d bc87 2d3e 8735 8e3e
00000300: 9f5c 6abf c8f9 1bbf d854 8abf 593b 09bf
00000310: 461e d83d 5dda c03d 811d b2be 4953 1c3e
00000320: a283 e4be dfa2 c43e 86fc e73e 28b1 03bf
00000330: 4981 7d3d a2af a4be c640 a43f 09c0 e63e
00000340: 0934 21be affd ec3e c7df 67bf e305 023f
00000350: 259f 41be 89f7 ffbf 7ac0 293f 6193 ab3d
00000360: 619c 3f3e 8adc b03e d710 79bd 0fb3 8cbf
00000370: dbca a9be 7cae a5bf 3b9e 00bf 291a 1b3e
00000380: 926d a8be b4bb 9abf c255 6b3f fc77 b63c
00000390: 825d c6be e46a 893e ce36 1b3f a8f1 8cbe
000003a0: d316 33bf b913 b43f d18c c5be c598 a0bf
000003b0: ab63 953e 176c 393f bd63 053f 6ea2 ac3e
000003c0: 33a2 50bf e035 0840 17e7 04bf e749 f5bf
000003d0: adbe e03e 3599 4fbe e54c c2bf 8bfe b83d
000003e0: 9987 bd3c 2295 e73e b602 51be 9d0c ae3c
000003f0: 9cee 243f b811 a9be f4b3 fdbe 363e 5dbf
-0.18143758 -0.7864225 0.92024046 0.63713276 0.26346746 -0.7428805 0.22546111 0.21032445
-1.059751 1.0799955 -0.19750401 0.08676771 0.20547888 0.98952824 0.32663137 0.013795549
0.5714511 -0.58100206 0.8844486 -0.12574275 -0.05325125 0.68239695 -0.3403249 -0.7444397
0.18391703 -0.058621127 -0.32656103 0.31463805 -0.17409922 -0.11827171 1.0427189 -0.008628464
-0.1820506 0.3346069 -0.06256466 0.6497743 0.5061491 -0.306165 -0.65091634 -0.7329134
0.0013866104 -0.25925586 0.36275768 0.06987033 0.81073105 0.6394307 -0.023629008 -0.13952549
0.5339807 -1.24443 0.7711226 -2.4679518 -0.28371093 -1.3193715 -0.47390258 0.7689075
-1.0810702 0.0016950347 0.06294359 1.4925617 -0.9641151 0.8292077 -0.4636249 -0.45891207
1.1644535 1.7678463 -0.35683218 0.38794425 -0.80092454 -0.6669954 0.16940865 1.0354153
0.24360968 0.44089234 -0.113077894 0.19682802 0.046394806 0.12821586 0.7665685 -0.54434186
-0.70054215 0.8166068 -0.38243023 -0.19578858 -0.23460878 1.3888829 0.66871536 0.66777843
-0.20056394 -0.45049492 -0.40319207 -0.20300664 -1.0373306 -0.004636402 -0.7553927 0.73932195
-0.6600448 0.211898 -0.49176455 -1.3803462 0.77662367 0.074265935 0.376919 -1.3067988
-0.7731284 -1.2755449 -0.20053507 1.0963193 -0.6062823 0.18646179 -0.0047141374 -0.7200205
0.5095633 0.9081901 -0.596574 -3.223276 -0.20113163 0.23156194 -0.5832234 -0.69290787
0.18959856 0.1197704 0.6499924 0.80192184 -0.6722463 0.0014936719 -0.8233322 -1.2820417
-0.17963554 0.0715751 0.49690652 0.21304049 0.00016411963 0.45791727 -1.0374905 -0.3843197
-0.71755487 0.45400852 -0.05226158 -0.078394234 0.6721214 -0.71708167 -0.04091509 -0.7121439
0.50735533 -0.56733406 -0.15981717 0.57350814 -1.3728217 0.20867614 0.0028552378 0.25418088
0.21939977 0.89242 -0.2958149 -0.4426495 -1.0303656 1.5118135 0.8562938 0.5257173
-0.86894554 0.09631101 0.22539485 -1.1949928 0.38286418 -0.6843575 0.019545529 1.3316602
-0.8322813 -0.31254107 -0.94148153 -0.52077335 1.1875583 0.96717244 0.9165696 0.7030997
-0.9772899 0.30148807 0.35095274 0.90728116 -0.5310786 -0.06407238 0.3629774 -0.13752244
-0.5013498 0.9910403 0.008109809 0.20992012 0.18392754 0.10686034 0.1694631 0.27775213
-0.9154758 -0.6092801 -1.0807142 -0.5360618 0.10552649 0.094166495 -0.34788135 0.15266146
-0.44631678 0.3840551 0.45309848 -0.51442194 0.061890874 -0.32165247 1.2832267 0.45068386
-0.15742506 0.46287295 -0.9057583 0.5079023 -0.18908365 -1.9997417 0.6630932 0.0837772
0.18711998 0.34543258 -0.060807075 -1.0992144 -0.3316258 -1.2943873 -0.5024144 0.15146698
-0.32896096 -1.2088532 0.9192773 0.02227401 -0.38743216 0.26839364 0.606305 -0.2752812
-0.699567 1.4068519 -0.38583997 -1.2546622 0.29177603 0.72430557 0.52105314 0.33717674
-0.81497496 2.1282883 -0.51915115 -1.9163178 0.43895474 -0.20273288 -1.5179716 0.09032925
0.023135947 0.45230967 -0.2041119 0.021246249 0.6442659 -0.3302133 -0.49551356 -0.8642305

features.bn1.weight f4 [64]
00000000: a2d5 483f 074f 853f bdb9 423f bdf9 443f
00000010: 26e6 383f d681 323f abb3 5e3f 99fe 393f
00000020: 716c 4b3f e859 423f 86b9 7b3f a097 3e3f
00000030: d225 663f eee8 3d3f ed92 843f 4aed 283f
00000040: 0345 353f 9300 383f 90b5 663f 78fa 553f
00000050: 1176 2f3f 5f62 303f 974a 4a3f 2280 333f
00000060: 5ba8 4a3f 238f 233f ad1f 7a3f 0d5f 2e3f
00000070: 8e70 803f 9ebf 7d3f 917c 653f 33fa 4e3f
00000080: 34e8 4c3f 873a 4c3f 2097 203f d366 483f
00000090: 4c4a 463f 1c07 653f ec93 413f d5ae 4b3f
000000a0: ed71 563f a0b1 553f 3690 4f3f 8ffa 393f
000000b0: c612 463f 5de1 3d3f a176 3d3f 4f51 413f
000000c0: a4e8 553f db44 2a3f d5ea 6e3f a4b4 2b3f
000000d0: 70cd 273f d331 793f 78ab 4e3f e303 4b3f
000000e0: edcf 4e3f 1641 593f 510c 5a3f 06f9 613f
000000f0: 1466 3e3f 60b1 783f 674c 3a3f c0a0 5b3f
0.7845098 1.0414742 0.76064664 0.7694357 0.7222618 0.69729364 0.869929 0.7265411
0.79462343 0.75918436 0.9832996 0.7445011 0.8990146 0.7418355 1.0357338 0.65987074
0.7080843 0.71875876 0.9012079 0.8358531 0.6853953 0.689001 0.79020065 0.7011739
0.7916314 0.63890284 0.97704583 0.68113786 1.0034349 0.9912051 0.896432 0.80850524
0.80041814 0.79776806 0.627306 0.782819 0.7745712 0.89463973 0.75616336 0.7956365
0.83767587 0.8347416 0.81079423 0.7264795 0.77372396 0.74172 0.7400914 0.7551469
0.83558106 0.66511315 0.93327075 0.6707251 0.6554785 0.9734165 0.8073039 0.79302806
0.8078602 0.8486494 0.85175043 0.88270605 0.7437451 0.9714565 0.7277283 0.8579216

features.bn1.bias f4 [64]
00000000: 5f85 f0be 4e4a dbbe d69f 08bf eb84 c0be
00000010: 5de2 b03e eb28 53be 6c22 e7bf b6f1 2ebf
00000020: bdcc f9be 2450 cdbe bf4b fabe 6855 abbe
00000030: de0e edbe 3436 04bf dc9f 64be dbc1 9e3d
00000040: 7d4c e9be 006e 80be ec0d f3bd 6653 a4be
00000050: 0134 93be a699 e4be 915f f1be 4562 0b3f
00000060: bd3f e2be 988b 56bd 7730 05bf b9bd a3bd
00000070: 619b 64bf bc41 b1be 83fb c83e 5be8 d0be
00000080: 6038 20bf 4e73 063d cc94 e73e 38f6 a03d
00000090: bc1d 37bf 29f2 1dbf cee3 0dbf 2110 02bf
000000a0: ccee a0be 47e5 49bf 9486 1bc0 57a9 84be
000000b0: eb6b 8dbe 4c2f eebe 3fe1 b4be 3ba8 2cbf
000000c0: 5abe 0cc0 26e4 603e 3e84 4c3d 6e95 9bbe
000000d0: 1154 a5bd 949c 40bf ccde 11bf 1e6c b6be
000000e0: d672 98bd 7545 1fbf 1716 2fbf 964d 50bf
000000f0: 8259 dabe 238e 23bf 8e0c a2be 11ec bcbe
-0.46976754 -0.42830127 -0.5336889 -0.37601408 0.345477 -0.20621078 -1.805738 -0.6833757
-0.48789015 -0.40100205 -0.48885915 -0.33463597 -0.46300405 -0.5164521 -0.22326607 0.07751819
-0.45566168 -0.25083923 -0.1186789 -0.32094878 -0.28750613 -0.44648474 -0.47143224 0.5444682
-0.44189253 -0.05237922 -0.52027076 -0.07995171 -0.8929959 -0.34620464 0.39254388 -0.40802273
-0.6258602 0.032824807 0.4523071 0.078594625 -0.71529746 -0.6169763 -0.5542573 -0.5080586
-0.31432188 -0.78865474 -2.430089 -0.25910446 -0.27621397 -0.4652046 -0.353281 -0.674442
-2.1991181 0.21962032 0.049930803 -0.30387443 -0.08072675 -0.7523892 -0.56980586 -0.35629362
-0.07443778 -0.6221536 -0.6839308 -0.81368387 -0.42646414 -0.6388876 -0.31650203 -0.36898854

features.bn1.running_mean f4 [64]
00000000: f3cd 51c0 cad8 1dc1 af6c 17c1 3964 e9bf
00000010: d4c8 8abf 22dc 3bc0 e529 c53e 153c a3c0
00000020: 1b2f 15c1 6a54 8ac0 f97b 20bf 168f e4c0
00000030: dd8d 743f 9850 c4c0 0281 8dc1 af71 1641
00000040: 9ba7 a1c0 226d 2d40 d958 26c1 cdca 45c0
00000050: 5d4c f73f ed8f 47c0 8524 c5c0 0536 2340
00000060: 6ae8 32c0 c690 af3f 2c57 52c1 0dd2 dcbf
00000070: 5656 87c0 ddaf c5c0 130b 4c41 9d59 99c0
00000080: ec68 adc0 fd5f 1840 d601 3c41 aa8e da3f
00000090: 6de9 21c0 90ef 43c0 3b6e 883f 03f1 8fc0
000000a0: 3a27 d1c0 662b d1be 0ceb ee3f 1fb7 e7c0
000000b0: 9f6b 10c1 51ba 22c1 6215 a2c0 c16e 0abf
000000c0: f156 9140 7a9d ce3f aa10 57c0 aeb0 5bbe
000000d0: 1f3b 13c0 2b14 65c0 e1c7 33c0 a383 ebc0
000000e0: 3215 e3c0 59bd 41c0 ebcc 6dc1 be14 fbc0
000000f0: 2a98 8540 6ff0 12c1 5c44 e8bd 4ad2 b1c0
-3.2781951 -9.865427 -9.464034 -1.823371 -1.0842538 -2.9353108 0.38508525 -5.101084
-9.324 -4.3228045 -0.6268917 -7.1424665 0.95528966 -6.134838 -17.687992 9.402755
-5.0517097 2.709786 -10.396691 -3.090503 1.9320179 -3.1181595 -6.160708 2.550172
-2.7954354 1.3716056 -13.146282 -1.7251602 -4.229289 -6.1777177 12.752704 -4.792189
-5.419058 2.3808587 11.750448 1.7074788 -2.5298722 -3.0614967 1.065864 -4.4981704
-6.5360384 -0.40853423 1.8665481 -7.2411036 -9.026275 -10.170487 -5.06511 -0.5407525
4.541863 1.6141808 -3.360392 -0.21454117 -2.3004835 -3.579356 -2.8090746 -7.359819
-7.0963373 -3.0271819 -14.862529 -7.846282 4.1748247 -9.1837 -0.113411635 -5.55692

features.bn1.running_var f4 [64]
00000000: 3e38 0041 05a2 8d41 6b0a 5c41 7b9f 8b41
00000010: 2e79 d741 b9d3 f240 2492 5041 464a 8b40
00000020: cbd2 8841 c810 e340 3754 c040 8d23 a440
00000030: e3a1 4141 86c9 2141 363d ac40 7680 1341
00000040: a27c db40 bb79 d240 0e01 4e41 23f7 3141
00000050: 7faf 1241 0897 eb40 0c6e f640 6a05 8441
00000060: 77d3 0541 8e64 0941 ca74 7a41 f690 e240
00000070: 34e9 2041 cfbd 4641 8ce7 2641 c6b8 4241
00000080: 9ea4 ab40 9a4a bd40 430e db40 0170 9b41
00000090: 7ab8 9740 e44e 8a41 c8a9 6a41 5f34 cc40
000000a0: d262 8741 d4bd 1d41 adf4 9b42 3447 3941
000000b0: 9a1c c740 285f 9c41 d9d1 2441 d5ba f740
000000c0: be37 7c43 cc06 9741 7aca 9541 395f d540
000000d0: d693 7841 721b a941 98da 1441 75e4 e540
000000e0: 0f6e 9541 a6d2 2541 bc45 1b41 cdca db40
000000f0: 032f ea40 c360 5a41 0bd3 0741 cb60 4041
8.013731 17.704111 13.752543 17.452871 26.93417 7.588345 13.035679 4.3528166
17.102926 7.0957985 6.01028 5.1293397 12.102023 10.1117 5.382472 9.218863
6.858964 6.5773597 12.8752575 11.122836 9.167846 7.3621864 7.7009335 16.502644
8.364127 8.5870495 15.653513 7.0801954 10.056934 12.42134 10.43153 12.170111
5.363845 5.9153566 6.845491 19.42969 4.741269 17.28852 14.6664505 6.381393
16.923252 9.858845 77.97788 11.579884 6.2222414 19.546463 10.301232 7.7415566
252.21774 18.878319 18.723866 6.667874 15.536093 21.138401 9.303368 7.184138
18.67874 10.363928 9.704525 6.868506 7.3182387 13.648623 8.489024 12.023631

features.conv2.conv1.weight f4 [64, 1, 3, 3]
00000000: 8169 0cbe 051b d73e 1d7f 793f 4d1d 41bf
00000010: da0d 3e3e 4599 493f 4be2 65bf 3d69 d2bd
00000020: 5d5f b23e ec84 9e3e 5a25 443f f9d5 703f
00000030: 2f04 883d 34b8 fb3e 8b69 253f 1a0f 243e
00000040: 71ac 0b3f 6521 2e3e 96f4 843f 0faa 333f
00000050: ee7e 203e c756 823f 3853 293f 6c0b 593e
00000060: badc 9f3f 7efe 893f 7fbd 003e 6a3b c63e
00000070: bad4 ab3e dea4 363e 4580 523f ef24 6f3f
00000080: 74ad 373f fc6d 153f 11b6 0a3f becb cd3e
00000090: 806e 06bf dd56 92bf 5d9f 5fbf 89e4 3bba
000000a0: 6da6 12bf 0b5e 56bf 07dc 483e 82bf bc3d
000000b0: ccd3 88be 27ea c5be e9e3 fcbe 271a bfbe
000000c0: 0a98 f3be 6dfd 0fbf 7a8b cdbe 5865 babe
000000d0: fbdd 2cbf 7d22 a0be dccd 17c0 ad34 bcbe
000000e0: 971a f9be e6e8 573f 7a28 90bf a7e6 80be
000000f0: 8675 98be 8c58 5abe bfb7 863d e48b 733f
00000100: 7b0d 673f f45c fc3e 55e5 423f 95d8 373f
00000110: dd75 1c3f 7a41 a83e 6dd5 f23e e2ba a43e
00000120: 7dc4 3a3f f932 1e3f f33a 0d3f d41e 2a3f
00000130: a36e d03e 3f6d 383f e850 243f 3fc6 583f
00000140: e427 1a3f e668 1d3f d236 df3e 3bdf 0d3f
00000150: c551 df3e 517d a23e 578b 923e 8596 3c3f
00000160: e48b 403f 2579 343f c78e 0fbf 3877 57bf
00000170: a6f2 4abf 3d01 b4be 4b46 52bf cea1 31bf
00000180: 779c babd 79e2 17bf cb51 04bf 57ee 9b3e
00000190: fef9 f23e a057 1c3f ea4b d03e dce3 113f
000001a0: 1ccc 273f df53 ce3e 6c75 663f d342 cb3e
000001b0: bd3f a8be ebec bcbe 69a9 f73e 68b1 2d3e
000001c0: 0039 c83e 9589 2b3f fcb7 2d3f b2c8 9a3f
000001d0: af9e 653f 0ae5 44bf 4595 43bf 7598 b8bd
000001e0: 1df0 71bf aa04 21bf fba6 24be 2bec 34bf
000001f0: 6ae4 a5be 6673 8ebe 5055 37bf 0d38 f23e
00000200: ce69 383f 07f6 01bf 6e88 0cbe 3165 5a3f
00000210: 0abf 6bbe e4f3 eb3d 902f 2e3f d9af 86bf
00000220: f5d7 76bd 0c24 223f 22c5 3ebf f523 b33d
00000230: 881e 433f 73b9 75be c60b ef3d 8342 053f
00000240: b1de afbc 9079 2abe 942c 68be 63da 883e
00000250: f70b 1abe 9977 45bf c397 abbd b764 09bf
00000260: 48ca 76bf d380 f7be b91d 66bf 41a2 5abf
00000270: 56a5 4ebf 3d52 1bbf 6829 a0be ffbc b0be
00000280: 64b7 f1bd 88ec 853d d68a 523f 67f1 ad3e
00000290: c675 353e 8c5b 7a3f 75a1 be3d a280 3cbe
000002a0: 0692 493f 1c04 0b3f 3720 42bd d77c 3abf
000002b0: fddd 903e 5193 733f 23ff 3ebf ede6 87bc
000002c0: e85c 6a3f 2b5d 1cbf e002 aabe 787c 113f
000002d0: 28eb 21bf 2c67 fbbd 4d45 363d 22b2 4abf
000002e0: f18f c1be 8a15 57be ebb1 41bf 4a1d 25bf
000002f0: 0430 e4be dbb9 413f 3a28 313f 65ba b63e
00000300: 96ae 6e3f 51b8 2f3f f536 073f 20e2 253f
00000310: 1f94 be3e 85ce f23e 1018 8e3e aeb9 343f
00000320: 3be7 473f 626a 3a3f 0585 1f3f 0231 543f
00000330: bf35 0a3f 5ab3 e83e 6067 233f 9c29 973f
00000340: 5ffb 42bf 1f5e 52bd 25c0 b4bd 8edf df3e
00000350: 2709 24bf 9ec8 363f ea4f 193e e331 6c3e
00000360: e109 80bf a5b8 3bbf a8f4 0ebf 185b 2abf
00000370: 38d2 06bf b9e8 b2be c88b dbbe 103f 6fbe
00000380: cc6f 8ebe c227 3dbf d973 22bf d501 95be
00000390: b341 04bf 077c 29bf c51c 073e 5ef2 1e3d
000003a0: 31ad f93e 3901 3f3f 6734 353e 7a58 6cbe
000003b0: b4b9 49be dd4b 653f 6e8c 573f c9d5 ca3e
000003c0: 9790 533f 7f2e a93f 8999 493f 0bcb 22bc
000003d0: cf14 173f 58d3 863f bb16 a3bd ecad 1a3f
000003e0: 35e8 853f 7189 97bd d334 303e de72 563e
000003f0: 6764 e13e 041d c53f 1b5d 5f3f 312e 733f
-0.13712122 0.42012802 0.97459584 -0.75435334 0.18559971 0.78749496 -0.8979842 -0.10273979
0.3483838 0.30960786 0.76619494 0.94076496 0.06641423 0.49163973 0.6461417 0.16021386
0.5456 0.17004927 1.0387142 0.70181364 0.1567342 1.0182732 0.66142607 0.21195763
1.2489235 1.078079 0.12572287 0.38717204 0.33560735 0.1783633 0.82226974 0.9341573
0.71749043 0.5837095 0.5418406 0.40194505 -0.5251236 -1.1432759 -0.87352544 -0.0007167538
-0.57285196 -0.8373725 0.19615184 0.09216215 -0.26724088 -0.38655207 -0.49392632 -0.3732464
-0.47576934 -0.5624607 -0.40145475 -0.36405444 -0.67526215 -0.31276312 -2.3719397 -0.36758938
-0.486531 0.8433975 -1.1262352 -0.25175974 -0.29777163 -0.2132284 0.065780155 0.9513533
0.90254945 0.49289668 0.7613118 0.7181485 0.61117345 0.32862455 0.47428456 0.3217383
0.7295607 0.6179653 0.55168074 0.6645329 0.4070941 0.72041696 0.64185953 0.846775
0.6021712 0.6148819 0.43596512 0.5541875 0.43617073 0.31736234 0.28621933 0.73667175
0.75213456 0.7049735 -0.56077236 -0.8416629 -0.792765 -0.35157195 -0.8213851 -0.6938752
-0.091118746 -0.59329945 -0.51687306 0.30455276 0.47456354 0.61071205 0.40682918 0.5698831
0.6554582 0.40298364 0.9002292 0.3969942 -0.32861128 -0.36899504 0.48371437 0.16962206
0.39105988 0.6700681 0.6785886 1.2092497 0.89695257 -0.76911986 -0.7639964 -0.09013454
-0.9450701 -0.6289774 -0.16079323 -0.70672864 -0.3240083 -0.27822417 -0.7161455 0.47308388
0.72036445 -0.5076603 -0.13723919 0.85310656 -0.23022094 0.11521128 0.68041325 -1.0522414
-0.060264546 0.63336253 -0.7451955 0.08747093 0.7621846 -0.23996525 0.116721675 0.52054614
-0.021468492 -0.16647935 -0.22673255 0.26729116 -0.15043627 -0.77135617 -0.083785556 -0.53669304
-0.96402407 -0.48340473 -0.89889103 -0.8540383 -0.8072103 -0.6067236 -0.3128159 -0.34519193
-0.11802557 0.065392554 0.82243097 0.33973238 0.17720708 0.9779594 0.09308139 -0.18408445
0.7873844 0.54303145 -0.047394004 -0.7284674 0.28294364 0.9514666 -0.7460806 -0.016589606
0.91548014 -0.61079663 -0.33205318 0.5683055 -0.63249445 -0.12275538 0.044499684 -0.7917806
-0.3780513 -0.2100431 -0.75662106 -0.64497817 -0.44567883 0.7567422 0.69202006 0.35689083
0.93235147 0.6864062 0.5281823 0.64798164 0.37222382 0.47423187 0.27752733 0.70595825
0.78087205 0.7281858 0.62312347 0.8288728 0.5398826 0.45449334 0.6382961 1.1809573
-0.7616481 -0.051359292 -0.08825711 0.43725246 -0.64076465 0.7139987 0.14971891 0.23065905
-1.0003015 -0.7332862 -0.55842066 -0.6654525 -0.5266452 -0.34943178 -0.42880082 -0.233639
-0.2781967 -0.7388879 -0.6345802 -0.2910296 -0.5166275 -0.66204876 0.13194568 0.038805358
0.48764947 0.7461124 0.17695771 -0.23080626 -0.19699746 0.89568883 0.84198654 0.3961623
0.826425 1.3217314 0.787499 -0.0099361045 0.59016126 1.0533247 -0.0796332 0.60421634
1.0461489 -0.07399262 0.17207651 0.20942256 0.44021913 1.539948 0.8725144 0.9499236

features.conv2.pointwise.weight f4 [64, 64, 1, 1]
00000000: ce8c 883e 2971 bebc 0d03 903e cf9b b73d
00000010: 5f09 9bbc ebe6 3bbf d9df 8bbe 64cb 8ebf
00000020: bf0c 143e 0731 22be af63 863f 1808 3abf
00000030: 2a41 6ebd 8b12 8abf c5eb 81be f294 02bf
00000040: 58f8 15bf 7de8 23be 1a6d 223f f8f2 7dbb
00000050: 6438 03bf e4ee 533e 326b c03e f95c 253f
00000060: ec7e b5be 8afc 04bf c3fa 13c0 b9d4 cebd
00000070: 6a7b a1bd f330 db3c 43fd a2bf c489 e8be
00000080: 34e7 84be f71d 23bf 6871 8b3e 9b9c 5fbf
00000090: d035 663f da61 3f3f 4a49 cebe 7780 ad3f
000000a0: ce54 ffbd 70d4 38bf dd03 253e 1ee8 553f
000000b0: e5d9 e53e 4206 1d3f ddf5 9dbe c2a0 493f
000000c0: 7ed3 2f3e a970 56be c38a 0a3e 741c bf3e
000000d0: e6f9 8d3f 499e 443e 7978 25bf 09f4 5d3e
000000e0: ad62 ad3d a4b5 45bf 4857 dc3e a7ad 84bf
000000f0: 6ac7 413f 1069 6d3f eb08 07bf 7127 403f
00000100: 4893 f13e aff2 c1bf cb28 4e3f d5d7 17bf
00000110: 4381 6e3f 2f35 e7be 8d70 f6be eec5 17be
00000120: b204 f43e 10ba a43f 9c20 eebe d828 823e
00000130: 2748 983f ac23 be3e 92a0 19bf 9ce2 b13e
00000140: 6ba9 a4bc 6967 1ebe 46f5 bf3e 3c58 3bbf
00000150: f861 9f3e 15c5 59bd 94d8 c2bf 167d 34bf
00000160: de70 f5be fb89 543f f82c 80bf 9c2a f73e
00000170: a4fc 5cbd 305e 13be a2ab 273f 8df8 703e
00000180: da59 00bf 60f6 b73f 7665 9bbd 2d6b 613e
00000190: f9bb 623e c8f0 8fbe f681 49be 9003 c2bf
000001a0: ada8 e93e c434 ac3d 3a6c 28bf 5ea6 83be
000001b0: f7b9 bd3e f07d 1f3d d3de c33d 97e3 013e
000001c0: a294 c83e 90a0 8ebe c468 84bd 16db 503c
000001d0: 0fbc ccbd df6b 0cbe 2836 953f d7ac 92bd
000001e0: 9f00 76be 0ea7 25bf 498f 343f 1e35 3c3e
000001f0: f5b1 113f e101 97bf dd71 38bf e411 043e
00000200: a079 43bf 5449 203d d7e4 7f3e dc93 4a3e
00000210: cfc3 05be 3b99 a73e a7c4 853f b244 63bf
00000220: e750 cbbe 2efa 09bf 3971 be3e 7d19 23bf
00000230: e85d 6c3f 4484 7e3f d3ed f23e 2256 07bf
00000240: 13f9 093f 5153 c9bf 219a aebe d013 b5bd
00000250: 44fb a2bf 73fb 4b3e b618 babd 483c 533e
00000260: 29be 873f 6a5e b6be 4ec3 eebd 37e6 be3f
00000270: d534 42bf 314e b93e 7b61 d63e 5b25 6e3e
00000280: e7ec c23d 91f5 1c3f 0420 e93e 6579 9bbd
00000290: ddd1 0d3f e3d6 0c3f b6d2 4b3e ba5a b4bd
000002a0: 2a4b b7b8 f953 e2be 96b6 f6bf b618 a13e
000002b0: 17ee 683e 0b62 ccbe 6a59 813b 4b73 153f
000002c0: cbe4 b23d 6539 1a3f 876a a2bf 8807 77bf
000002d0: 63c9 2a3f 6aa6 db3a eda5 8c3d 33e3 0fbf
000002e0: 6535 bc3d 4171 9fbe f33a df3e 6a79 4b3e
000002f0: 188c d9be be04 8b3e 05a2 7b3f a61c 3ebf
00000300: ca0c 363e bf8b 823e 2125 6abe 0a63 d9bd
00000310: 10c9 47bf a9ff 7a3f f03e 4abe e448 b7be
00000320: 1270 16be 272e 1bbf 02cd 503f 1565 57bf
00000330: c9c0 3e3e b936 37be a803 ebbd f79f 243f
00000340: d979 923f 4789 5cbf 438b 8dbf 7cc7 65bf
00000350: 1489 35bf e8f1 32bf 40c6 c83f a240 0b3e
00000360: 703a 47be aa20 373f d604 65bf 9b79 4c3f
00000370: 7b0a fabe afcd f6bd fffc e53d ae9a 913e
00000380: a859 a1be 4ff1 f33f 8c28 6e3f 5c0d 013f
00000390: beef e43d 9e6f 093f ce14 883e eb62 e73e
000003a0: a2d3 483f 0373 11bf 612f 643e d393 a0bd
000003b0: 71bb 943f 87ad 0f3f 632e b63d 76b5 e23e
000003c0: 176b 893d 9243 12bd b721 1e3f b384 b23e
000003d0: bf12 123f 2a6a 433b 3d94 cebe ea6a a83f
000003e0: 97e4 1d3c dbc9 db3e e617 d63e 7628 5cbd
000003f0: 3773 0b3f a6a9 be3e aafa 85bc 87b5 15bf
0.26669925 -0.023247318 0.28127328 0.08965265 -0.018925367 -0.7339923 -0.2731922 -1.115582
0.14457987 -0.15839015 1.0499171 -0.726686 -0.058167614 -1.0786909 -0.2537519 -0.5100852
-0.5858207 -0.16006656 0.63447726 -0.0038749557 -0.5125792 0.20696598 0.37581784 0.6459499
-0.35448396 -0.51947844 -2.3121803 -0.100991674 -0.078848675 0.02675674 -1.2733539 -0.45417607
-0.25957644 -0.637176 0.2723496 -0.87348336 0.8992586 0.74758685 -0.4029029 1.3554829
-0.12467347 -0.72199154 0.16114755 0.8355731 0.44892803 0.61337674 -0.3085164 0.7876092
0.17170522 -0.20941414 0.13529496 0.37326396 1.1091888 0.19201006 -0.6463695 0.21675123
0.084660865 -0.77230287 0.4303534 -1.0365494 0.75694907 0.9273844 -0.5274798 0.7506018
0.4718268 -1.5152186 0.80530995 -0.5931371 0.9316599 -0.45157763 -0.48132744 -0.14821598
0.47659832 1.2869282 -0.46509254 0.25421786 1.1897019 0.3713659 -0.60010636 0.34743202
-0.020100316 -0.15469135 0.37491816 -0.7318151 0.31129432 -0.053166468 -1.5222344 -0.70503366
-0.47937673 0.8302304 -1.0013723 0.48274696 -0.053951874 -0.14391398 0.65496266 0.23532315
-0.501371 1.4372063 -0.075877115 0.2201354 0.22142018 -0.2811339 -0.19678482 -1.5157337
0.45636502 0.08408502 -0.6579014 -0.25712866 0.37055942 0.038938463 0.09563985 0.12684475
0.39175898 -0.27856874 -0.06465295 0.012747547 -0.09996807 -0.13713025 1.1657152 -0.07161873
-0.24023674 -0.6470803 0.70531136 0.18379638 0.56912166 -1.1797448 -0.7204874 0.1289745
-0.7635746 0.03913243 0.24989639 0.19782966 -0.13062976 0.32734093 1.0450639 -0.88776696
-0.3971016 -0.5389737 0.37195757 -0.6371077 0.9233079 0.9942057 0.4744707 -0.52865803
0.5389568 -1.5728551 -0.34101966 -0.088416696 -1.273293 0.19920139 -0.090867445 0.20628464
1.0604907 -0.35618907 -0.11658345 1.4914006 -0.75861865 0.36192468 0.41871247 0.23256437
0.09517842 0.61312205 0.45532238 -0.075915135 0.5539835 0.5501539 0.19904599 -0.08806367
-8.7401204e-05 -0.4420469 -1.9274471 0.31464165 0.22747074 -0.3991855 0.0039474266 0.5837905
0.08735045 0.6024383 -1.268876 -0.96495867 0.6671354 0.0016757969 0.06867585 -0.56206053
0.09189872 -0.31141093 0.43599662 0.19870535 -0.42489696 0.27152056 0.982941 -0.74262464
0.17778316 0.25497243 -0.22865726 -0.10614593 -0.7804117 0.98046356 -0.19750571 -0.357978
-0.14691189 -0.606173 0.8156282 -0.84138614 0.18628229 -0.17891969 -0.11475307 0.64306587
1.1443435 -0.8614697 -1.1058124 -0.89757514 -0.7091229 -0.6990037 1.5685501 0.13598874
-0.19455886 0.71534216 -0.89460504 0.79873055 -0.4883612 -0.1205095 0.11229896 0.28438324
-0.31513715 1.9058017 0.9303062 0.5041101 0.1117854 0.5368594 0.26578373 0.45192656
0.78447926 -0.5681612 0.22283699 -0.07840695 1.1619703 0.56124157 0.08895566 0.4427907
0.06709879 -0.03570897 0.61770195 0.34866866 0.57059854 0.0029817917 -0.40347472 1.3157628
0.00963702 0.4292744 0.41815108 -0.053749524 0.5447268 0.37238806 -0.016354878 -0.58480114

features.bn2.weight f4 [64]
00000000: 9434 683f bf52 203f 11f5 083f 89c4 223f
00000010: 455c 5b3f 41a9 263f 6cca 5c3f 80a6 383f
00000020: 7008 623f 823e 7e3f bd10 483f 4533 3a3f
00000030: 5b48 2f3f 1b41 613f bed4 6c3f 6496 2d3f
00000040: 34a0 203f e6b9 3d3f a2ce 6a3f e4f4 473f
00000050: 0440 143f 0fba 193f 9156 533f 4fd4 583f
00000060: c28c 513f 54f3 443f 7ac9 513f 032f 473f
00000070: 8d39 393f f1cf 3d3f 395b 3a3f a4af 683f
00000080: 8cfe 653f 78d3 313f 6f6c 3b3f 2a5c 813f
00000090: 6a2b 403f fa88 623f cb00 373f bed5 3c3f
000000a0: 8f48 1a3f d311 453f c235 553f 5134 cd3e
000000b0: cfb1 343f bb38 143f 1f6c 203f 9f9f 293f
000000c0: 767b 683f 6848 493f 108b 3b3f c159 383f
000000d0: 5132 623f 0baa 2c3f 0819 873f f92f 643f
000000e0: d836 5d3f 9866 173f 6eb0 353f c0c3 3d3f
000000f0: 0f04 313f d694 793f de1c 6b3f e6d7 413f
0.9070523 0.6262626 0.5349894 0.6358114 0.8568767 0.6510201 0.8624637 0.7212906
0.88294125 0.9931413 0.7815054 0.7273448 0.6846978 0.8798997 0.9251212 0.678076
0.6274445 0.74111784 0.91721547 0.7810805 0.5791018 0.6004953 0.82553965 0.8469896
0.81855404 0.7693379 0.81948054 0.7780611 0.7235344 0.7414542 0.72795445 0.90893006
0.8984153 0.694633 0.7321233 1.0106251 0.75066245 0.8849026 0.71485585 0.73763645
0.60266966 0.7698032 0.8328515 0.40078977 0.70583814 0.57899064 0.6266498 0.6625919
0.90813386 0.7862611 0.7325907 0.72011954 0.88358027 0.67446965 1.0554514 0.891357
0.8641181 0.5914092 0.70972335 0.74126816 0.6914682 0.9749273 0.9184092 0.7572006

features.bn2.bias f4 [64]
00000000: 7a0e e0be 35a1 2140 6e7e 34be 310f 84bf
00000010: ea84 67bd f294 0b3f c992 2cbe 0bfa 53bf
00000020: b995 dcbe c6e0 5f3e 80b9 82be 0848 22bf
00000030: 2238 a6be afaa 33bf 0877 2fbf dc4d 27bf
00000040: 8e6f 913e de6f 32bf ffe0 3ebf 5799 7abf
00000050: caed d23e 936c c3be bef2 cebe 2006 2abf
00000060: 0768 5dbf 5568 2cbf ffc2 ecbe 8fa2 1abf
00000070: d0ca 85bf cde1 123f 5ccd 3bbf 4185 84bf
00000080: ee0d 4dbf ba8c d6be e719 1fbf 626c 5fbf
00000090: 0bb5 84bf 53fb 30bf dc72 c5be cc5a dabe
000000a0: 70cf 2ebf 4047 55bf 8c70 33bf 8a69 c83e
000000b0: a006 45bf 86f7 693e 9d93 08bf 7bbd 9dbe
000000c0: bd48 24bf 0632 f8be 5432 8dbf 1a7f 5dbf
000000d0: 7205 6bbe cfe1 86bf 2826 3ebf 2dd7 1dbf
000000e0: f1d2 2bbf fc7e 133e 4201 d8be 9109 2fbe
000000f0: b4e2 59bf 0310 42bf 31bc 85bf 84f8 6abe
-0.43761045 2.5254643 -0.17626354 -1.0317136 -0.05652324 0.5452415 -0.16852869 -0.8280341
-0.4308298 0.21863088 -0.2553215 -0.6339116 -0.324647 -0.7018232 -0.68541 -0.6535318
0.28405422 -0.69701946 -0.74562067 -0.9789023 0.41197044 -0.38168773 -0.40419573 -0.66415596
-0.8648686 -0.673467 -0.4624252 -0.60404295 -1.0452518 0.57375795 -0.7336023 -1.0353166
-0.8009938 -0.4190424 -0.621489 -0.87274754 -1.036775 -0.6913349 -0.38564193 -0.42647398
-0.68285275 -0.83311844 -0.7009361 0.3914302 -0.76963234 0.22848329 -0.5335024 -0.30808625
-0.6417349 -0.48475665 -1.1030984 -0.86522067 -0.22951296 -1.0537661 -0.7427697 -0.6165646
-0.67118746 0.1440391 -0.4218846 -0.17093493 -0.85111547 -0.7580568 -1.0448056 -0.22946364

features.bn2.running_mean f4 [64]
00000000: f5ca 663d b7d5 32c0 0ed1 3e3f 67bc 27c0
00000010: 2299 973f 2fa0 a43f 252e 3f40 9886 dac0
00000020: 19e2 f73f fd46 9bbf da73 2840 c8bf 95c0
00000030: a2e3 5cc0 dd48 c1c0 8ec5 653f 653b 423f
00000040: b244 3a40 d711 12c1 456d e8bd 7607 2bc0
00000050: facd e1c0 104f 7fc0 85f2 2140 547f 0a3f
00000060: 3d36 2fc0 4456 5c40 bbef dec0 fb0b 16c1
00000070: 2c11 95c0 b5be c640 a019 fdbf 06aa 19c0
00000080: 138d dcbe 6f0d 98bf 08a9 cec0 e5e2 f13f
00000090: 34f6 adc0 7365 7bbf 4a40 a73d 9ff3 27c0
000000a0: ee24 90c0 1016 6bbf dbdd 11c1 f376 9dbf
000000b0: 8b44 86c0 3cc8 1d40 e40f 80c0 779d 25c0
000000c0: e981 a0bf 87ef c0c0 3584 eabf 5b44 5dbf
000000d0: 1fd9 4040 1ef8 6ac0 cddb 993f 3ef3 48c0
000000e0: 3cce 1ec0 a3c0 cb3f a20d 01c1 ce8e 45c0
000000f0: 94be 2ec0 6d5d 08bf 21ec a9bf ed79 f13f
0.0563459 -2.794294 0.7453774 -2.6208742 1.1843607 1.2861384 2.9871914 -6.82893
1.9365875 -1.2131039 2.632071 -4.679661 -3.4513936 -6.0401444 0.8975457 0.7587188
2.9104428 -9.129355 -0.113489665 -2.6723304 -7.0563936 -3.9892006 2.5304272 0.5410054
-2.7376854 3.4427652 -6.966764 -9.377925 -4.658346 6.2107797 -1.9773445 -2.4010024
-0.4307638 -1.18791 -6.4581337 1.8897368 -5.436304 -0.98201674 0.08166559 -2.6242445
-4.504508 -0.9183054 -9.116664 -1.2301925 -4.195867 2.4653463 -4.00194 -2.587736
-1.2539645 -6.029239 -1.8321596 -0.8643243 3.013252 -3.6713939 1.2020203 -3.1398463
-2.4813375 1.5918163 -8.065828 -3.086841 -2.730382 -0.53267556 -1.3275186 1.8865334

features.bn2.running_var f4 [64]
00000000: 8ad8 9841 0712 b841 6af8 4141 a189 d441
00000010: 9bab c441 ffc3 b941 e959 cf41 ea3b d141
00000020: f2e4 c541 88c8 5b41 694d be41 3759 a341
00000030: a569 fc41 014a a641 1c21 f041 f383 9141
00000040: 4663 8841 4e19 8541 1b91 5c41 b2c4 9041
00000050: c099 ee41 96dd 8641 9097 d841 c88c c841
00000060: 1363 ac41 fd78 8741 6332 ee41 f3cc dd41
00000070: 1603 a741 1acc 0742 0c31 e141 21ce 6841
00000080: 7c66 9841 95df a341 a0bc f941 efd6 4042
00000090: bb66 af41 c5e2 8841 c0fd 9941 6cd2 8e41
000000a0: 14fb 9141 1f61 d341 b3f5 df41 9f71 a741
000000b0: d25c 9841 1404 8d41 8fad 8741 a015 a141
000000c0: 9947 aa41 77e1 9941 fb31 5d41 2412 6941
000000d0: 3375 ce41 5bda 8e41 99db 9441 c162 db41
000000e0: fb45 ca41 425c cd41 345d d041 9681 c041
000000f0: d419 8b41 cecc e240 1ba8 9b41 ca5b ef41
19.105732 23.008802 12.123148 26.567202 24.583792 23.220701 25.918901 26.154255
24.73679 13.736458 23.787798 20.418562 31.551584 20.786135 30.016167 18.189428
17.048473 16.637356 13.785426 18.096043 29.825073 16.858196 27.074005 25.06874
21.548376 16.934076 29.774603 27.725073 20.876507 33.949318 28.148949 14.550324
19.050041 20.48417 31.217102 48.209896 21.925161 17.110727 19.248901 17.852745
18.247597 26.422422 27.99497 20.93048 19.045322 17.626991 16.959745 20.13556
21.28496 19.23509 13.824702 14.566929 25.807226 17.856619 18.607225 27.42322
25.28417 25.670048 26.04551 24.063274 17.387611 7.0875006 19.457083 29.919819
